saved_models/84_unfilled_myconvnext_2022_03_09_11_01_13.pt (torch, 67175 bytes, 125 tensors)

connection_layers.0.weight f4 [4, 1]
00000000: 563a 293f 9199 643f d73b 5c3f d429 b0bf
0.6610464 0.89296824 0.8602881 -1.3762765

connection_layers.0.bias f4 [4]
00000000: 8bde c5b5 1c7a 9b35 2567 4ab4 010d 37b6
-1.4742412e-06 1.1583938e-06 -1.885024e-07 -2.7276694e-06

connection_layers.1.weight f4 [8, 4]
00000000: 8ca5 6c3f 4946 e63e c360 603d 6f58 813f
00000010: 7a2f 96bf ddcb 183f c7f3 c53e d4d4 3a3b
00000020: fff5 b5bf a4c6 5b3e 315b 80be 09ef babe
00000030: 8493 a13e da29 93be 93d6 b0bd bbd0 dfbd
00000040: 3ec9 3e3f 8e14 ca3d ee02 df3e 30ea 29be
00000050: f0cb 06c0 8998 b83e cd6b 4cbf 5e84 893e
00000060: 8cb9 223f 7ec2 35bf efa8 81bf 0dde d33e
00000070: eb43 003d 41ac 503e f3cd c63e e642 b7bb
0.92440104 0.44975498 0.05477978 1.0105113 -1.1733239 0.5968607 0.3866255 0.0028508203
-1.4215697 0.21462494 -0.25069574 -0.36510494 0.31557858 -0.28742868 -0.08634677 -0.10928484
0.7452582 0.09867202 0.43556923 -0.16593242 -2.1061974 0.36053875 -0.7985199 0.268588
0.6356437 -0.70999897 -1.012968 0.4138035 0.03131477 0.2037821 0.38829002 -0.0055926917

connection_layers.1.bias f4 [8]
00000000: c064 1fbd 2547 8bbd b1c3 45bd 8eb3 ccb9
00000010: d255 ab3c 6bd6 fd3a 794a 20bd b2de d93d
-0.038914442 -0.06800679 -0.04828233 -0.0003904369 0.020914946 0.001936627 -0.039133523 0.10638179

connection_layers.2.weight f4 [16, 8]
00000000: 2f2a e93e 4d58 38be 3af4 43bf 830a 9cbf
00000010: 3163 33bb d408 43bd 64b5 3fbf 9ae7 91be
00000020: 6f51 203f b29c 31be 86f5 2ebb 0cff cb3d
00000030: d764 55be 6810 81bb a725 c93a 0e42 ccbf
00000040: d376 b4be 4783 8bbd 6671 40be 3341 783f
00000050: ca02 863d 4380 2b3f a34b 1c3f 77d3 f7bc
00000060: 2c82 89bc 200d 34bd 9a29 fd3e 0598 d13e
00000070: e26d 14bc cd3a 973e 72a9 9abe 9e1f 0c3f
00000080: e4ed ba3e db08 113b 64ef d1bb 5b06 aebe
00000090: 81ca 6dbe 61e0 18bf 130a 033f 2809 c3be
000000a0: 7d80 263f a109 cabd 06f2 313b 8d2f 59bd
000000b0: fcc6 90be 2790 26bf 4c79 cdbd 835a 893e
000000c0: 9e6e 3d3f 73d8 0cbf 59be 493f 1142 d5be
000000d0: bdc6 05be b6b4 4ebe 7c6a b13d d106 4bbe
000000e0: 9872 753e bd94 e83d 1cf3 45bd 08a7 483c
000000f0: a34e 58bd 0053 e83e 46ff 4d3e ee81 eebe
00000100: 8562 1ebf 9199 2a3e 4903 b3be 0efd a63e
00000110: a5f9 d93e 8388 da3d 273b 90bd f2a4 e23e
00000120: cbf4 19be e091 8d3e abe0 83bb ee98 3d3d
00000130: ca4f 06bf 117d 44be 12cb 4d3f e055 73be
00000140: 821f d0bd a473 c63e b563 ef3d 29ec 5abd
00000150: 4dee 09bf b48c 523f 0f0e 9abd 7ccc 103e
00000160: 1263 303e 2665 19bf d291 bbbe cd52 4cbf
00000170: f221 9e3a 0056 18bc 9917 853d 152c 773c
00000180: 0bc0 c2bc 315f 2d3f 625d 3a3e 3d97 e3bc
00000190: b982 a93e 3e00 e43c e86f 03bd 2df2 ecbe
000001a0: af65 193e 8250 c4bb 557d 82be e2e1 86bf
000001b0: 418e af3e 50fc 7bbe e593 003e d97c 23be
000001c0: b988 abbd 730e 7b3f 520f 473c a0c4 ffbd
000001d0: 927a 90be a89f e5bc 569c 72bd 69e8 a6be
000001e0: 3a61 02be 04f5 013d 91a4 e6be def7 4ebf
000001f0: dc9f 9a3d cd8d d23e 9c0d 253f cce9 52be
0.45539996 -0.18002434 -0.76544535 -1.2190708 -0.0027372355 -0.04761584 -0.74886155 -0.2849701
0.6262426 -0.17344931 -0.0026696636 0.09960756 -0.20839249 -0.0039387234 0.0015346304 -1.5957658
-0.35246906 -0.068121485 -0.18793258 0.96974486 0.06543501 0.66992587 0.6105291 -0.030252201
-0.016785704 -0.04395783 0.49445802 0.40936294 -0.009059401 0.2953705 -0.30207402 0.54735744
0.3650962 0.0022130522 -0.0064067114 -0.33989224 -0.2322178 -0.59717375 0.5118725 -0.38092923
0.6503981 -0.09865118 0.0027152314 -0.053023864 -0.28276813 -0.6506371 -0.10032901 0.26826867
0.73996913 -0.55017775 0.7880607 -0.41651967 -0.13064094 -0.20186123 0.086628884 -0.19826819
0.23969495 0.113564946 -0.04832755 0.012246855 -0.05280937 0.45375824 0.2011691 -0.46583503
-0.6186908 0.16660143 -0.34963444 0.3261494 0.42573276 0.10670569 -0.070425324 0.44266468
-0.15034787 0.27650356 -0.0040245852 0.046288423 -0.524655 -0.19188334 0.80387986 -0.23763227
-0.1016226 0.38760102 0.116889395 -0.053447876 -0.53879243 0.82245946 -0.07522213 0.14140505
0.17225292 -0.59919965 -0.3663469 -0.79813844 0.001206456 -0.009297848 0.064986415 0.015086194
-0.023773214 0.67723376 0.18199685 -0.027782077 0.33107546 0.027832147 -0.032089144 -0.46278515
0.14980195 -0.0059910426 -0.25486246 -1.0537684 0.3428822 -0.24607968 0.12556417 -0.15965594
-0.08375687 0.9806892 0.012149649 -0.12488675 -0.28218514 -0.028030232 -0.059231125 -0.3259919
-0.12732401 0.031727806 -0.4504743 -0.80846965 0.07550022 0.4112381 0.6447389 -0.20596999

connection_layers.2.bias f4 [16]
00000000: 220f e9bc c933 443c 81cb 293c 9434 26bd
00000010: d6f6 243d 2d4e b3bc 5f0a 9cbc b435 623b
00000020: f59e e6ba 8637 e13a 172a fdbb 6f32 083d
00000030: 6c4b afbc 6b7b 41bc 4ab4 f53c da8a 93bc
-0.028449599 0.011975237 0.0103634605 -0.040577486 0.040274464 -0.021887863 -0.019047914 0.0034516873
-0.001759498 0.0017182685 -0.0077259648 0.033251222 -0.021398269 -0.01180921 0.029993195 -0.018010546

norm_layers.0.weight f4 [4]
00000000: 6a46 583f ea4c 583f ed4e 583f ca4c 583f
0.84482443 0.8449236 0.8449543 0.8449217

norm_layers.0.bias f4 [4]
00000000: d91a aebd 97d2 4fbd e4df f83c dac1 4b3d
-0.085012145 -0.050737944 0.030380197 0.049745418

norm_layers.0.running_mean f4 [4]
00000000: a3c6 c839 0acd 073a 00bf 023a 8393 51ba
0.00038294969 0.00051803945 0.00049875677 -0.0007994698

norm_layers.0.running_var f4 [4]
00000000: 1df7 df3e a353 4c3f 7aa5 3d3f 50a9 f23f
0.4374322 0.7981512 0.7408062 1.895792

norm_layers.1.weight f4 [4]
00000000: 7a87 593f b4e4 5b3f 4af8 5a3f f7fe 573f
0.84972346 0.8589585 0.8553511 0.8437342

norm_layers.1.bias f4 [4]
00000000: c539 363d 1d4c c7bc cd38 873d 48be febc
0.044488687 -0.024328286 0.06602631 -0.031096593

norm_layers.1.running_mean f4 [4]
00000000: 84f2 93b7 0275 1b39 00d1 7839 4822 0234
-1.7636696e-05 0.0001482554 0.00023728982 1.2119665e-07

norm_layers.1.running_var f4 [4]
00000000: ab3c 2f31 7778 5a34 077c 2935 3d8b 0a30
2.5500337e-09 2.0346657e-07 6.313789e-07 5.0401977e-10

norm_layers.2.weight f4 [8]
00000000: 322a 593f 50fe 583f d748 583f 9a6e 583f
00000010: e4a8 583f 37cf 593f 73bb 593f a37d 593f
0.8483001 0.8476305 0.84486145 0.84543765 0.84632707 0.8508181 0.8505165 0.8495733

norm_layers.2.bias f4 [8]
00000000: 64db d9bc 4c33 15bb 8858 9fbc 3183 2f3c
00000010: 8e4e 74ba c575 68bc 8311 4f3d d6df 89bc
-0.026593871 -0.002276617 -0.019451395 0.010712431 -0.0009319567 -0.014188235 0.05055381 -0.016830366

norm_layers.2.running_mean f4 [8]
00000000: cea1 95b9 cd07 8e39 8bf2 4eb9 6470 aab8
00000010: 9416 cb36 e48d 06ba 1f4a 193b 1927 5239
-0.00028540049 0.00027090163 -0.00019736045 -8.127166e-05 6.0525e-06 -0.00051328377 0.0023390127 0.00020041726

norm_layers.2.running_var f4 [8]
00000000: da98 d335 d287 5b34 3914 5233 ab28 5f34
00000010: 3e59 9c32 b6ad f733 90bd 8838 1844 e735
1.5765211e-06 2.0445376e-07 4.8912828e-08 2.0783288e-07 1.8201373e-08 1.15334316e-07 6.520294e-05 1.7230659e-06

stages.0.0.gamma f4 [4]
00000000: 23a2 e838 b723 453a 7fe4 303b 2ca0 1bb8
0.000110928224 0.00075202755 0.0026991663 -3.710405e-05

stages.0.0.norm.weight f4 [4]
00000000: 7821 623f 37a0 5b3f f3ec 603f a466 643f
0.8833232 0.85791343 0.87861556 0.8921912

stages.0.0.norm.bias f4 [4]
00000000: 54f2 9c3d 8b2b 51bd defb c2bd dc9c bcbd
0.07663408 -0.051066916 -0.09520696 -0.09209606

stages.0.0.norm.running_mean f4 [4]
00000000: 3bf6 34be c440 b4bc fa02 a83c a1a9 323d
-0.17672054 -0.022003539 0.020509232 0.043618802

stages.0.0.norm.running_var f4 [4]
00000000: a096 8b40 6104 833e ebb9 4b3e 7bfd 683f
4.362137 0.25589278 0.19895141 0.9101178

stages.0.0.pwconv1.weight f4 [8, 4]
00000000: c23d 0d3f 113b a8be 2cbd 053e 5c0b 54bf
00000010: 5066 d33e de5c 613f ce17 0ebf ff05 debe
00000020: ee08 69bf 4b4b 493e 3574 103f 7837 7ebd
00000030: f58e 273f 181b 9dbf f751 c13e 0be4 d8bc
00000040: 4f63 853e 9593 a03e 8bf2 473d 86f5 ea3e
00000050: ac07 83bf 2b02 e7bb f007 31bf a9cc b5bf
00000060: 1569 5c3f c156 b73e b72d b5be 32f1 8ebe
00000070: 5d11 e8be 7243 0a3e 34cf 28bf 3106 fdbe
0.5517236 -0.32857564 0.13060445 -0.82829833 0.41288996 0.8803233 -0.55505073 -0.4336395
-0.9102925 0.19657628 0.5642732 -0.062064618 0.6545251 -1.2273893 0.37757847 -0.026475927
0.2605233 0.31362596 0.04881529 0.45890445 -1.0236716 -0.007049819 -0.69152737 -1.4203082
0.8609784 0.35808375 -0.3538644 -0.27918392 -0.45325747 0.13502291 -0.65941167 -0.49418786

stages.0.0.pwconv1.bias f4 [8]
00000000: a426 53bd 54d8 823d 92a1 cdbd e317 cf3d
00000010: f2ca cc3c 6f08 a33d 8920 9c3c f626 583d
-0.051550522 0.063889176 -0.10040583 0.10111978 0.024999116 0.07960593 0.019058483 0.05277153

stages.0.0.pwconv2.weight f4 [4, 8]
00000000: ea1f 563e ec0f d4be 90eb 77bd e676 8b3e
00000010: 8a0e c13e e3ce 20bf 5ce3 3f3e 61e3 f7bd
00000020: 928f a8be 8be4 953e 5637 943e 0d10 023f
00000030: b2b0 003e 4c50 2bbe 15c8 d13e 72d6 f8be
00000040: 599d 463c a274 7a3e a3e7 bcbc ae61 cf3d
00000050: 8dae 90be bc65 853e f5b1 d4be f342 6f3e
00000060: 13b4 02bd 4097 24bf 1fcc 18be 78d1 89b9
00000070: 5741 323f eb8f 49bf 8ece 7f3f f404 b33e
0.20910612 -0.41418397 -0.060527384 0.2723915 0.37706405 -0.62815684 0.18739074 -0.12103916
-0.32922035 0.29275927 0.28948468 0.5080574 0.12567404 -0.1672985 0.40972963 -0.4860111
0.012122476 0.24458554 -0.023059672 0.10126053 -0.28258172 0.2605418 -0.4154202 0.23365383
-0.031910013 -0.6429329 -0.14921616 -0.00026286743 0.6963095 -0.78735226 0.9992455 0.34964716

stages.0.0.pwconv2.bias f4 [4]
00000000: 8ddf 1e35 fbb4 9fb6 3ef0 bc35 ebc5 a434
5.9184896e-07 -4.759638e-06 1.4077011e-06 3.0691385e-07

stages.1.0.gamma f4 [8]
00000000: fa04 253b e03a 05ba 8a9d 45b9 faa1 013a
00000010: 6acc 8339 fa4b 9c3a 8cad 713c 43cc 713a
0.0025179968 -0.00050823204 -0.00018846072 0.0004945096 0.00025138567 0.0011924498 0.014750849 0.0009223858

stages.1.0.norm.weight f4 [8]
00000000: 03ac 5b3f 14a4 5a3f 76cf 593f 5ac8 593f
00000010: faad 593f 0529 593f 8dd1 583f fb48 5b3f
0.85809344 0.85406613 0.85082185 0.8507134 0.8503109 0.84828216 0.8469475 0.85658234

stages.1.0.norm.bias f4 [8]
00000000: 6218 dc3c 8f72 8db9 c11c adbc 4f26 a1bc
00000010: 6b2f 863d b9c4 093c 0ca8 8d3d bda1 17bd
0.026867095 -0.00026978969 -0.021131875 -0.019671587 0.06552013 0.008408719 0.06916818 -0.03701948

stages.1.0.norm.running_mean f4 [8]
00000000: 03ca 6b3d b74a 0e3d 7586 1dbd 7946 bebc
00000010: 3fc1 17bb 0d01 82be 5f93 25bd 1b2f 66be
0.0575657 0.034739222 -0.038458306 -0.023226963 -0.0023155955 -0.25391427 -0.040423747 -0.22478907

stages.1.0.norm.running_var f4 [8]
00000000: 937d cb3b e758 f93a a855 893a cd9a 743a
00000010: c0fd 9d3b c7a6 873d c166 9b3c 462d f73b
0.006210038 0.0019023687 0.0010477798 0.00093309284 0.004821509 0.06623607 0.018969895 0.007543239

stages.1.0.pwconv1.weight f4 [16, 8]
00000000: a9e7 ea3c 7f72 743e 6b6a 8a3d ee3f aa3c
00000010: 732b 01be a701 233c 714a 1d3e 6325 c5be
00000020: e22f 4a3b c6ed f1be cc63 2ebf 656a d83e
00000030: 584b a93e 536c b9bc d0fd b4be 7901 4cbf
00000040: 0503 9cbe 2ce8 3ebf fe5c bfbd 273e 003f
00000050: 1786 b4bc 7290 44bf 3356 f9bc b11f 423e
00000060: 3619 6e3f 5665 713e 0854 d0be f788 0dbd
00000070: 86d0 de3e 85df 5aba b848 883c 4b4b f33d
00000080: a67e 1c3f 323d ce3e a52f a5be 4f04 44bf
00000090: 44b7 083d 8b5b b5bd de8e 813f d20c 4dbe
000000a0: 3a34 f3be 8b73 343c b325 53be d3a5 33bb
000000b0: 891b c9bd 02e0 6c3d 2984 973e 1966 963e
000000c0: ef89 c23e 7a1f 0abe 0786 65bc 27ce 4b3c
000000d0: 9d73 f93d 85bc 53bf 0c65 9fbe c3f1 723f
000000e0: 06a2 2d3d 49e2 cebe 6e9d f0be 6e9b 39bf
000000f0: acea 56be ba59 d0be 6bb9 763e 328f a43e
00000100: 7ca3 43be cb67 303f 73ad 183e 289b 553e
00000110: 2af7 53bd d459 80be 294e ba3e 3d97 5fbf
00000120: 5571 09bf 0fef 83be 1dd8 2a3f 4c5b 5a3f
00000130: 504b 5c3f 9ee2 6d3e e57e c63f e80b eebe
00000140: 15a3 a5bf 330d 693f aa58 36bd 9095 6f3e
00000150: d8e6 d4be 0604 b13d 9e6c 253d 71c8 743f
00000160: b0da 26bb c874 2e3e 9655 663f fd5e b0be
00000170: c164 f53c 9003 a1be 1371 d4bd 080e 20be
00000180: 94b7 d73d e26d d63d d6bb 8cbe 65c2 403e
00000190: 1cc9 c1be 515b edbd 1bb5 2abe a313 d4bd
000001a0: 9076 06be 9deb 52be 5a6e 9fbd 41ec d9be
000001b0: dfd2 b23d bf67 a7bd f88a d83d c831 803f
000001c0: f655 423f 9f63 49bb f793 e2bc 476c b8be
000001d0: 16de ae3d af3e 243e dd3a 313e ca33 523e
000001e0: 44cf 623e 4856 4f3e 9fea ac3d 25a3 7abf
000001f0: f5fe a73a d0cd 56bf 9c5d 3a3e 0569 69bd
0.028674917 0.23871802 0.06758579 0.020782437 -0.12614231 0.009949124 0.15360428 -0.38505086
0.0030851294 -0.4725172 -0.6812103 0.42268673 0.33065295 -0.02263466 -0.35349894 -0.7968975
-0.30471054 -0.74573016 -0.09343909 0.50094837 -0.022036595 -0.76782906 -0.03043661 0.18957402
0.9300722 0.23573813 -0.4068911 -0.034554448 0.43518466 -0.0008349347 0.016636238 0.11879595
0.6113075 0.40281063 -0.32262912 -0.76569074 0.0333779 -0.08855351 1.0121725 -0.20024422
-0.47500783 0.011013876 -0.2061985 -0.0027412071 -0.09819705 0.057830818 0.29593018 0.2937477
0.3799586 -0.1348857 -0.014009005 0.012439287 0.121802546 -0.8270953 -0.3113178 0.9490015
0.042390846 -0.40407017 -0.4699511 -0.7250279 -0.20987958 -0.40693456 0.24094169 0.321405
-0.19105333 0.68908376 0.14909916 0.20859969 -0.051749386 -0.25068533 0.36387756 -0.87340146
-0.53688556 -0.25768325 0.6673601 0.8529556 0.8605242 0.23230979 1.5507475 -0.4649346
-1.2940394 0.91035765 -0.04451815 0.23396897 -0.4158237 0.086433455 0.04038679 0.9561835
-0.0025459938 0.17036736 0.89974344 -0.3444747 0.02995527 -0.3144803 -0.1037313 -0.15630352
0.105330616 0.10470177 -0.27487057 0.18824156 -0.37848747 -0.11589683 -0.16670649 -0.10355308
-0.13131166 -0.20597692 -0.0778472 -0.4256306 0.08731627 -0.08174085 0.10573381 1.0015192
0.75912416 -0.0030729545 -0.027658446 -0.3602011 0.08538453 0.16039537 0.17307611 0.20527568
0.22149378 0.20247757 0.08443188 -0.9790519 0.0012817072 -0.83907795 0.18199772 -0.05698492

stages.1.0.pwconv1.bias f4 [16]
00000000: 9f1d 63bc a46f 6ebc 4b2a 7f3b c8d9 dd3c
00000010: 8c2e cf3c 6f16 94bd 2399 c5bc 880f de3b
00000020: e505 703c e14d 003d c82d 7ebc ac9f 8cbd
00000030: dfe6 97bd 486e 75bc 02b5 d2bc 4fac 5d3d
-0.013862043 -0.014552984 0.003893512 0.027081385 0.02529075 -0.07230841 -0.024120873 0.006776754
0.014649843 0.03132427 -0.015513845 -0.068663925 -0.07417082 -0.014979906 -0.025721077 0.054119404

stages.1.0.pwconv2.weight f4 [8, 16]
00000000: f188 02bd a9f1 b1be 9c9b b73e 70f2 ad3b
00000010: 682e 33be f262 b3bc fa4e 23be 3e2c eebd
00000020: c8af dc3e df9e 95bd 893c 693e 5794 94bd
00000030: e2a8 96bd 1685 8e3d bcbc 08be bff9 86bd
00000040: 55b8 72bd 340d d63e 2ee1 88be 239a 78be
00000050: 7b96 5cbc bf82 cdbc 0fb8 62bd 721d 6d3d
00000060: 48d3 ff3d 0668 d9be e6bd 91be 4180 053f
00000070: 2966 30bd 5c8b b6bc abd3 78be 1022 7ebb
00000080: 4615 9e3b 1d41 a2bc 9688 b93e dba7 dc3b
00000090: 367e b33e a6e9 303f 5a3d 4a3f 2bda 61bb
000000a0: b016 c2be cd94 293f c6e2 82bc fee7 2b3e
000000b0: 9d49 65be ad7b 86be 728d 17be 7841 703c
000000c0: bf20 9b3b 89ac 003d a751 68be 3320 413e
000000d0: 4c61 a43e 3505 f23c f1b4 d3bd 56c2 6a3c
000000e0: d7ce 7dbc cd86 5d3e 864d 0cbf f0cb ecbe
000000f0: 3609 aabe 06be b2be dcee 6f3e 4918 683c
00000100: 7ec4 aabe b094 633d f5c5 c73b 5e0f 8a3e
00000110: c2fd 6dbb 786a 123e 16c2 a43e bb82 27bd
00000120: 543a d5bd 1f7b 633c eea3 93be 9543 c13d
00000130: 668d 543f be4f aebe e8a4 a13b d0cf a83c
00000140: 9969 a1bd c110 e53d 0700 07be 92cc 86bd
00000150: 08ab b9bd d50b 163d fd49 5bbe 804c 41bd
00000160: 853f f1bb d4d7 13be e376 83bd 4c92 f3bd
00000170: 2460 d03d 7b94 debd ddd4 50be 64ec 4a3d
00000180: 566a 3dbd f236 0fbd 7211 103d 0bbd a2bd
00000190: d13d dd3e e7a3 373e 2528 36be af37 2abf
000001a0: aa57 b63e 739b fd3b 331d 1e3e be7e 3cbf
000001b0: 0466 ffbe 4301 8ebe 6a2d 6b3e f75b f13e
000001c0: 7e55 43bc 6cf9 d3bc 7901 81be cff0 24be
000001d0: a4ff d0bd ea00 a43e aa06 823c ec36 a63d
000001e0: 14ee 2a3f 1d34 403f a2ff 48bd 1c37 e5be
000001f0: e912 8a3c 304a 51be e712 563e a837 0fbf
-0.03186888 -0.34754685 0.35860908 0.005308442 -0.17498171 -0.021897767 -0.15948096 -0.11629532
0.4310286 -0.07305693 0.22776999 -0.07254856 -0.073564306 0.06958978 -0.13353246 -0.06590604
-0.059257824 0.41806948 -0.26734298 -0.24277548 -0.013463612 -0.025086759 -0.055351313 0.05788941
0.124914706 -0.42462176 -0.28465194 0.52148825 -0.043066178 -0.022283249 -0.24299495 -0.0038777627
0.0048243133 -0.019806439 0.3623702 0.006733877 0.3505723 0.6910652 0.78999865 -0.0034462314
-0.37907934 0.66242677 -0.015977275 0.16787717 -0.22391362 -0.26266232 -0.14800051 0.0146640465
0.0047341282 0.031414542 -0.22687398 0.1885994 0.32105482 0.029543499 -0.10337246 0.01432856
-0.015491209 0.21633454 -0.5480579 -0.46249342 -0.33210152 -0.349106 0.23430961 0.014165946
-0.33353037 0.05556172 0.0060965964 0.2696485 -0.0036314582 0.14298427 0.32179326 -0.04089616
-0.10411516 0.013884335 -0.28836006 0.094367184 0.83028257 -0.34045213 0.0049329884 0.020606905
-0.07881469 0.11184836 -0.13183604 -0.065819874 -0.09065825 0.036632378 -0.21414943 -0.047192097
-0.0073623084 -0.144378 -0.0641916 -0.11893138 0.10174587 -0.10868164 -0.20393701 0.049541846
-0.046243988 -0.03496451 0.035172887 -0.07946213 0.43211225 0.17933618 -0.17788751 -0.66491216
0.35613757 0.0077394783 0.15440826 -0.73630893 -0.4988252 -0.27735338 0.22966543 0.47140476
-0.011922238 -0.02587577 -0.25196436 -0.16107486 -0.102050096 0.32031947 0.015872318 0.08115944
0.6676953 0.7507952 -0.049071915 -0.44768608 0.01685472 -0.20438457 0.20905648 -0.559443

stages.1.0.pwconv2.bias f4 [8]
00000000: 038a 0336 1533 f9b4 83ac 35b4 3dae 2534
00000010: 57fc 8835 c83b 1fb4 ed8e 8936 2d6e bb34
1.9600855e-06 -4.641703e-07 -1.6919698e-07 1.543021e-07 1.020623e-06 -1.4829777e-07 4.099557e-06 3.4911628e-07

stages.2.0.gamma f4 [16]
00000000: 1ff2 f43d 9651 b73d 86c6 053e bfe8 f73d
00000010: cc4e ed3d 2d38 4cbd 19a2 c13d 6d06 d83d
00000020: 6294 043e 6cea c4bd 1dd3 013e 99c4 17bd
00000030: 9209 aa3d e461 abbd 6737 f93d f2d7 8dbd
0.119602434 0.08951108 0.13064012 0.1210494 0.11587295 -0.04985826 0.09454746 0.105481006
0.12947229 -0.09615025 0.1267819 -0.037052725 0.08302607 -0.083682805 0.1216877 -0.06925954

stages.2.0.norm.weight f4 [16]
00000000: a58b 5a3f 98b8 583f 8cd2 583f e192 593f
00000010: ae33 593f cf73 583f 4dbd 583f 7cef 583f
00000020: eaff 583f d506 593f 2f7d 593f 2a76 583f
00000030: 7fcf 583f cc74 583f 5480 583f bde8 583f
0.8536933 0.8465667 0.8469627 0.84989744 0.8484448 0.8455171 0.8466385 0.84740424
0.84765494 0.8477605 0.8495664 0.84555304 0.84691614 0.8455322 0.84570813 0.8473013

stages.2.0.norm.bias f4 [16]
00000000: cb56 043d c1ff ca3c b330 00bb 917f 4d3c
00000010: a378 96bc ce7f 0bba b355 77bd ee1b 913d
00000020: 4a74 933d 6337 873d 1868 a4bd fa37 983b
00000030: 8b38 52bd 188c 1a3d b3c7 19bb 3c67 043d
0.032309335 0.024780156 -0.0019560277 0.012542621 -0.018368071 -0.00053214736 -0.060384464 0.07085405
0.07199915 0.06602361 -0.08027667 0.004645345 -0.051323455 0.03773126 -0.0023464977 0.032325014

stages.2.0.norm.running_mean f4 [16]
00000000: 7660 473e ac6a 443c 0113 723e cca3 f73d
00000010: 8940 ff3c ad2a 283d 2bb8 ecbc 54b0 b6bc
00000020: 4751 67bb 6537 bebd 5e7e 7f3d e074 9cba
00000030: fe78 233c d0b9 15bb 82d5 503b cfa0 433d
0.1947039 0.011988323 0.23640062 0.12091789 0.031158702 0.041056324 -0.028896412 -0.022300877
-0.0035296248 -0.092879094 0.062376373 -0.0011936687 0.009977577 -0.0022846349 0.0031865542 0.04776078

stages.2.0.norm.running_var f4 [16]
00000000: 2fbd 763f 7e3c f23d 813d a03f a7cc 9c3d
00000010: 080c c43d 8805 083e 50ba 973d b94d c33c
00000020: a32d e23c bc66 ee3e 95bf 643c c604 933c
00000030: 7e40 c13b da3c 073d 3bee 613b 2cb6 1c3e
0.9638242 0.11827944 1.251877 0.07656222 0.09572607 0.1328336 0.07408583 0.023840772
0.027609652 0.46562755 0.013961692 0.017946612 0.0058975806 0.033017017 0.0034474272 0.15303868

stages.2.0.pwconv1.weight f4 [32, 16]
00000000: 43a1 6a3d 7ca2 89be 05a3 b93e 8243 5b3c
00000010: 0a2c 893d b43d f0bc 020a 853e b631 a7bd
00000020: c49a 01bf f464 eebd b025 133f 2ef7 483e
00000030: 54fb 55bc 266c c7bd 7f71 51bc 8551 6f3e
00000040: f1c2 163e df7a 0b3c 6982 a63d b11f 823e
00000050: e070 263f a187 ca3e 79b4 083e e39f cd3e
00000060: 6ce6 113e d00c 5bbe a5b7 123e 4a94 84be
00000070: dd3e a93c b7a0 00bc a5b1 cabe faa2 d0bd
00000080: b6c6 61b8 d11e 413e a9cc 55be e7bd e1bd
00000090: d87b cd3d 8308 c6be fcf7 73bf ad3c 543e
000000a0: d750 263f e574 47be 9e3d 253e 81b1 1ebb
000000b0: d981 0c3f af54 7d3c 1be6 6d3e d031 eabc
000000c0: 49be cabe 4de9 013c 87b8 bbbd a4bc 163d
000000d0: 0f6c 4e3e eac8 5bbe d9b5 51bf bb05 7f3e
000000e0: 4606 c13b 0789 dd3d 58d9 86be de48 f43c
000000f0: 4a0f 82bd 3e60 47bd 3720 033c 3efd 48bd
00000100: e897 503d 7769 623e 459e 013f d464 393e
00000110: 8ceb 743f 4b11 903e f5a0 00bf 49e5 4c3d
00000120: f62e 2abf 006b 3fbd fc09 4fbc 7bbe 8e3e
00000130: c2b1 f43d 26db 30be 225d bfbe cbc0 ffbc
00000140: 4390 32bf 9b9a e53e 4b1c 93bd 326a ec3e
00000150: 93a7 063d cffd fabd fd62 c13e fc29 2abe
00000160: 4820 9cbe 0703 0e3e adcd 2e3f e1a8 193b
00000170: d9d5 52be 1b1f 0ebc 1298 05be 0e4e 4bbd
00000180: 75c2 f8bd b8ef 053e 2317 f6bd ac47 35be
00000190: ea73 97be 5c62 a63d 9f9f 6c3c de44 27be
000001a0: 0740 ffbc 0e0d 13be 414b 05be acff c3bd
000001b0: 8fab ce3c 87b6 cdbc bb71 c73d 6c31 a0be
000001c0: 090a ad3d 299a 093e d00c a93e b641 533d
000001d0: 9b66 613d 5b21 0b3f 6d2a b1be 183c d33b
000001e0: db9b 55be 04b3 60bd 1b91 bd3d d870 c13d
000001f0: 159e e03d 8c58 7e3e 2eb7 8f3e fba3 5a3e
00000200: 79df 123e ca58 75bd b8a5 a8bd f6cb 573e
00000210: 7201 013e 8025 0c3e 3ea2 5c3e fbbe 0fbd
00000220: e62d 653e 2630 e2b7 5f78 b3be 251a ce3d
00000230: 5085 b93e dce0 55bc d75c 11bd 68a8 c6bd
00000240: a195 773d 0b61 56bf 9c46 57bd 1b03 513e
00000250: e73f 923d 9aba b6be fda3 64bc 55ba 9ebe
00000260: 5f7b cdbc 1850 813f 49ff 6c3e 388a 643e
00000270: a8f6 393d 4187 a43d 3056 cfbd 057c 33bd
00000280: 2e76 bf3e 0776 31bd 7de2 db3d e2d9 d33b
00000290: cbfe d03d 9951 a9bd 475f ca3d 8b03 b3bd
000002a0: 2c4d dd3e 5a30 dd3e 9b96 a9be 2991 72bd
000002b0: e0f2 5cbd b34e b93e 7110 b13b 736e 633d
000002c0: 4e18 9abe 2f13 193f 48de 513c a945 f4bd
000002d0: cade 283d fdf5 edbe 5b9b 943e 319a 3ebe
000002e0: ee99 30be ab8e e23e e0f0 31bd dfba f83d
000002f0: e831 d5bc b216 633e d06b 8ebb 8430 003d
00000300: 36ca 25be 8975 86bd c143 e6bd 0a1e 2ebf
00000310: 593e b7bc 8155 98bd 9429 eb3e 1726 f83d
00000320: 43cb 0b3c f5fa b33d 19d5 1ebf cf25 4b3d
00000330: d209 e1bc 65a0 54bc 8737 02be 5919 69bd
00000340: 8c85 453e 7475 8cbc 04fe 54be 9da1 12bf
00000350: c9f4 25bf fbe6 b43d 0ae1 113e 0501 febd
00000360: 1985 99bb 50d2 903e 4864 bc3e 53d1 02be
00000370: bfce 1ebe f657 b5bc 479a 4fbc 646a 023d
00000380: 668e ac3e 572e 0d3d 2cfa 043f 45a5 05bf
00000390: f059 f9bc f131 62bd f8c3 393d 98b5 4a3e
000003a0: 9162 953d 8b2f d43c dabb cd3e 3954 89bd
000003b0: e0fe 2b3e 54c3 f7bd 3d09 1d3d 4e47 91be
000003c0: d88a 05bd 993a ee3b eabe 7f3d d041 05bd
000003d0: 2f56 8c3a a94d 16bd 26ab a43e e4a7 77be
000003e0: 97b3 363c 6a76 8c3c 03ad 0cbd d2c2 37bc
000003f0: a675 a53c 56a9 93b8 99ed 7c3e 2a7c 38bd
0.057282697 -0.26881778 0.36257187 0.013382794 0.06697853 -0.029326297 0.25984198 -0.081637785
-0.5062678 -0.11640349 0.5747938 0.19625542 -0.01306041 -0.097374246 -0.012783407 0.23370941
0.14722802 0.0085131815 0.081303425 0.25414804 0.65015984 0.39556602 0.13350095 0.40161046
0.14248055 -0.21391606 0.14327867 -0.25894386 0.020659858 -0.007850817 -0.39588657 -0.10187335
-5.3829244e-05 0.18859412 -0.20878853 -0.11022549 0.10033387 -0.3867837 -0.9530027 0.20726271
0.649671 -0.19478185 0.16136786 -0.0024214687 0.5488563 0.015462085 0.2323231 -0.028588206
-0.395983 0.007929158 -0.09166055 0.036800995 0.20158409 -0.21463361 -0.819181 0.2490453
0.0058906404 0.108171515 -0.26337695 0.029819902 -0.063505724 -0.048675768 0.008003286 -0.049069636
0.05092612 0.22110544 0.50632125 0.18104869 0.95671916 0.28138193 -0.502456 0.05002335
-0.66477907 -0.046732903 -0.012636658 0.278797 0.11947967 -0.17271098 -0.37375742 -0.03121986
-0.69751376 0.44844517 -0.07183131 0.4617477 0.032874655 -0.122554414 0.37770835 -0.16617578
-0.3049338 0.13868342 0.68282586 0.0023446607 -0.20589389 -0.008674408 -0.13046291 -0.049634986
-0.12146465 0.13079727 -0.12016132 -0.17703122 -0.29580623 0.08124229 0.0144423535 -0.16334864
-0.03115846 -0.14360449 -0.13016988 -0.0957025 0.02522829 -0.02511145 0.09738489 -0.31287706
0.0844918 0.13437714 0.33017588 0.05157634 0.055029493 0.5434777 -0.3460268 0.0064463727
-0.20860235 -0.054858223 0.09256192 0.09445351 0.10967652 0.24838465 0.28069443 0.21351616
0.1434306 -0.05989913 -0.08234733 0.21073899 0.12598208 0.1368618 0.21546265 -0.035094243
0.2238079 -2.696372e-05 -0.35052773 0.100635804 0.36234522 -0.013054099 -0.03548893 -0.0970009
0.06044543 -0.83741826 -0.052557573 0.20411341 0.07141095 -0.3568924 -0.0139551135 -0.31001535
-0.025083242 1.0102568 0.23144259 0.22318351 0.045401245 0.0803361 -0.10123861 -0.043819446
0.3739485 -0.04332545 0.107365586 0.0064651826 0.10204848 -0.08267517 0.09881454 -0.0874091
0.4322294 0.43200952 -0.33122715 -0.059220467 -0.05394256 0.36192855 0.0054035713 0.055525254
-0.30096668 0.59794897 0.012809344 -0.11927349 0.041228093 -0.46476737 0.29024777 -0.18613507
-0.1724622 0.44249472 -0.043442607 0.12145018 -0.026024774 0.22176626 -0.0043463483 0.031296268
-0.16190419 -0.06565387 -0.11243392 -0.68014586 -0.022368597 -0.074381836 0.4593016 0.1211664
0.008532348 0.08788101 -0.6204391 0.049596604 -0.027470503 -0.012977694 -0.12716495 -0.05690894
0.19289225 -0.01714585 -0.20800024 -0.5727785 -0.6482664 0.088331185 0.14246002 -0.12402538
-0.004685056 0.28285456 0.3679526 -0.12775163 -0.15508555 -0.02213667 -0.01267106 0.031839743
0.3370239 0.03446802 0.5194423 -0.52205306 -0.030438393 -0.05522341 0.045352906 0.19795835
0.07294191 0.025901577 0.40182382 -0.06705517 0.16796446 -0.12097803 0.03833889 -0.28374714
-0.032603115 0.007270169 0.06243793 -0.032533467 0.0010706837 -0.036695156 0.32161826 -0.24185139
0.011151216 0.017146308 -0.034344684 -0.011215882 0.0201977 -7.0410475e-05 0.24700011 -0.045040287

stages.2.0.pwconv1.bias f4 [32]
00000000: c5fc 77bd f327 3d3d 399b f7bc 5fb4 b43c
00000010: db80 96bb 0e14 11bd 29ec 323d 084c 30bc
00000020: ddd0 ca3c d646 4a3c ace2 4f3d d604 89ba
00000030: b2c9 9d3d 5343 943d 6852 903c 455e 31bc
00000040: a244 023c 5942 963d 3b6d 72ba d12a db3d
00000050: 3a81 843c 3eef adbc dc5c 983b 02c1 5c3d
00000060: 4ed9 ca3c 8d78 ee3c b4c3 9d3c bb50 2d3a
00000070: 51a2 863c 2a1a f33c 0b14 dd3c b321 0cbd
-0.060543794 0.046180677 -0.030225383 0.022058664 -0.0045929975 -0.035419516 0.04368225 -0.010760315
0.024757797 0.01234599 0.05075328 -0.0010453712 0.07704486 0.072394036 0.01761742 -0.010825698
0.007950934 0.073368736 -0.0009247844 0.10701526 0.016174901 -0.021232244 0.0046497416 0.053895004
0.024761822 0.029110217 0.019258358 0.0006611456 0.01643482 0.029675562 0.026987096 -0.034211826

stages.2.0.pwconv2.weight f4 [16, 32]
00000000: b898 063e b253 ac39 5cec 0e3d a5d0 603e
00000010: 93dc edbd 37a7 48be ff44 f43d 2f79 0a3e
00000020: 9b2a a93e f1ef a33e c20d 76be 17e4 533d
00000030: 7914 c53e 57b7 563e 7e3c 30be a59a e5b9
00000040: 1fe0 3fbe b1f4 63be ddbd 483e 7eb3 83be
00000050: c9e9 30be 7223 a5bd 19c0 7bbe 3801 ffbc
00000060: fabf 4bbe 1a80 c03c 4b0c 88bd 78a5 7d3e
00000070: f2a1 f0bd 82c5 f2bd bf0c 133d 7901 1f3e
00000080: c443 f43d 8606 a1bc 28cd ac3c 7b55 463d
00000090: d322 89bb 2051 6cbc caff 1e3b f9d4 8ebe
000000a0: dd82 033c 5982 a13b 2c2c 58bd ceca 313e
000000b0: 56dd 7d3d 0ae6 0fbb b15f 1fbc 5319 72bc
000000c0: 6d1d 5c3c 83d7 743d 1a0b b63c 127b 41bd
000000d0: a914 873c d6c3 923d 35e5 093e 2b7c 98bd
000000e0: d087 85bc c9c5 253c 564b 74be 258b 4a3d
000000f0: 62d9 20bc cba5 373e 27d6 74bd f797 cfba
00000100: b8dd 853e dbfb e6bb 7425 87bb 2ffe 15bc
00000110: 673e 413e ed6a d43b 276f a13e 7a75 213d
00000120: d9b9 bf3d a4b9 07bd d14c 0c3b 928c 65be
00000130: 3667 dd3d 63ee d6bc 8107 86be 125a 5e3d
00000140: 88a6 093e 9eda cb3e 7cf3 28be 9502 6e3d
00000150: a310 153e 8e3b 57be e438 ed3d 69cc e33d
00000160: 13b9 a13e fe8b f83d 90a5 39bd 3565 8f3d
00000170: 9973 e0bb 28e0 6dbe 30b1 0dbe 740c 8f3e
00000180: cf06 e2be b3de 033d 5b0d 963e 5a6d 7bbd
00000190: 00df fd3b 3baf 733b 3b7c 703c 36ff 333d
000001a0: 6282 60bc 571f 4cbe 878a 6bbe 78d2 03be
000001b0: 7b6b 5fbd a83e d8bc 8809 7bbc 40ea 10bc
000001c0: d208 c7bc d997 91be 8e6e ffbc 6737 983e
000001d0: e1e4 e23d 4841 d8bd 9df0 bfbe f057 573e
000001e0: f136 4e3e 75c6 123d e396 8dbe d02b 76bc
000001f0: 50f0 74bc b7d7 a0bc 8244 b93e fe9f 82be
00000200: d644 993d 3682 e83d 4c89 3cbc d94c 2cbc
00000210: 9997 7d3c 3a66 9f3c 0d5e b8bc 3777 77be
00000220: 4287 0dbc 28e2 8fbe 27fd 36be 17ed 13bd
00000230: 8893 1cbd 846c 693d 83e2 9a3c b80e b5ba
00000240: dc69 3cbe 1294 63be dda6 ec3d 51ba 9e3e
00000250: 2f2f 953e e544 87bd c2d7 7c3e ee00 213e
00000260: 8614 703e 88b6 b1bd 24b8 43bc 6dd3 68be
00000270: 6a13 e339 5aa0 133b 793d 553e e80b 80ba
00000280: 00d5 b03d 967d 8f3d bc71 eabc 0fda 48bd
00000290: 02e9 b13c 17f4 48be 5d03 3abc 6d1e c1be
000002a0: d511 613b 1378 81bc 7e8e 8bbe 665d a43d
000002b0: 2649 853d 3cbc 60be 1aea 43bc c7bf 35bb
000002c0: 3cf0 84bc 2067 02bf 4e25 833e c6b9 093f
000002d0: c13e fc3c f038 3a3b 75fd 6f3c d049 e13d
000002e0: ddba d1bc 67dd 01bf 3388 93bc 3e60 18bc
000002f0: efab 523e 32ce 27bc 1120 11be d5d3 3fbc
00000300: 5dd6 d8be 8149 a03c 4f68 0bbd 7769 d43b
00000310: e767 d03c 061d 06bd 1048 903e be3a 463d
00000320: f1c1 543e 0b4d 9abc 1e42 1cbd e050 08be
00000330: 3445 873e caa0 8e3e dbac b0be ae22 243d
00000340: cff9 25be 03b6 0d3e df63 783e 0678 753d
00000350: 2ded f6bc b184 8dbe 0543 26bb 5a43 d1bc
00000360: ad27 ba3e b25c d23d 7491 46bd 067d 793e
00000370: 94b1 903e 59b3 7fbd 9917 a53e eb67 2cbd
00000380: 2b4f 0c3e 0077 ae3e 322f cc3d 8d70 073e
00000390: 4293 b0bd a978 bebd 6c69 61be 867d 6c3e
000003a0: 4e67 cb3c 16b6 10be a43a 72bd af7e 273d
000003b0: 1865 5b3d dae1 0b3b 3e20 7a3e f8b5 f9bc
000003c0: 9b4d 40bd ddbe 4f3e 4092 c1be cd33 d5bd
000003d0: 909a d4bd 2b15 85bd 91ab 383d f335 bf3d
000003e0: 9c99 c63d 9a9f 28bd ea52 803e 119a 09bf
000003f0: 7d0c 7b3e fb94 efbd 439e 0ebd 895d 3abe
0.13144195 0.00032868754 0.03489338 0.21954592 -0.11614337 -0.19595037 0.119272225 0.1352279
0.33040318 0.32018998 -0.24028686 0.051731195 0.38492182 0.20968376 -0.17210576 -0.00043793503
-0.18737839 -0.22261311 0.19603677 -0.2572288 -0.17276682 -0.08063401 -0.24584998 -0.03112851
-0.19897452 0.023498584 -0.0664297 0.24770153 -0.117496386 -0.11854078 0.035900827 0.15527906
0.11926988 -0.01965643 0.02109392 0.048421364 -0.0041850596 -0.014423639 0.002426135 -0.2789686
0.008026806 0.0049288687 -0.0527765 0.1736252 0.06197866 -0.0021957182 -0.009727404 -0.014776546
0.01343475 0.05977584 0.02222209 -0.04723651 0.016489344 0.07166259 0.13466342 -0.07445558
-0.016300112 0.010117956 -0.23856863 0.049449105 -0.009817453 0.17934339 -0.059774544 -0.0015838136
0.2614572 -0.0070490665 -0.004124338 -0.00915484 0.18871461 0.006482473 0.31530115 0.039418675
0.093616195 -0.033136025 0.002140809 -0.22416905 0.108107015 -0.026236719 -0.261776 0.054285116
0.13442433 0.3981523 -0.16499132 0.05810793 0.14557128 -0.21018812 0.11583117 0.111229725
0.31586513 0.121360764 -0.04532391 0.070017256 -0.006849718 -0.2323004 -0.13837123 0.27939188
-0.4414582 0.032194804 0.29307064 -0.061383583 0.007747531 0.0037183303 0.014678056 0.04394456
-0.013702961 -0.1993383 -0.23002063 -0.12873256 -0.05454586 -0.026397064 -0.015322097 -0.008844912
-0.024296198 -0.28436163 -0.031180646 0.2972977 0.110788114 -0.105593264 -0.3748826 0.21029639
0.20138146 0.035833795 -0.2765418 -0.015025094 -0.014949873 -0.01963411 0.3618508 -0.2551269
0.074838325 0.11352961 -0.0115073435 -0.010516369 0.015478038 0.019457925 -0.022505784 -0.2416657
-0.008638205 -0.2810223 -0.17870007 -0.03611478 -0.038226634 0.056988254 0.018906837 -0.0013813591
-0.18399757 -0.22224453 0.11555264 0.31001523 0.2913756 -0.066049375 0.2469168 0.15723011
0.23445329 -0.08677393 -0.011945758 -0.22736903 0.0004331128 0.0022525997 0.20824231 -0.0009769173
0.086343765 0.070063755 -0.028618686 -0.049036082 0.021717552 -0.19624363 -0.011353341 -0.37718526
0.0034342904 -0.015804326 -0.2725715 0.08025627 0.065080926 -0.21946806 -0.01195767 -0.0027732716
-0.016227834 -0.50938606 0.256144 0.5379909 0.030791642 0.0028415285 0.014647831 0.11000407
-0.025601799 -0.5072846 -0.01800928 -0.00930029 0.205734 -0.010242032 -0.14172389 -0.01170822
-0.42351046 0.0195663 -0.034035023 0.006482299 0.02544017 -0.032742523 0.2817998 0.048395865
0.20777108 -0.018835565 -0.03814899 -0.13312101 0.26419985 0.27857047 -0.34506878 0.040072136
-0.16208576 0.13838963 0.24256848 0.059928916 -0.030142391 -0.27640298 -0.0025369537 -0.025544811
0.36358395 0.102715865 -0.04847856 0.24364099 0.2826048 -0.0624269 0.32244566 -0.04209129
0.13702075 0.34075165 0.09969939 0.13226528 -0.08621837 -0.09300358 -0.22012872 0.23094758
0.024829533 -0.1413196 -0.059137955 0.0408923 0.053563207 0.0021344335 0.24426362 -0.030482277
-0.04694901 0.20287652 -0.37806892 -0.10410271 -0.10381043 -0.06498178 0.045085493 0.09336462
0.096972674 -0.041167833 0.25063258 -0.5375071 0.24516483 -0.11698338 -0.0348189 -0.18199743

stages.2.0.pwconv2.bias f4 [16]
00000000: 3deb 4935 ae7e 9ab2 bb11 a935 f28a 1d36
00000010: b270 22b6 c4f8 6034 318c d535 26c2 c2b5
00000020: 5f47 74b7 966b 15b6 7051 cfb5 bb82 1d35
00000030: 441c f7b4 72cd 4835 6471 2034 0ea3 5235
7.522065e-07 -1.7985567e-08 1.2596641e-06 2.34757e-06 -2.4205478e-06 2.0952126e-07 1.5910538e-06 -1.4510631e-06
-1.4560151e-05 -2.2265353e-06 -1.5446403e-06 5.8677296e-07 -4.60279e-07 7.480477e-07 1.4942412e-07 7.846837e-07

norm.weight f4 [16]
00000000: 1c94 613f 939a 583f 731e 6c3f f1ec 613f
00000010: 9e44 593f 47b5 583f 6447 593f 5e04 5b3f
00000020: 398b 863f e921 5d3f 9210 593f 286f 583f
00000030: 43b7 583f dd14 593f 240c 593f 3399 583f
0.8811662 0.8461086 0.9223396 0.8825217 0.84870327 0.8465161 0.8487456 0.8555354
1.0511237 0.8637987 0.8479091 0.8454461 0.84654635 0.8479746 0.8478415 0.84608763

norm.bias f4 [16]
00000000: 05ad 86bd ce42 1cbd b006 e6bd 5b3b d0bd
00000010: 8e35 043d 6778 9e3d 5793 c6bd 8ef8 f9bd
00000020: a68f a93d e114 e13d 1e15 eebd fa3c f33c
00000030: 0f59 593d fd7f e3bb 4882 a73d 166f 1a3d
-0.065759696 -0.038149647 -0.11231744 -0.10167571 0.032277636 0.07737809 -0.096960716 -0.12205611
0.08279352 0.109903105 -0.116251215 0.029692162 0.05306345 -0.0069427476 0.08179146 0.037703596

norm.running_mean f4 [16]
00000000: 9694 7c3b 8be4 093b 2f03 d23d 9dea debc
00000010: f0eb 643c d7cf 603c f3f9 883d b1bb 9e3c
00000020: 4caf afbd a62e 483b 8e89 9e3b 5350 4e3c
00000030: 7d25 84bc bfe7 cd3c 6610 6739 3897 23bc
0.0038540713 0.0021040763 0.102545135 -0.027211482 0.0139722675 0.013721428 0.06688299 0.019376608
-0.08578357 0.0030545383 0.004838175 0.012592393 -0.016131157 0.02513492 0.00022035986 -0.009984784

norm.running_var f4 [16]
00000000: a826 6038 d964 7c37 38f2 0b37 c696 8338
00000010: 2d06 8638 a7b2 0837 173c d236 eaa1 9f37
00000020: 01c4 5c38 1980 8537 bb92 8137 ada1 db34
00000030: 792f df36 8dd6 dd37 ba45 cb37 636d dc35
5.3441763e-05 1.5043851e-05 8.341442e-06 6.2746505e-05 6.390768e-05 8.147827e-06 6.265483e-06 1.9029674e-05
5.263463e-05 1.5914486e-05 1.5446325e-05 4.0909563e-07 6.6514444e-06 2.6445161e-05 2.4231955e-05 1.6423113e-06

head.weight f4 [4, 16]
00000000: 8b11 a1be 18f4 6dbe 96b8 853e 24bf 223f
00000010: 70e7 f93d d5b9 f4bd f11b fc3d 56ec cf3e
00000020: a811 d83e 3e43 1fbf 4c3e be3e 3708 1fbe
00000030: 713e a33c 701a 4e3e 2c09 343e 0148 83be
00000040: b4d7 1abf 8c60 82be fdab 3bbf e36d 9bbe
00000050: a4b6 043e e20d b43e e388 b5be 9644 05bf
00000060: 2f44 de3e cd8f fd3d aec5 28be 9bfb 073c
00000070: 697d 5a3e 9eda 15be cea9 843e 342e 66be
00000080: 268a 0f3f 5376 8d3d f263 fc3d d0c7 13be
00000090: 0212 d8be 9cfb 4dbc 4597 543e 6320 a3be
000000a0: 96e9 833d aee1 063f 20c5 b5bd a0b8 4dbe
000000b0: 786a a1be 29af ba3b c758 e7b9 68c6 073e
000000c0: f689 9e3e 6af2 89bd 3eee 8c3e 8a75 b3be
000000d0: d33b 6fbe 33d8 7b3e 410a 573e 52e0 bbbd
000000e0: 1568 76bf 9d81 9bbd 9334 583d a2b3 de3c
000000f0: 16ba f6bd 9e4e b4be 12d5 febd 0418 67be
-0.31458697 -0.23237646 0.2611739 0.6357291 0.12202346 -0.11949507 0.12310017 0.40609998
0.4220097 -0.6221198 0.37156904 -0.15530477 0.019927235 0.20127273 0.17581624 -0.25640872
-0.60485387 -0.25464284 -0.7330931 -0.30357274 0.12960297 0.35166842 -0.35456 -0.5205778
0.43411395 0.123809434 -0.16481659 0.0082997335 0.21336903 -0.14634177 0.259108 -0.22478563
0.5607017 0.06907334 0.123237506 -0.14431691 -0.4220124 -0.012572195 0.2076083 -0.31860647
0.06441037 0.5268811 -0.08875489 -0.2008996 -0.31526542 0.0056971502 -0.00044125898 0.1325928
0.3096463 -0.0673569 0.27525514 -0.35050613 -0.23362665 0.24594192 0.21000005 -0.09173645
-0.96252567 -0.07593081 0.052784514 0.027185265 -0.12047212 -0.3521623 -0.12442984 -0.22567755

head.bias f4 [4]
00000000: f21e ddbd 9cbf e03d 171a 223d dc49 aabd
-0.10796918 0.109740466 0.039575662 -0.08314869

exp_avg f4 [4, 1]
00000000: 1667 073d 6ee6 363d 0c35 303d dbf0 8cbd
0.033057295 0.04465335 0.04301934 -0.06881877

exp_avg_sq f4 [4, 1]
00000000: 5f6f 923a f0d5 043b 93bc f63a 31db 9c3b
0.0011172107 0.0020269118 0.001882451 0.004786872

exp_avg f4 [4]
00000000: f296 adb2 3879 0ab2 358a 9ab2 c60f e2b0
-2.0208493e-08 -8.060219e-09 -1.7990809e-08 -1.6448147e-09

exp_avg_sq f4 [4]
00000000: dc13 a628 4e9d 5e28 6a52 b128 3438 0028
1.8438315e-14 1.2357586e-14 1.9686689e-14 7.1176145e-15

exp_avg f4 [8, 4]
00000000: 4e91 393d 7407 a83c 5e8f db3c 7732 513d
00000010: d513 6cbd 6d96 ec3c 2aa1 cc3c 629e a2b9
00000020: 1d56 99bd 0e54 7b3b 0211 363b 8ab3 8ebc
00000030: cd47 223c c1fd babc 766a 7e3a b6bf 8ebb
00000040: 78ff 143d 0544 9d3b 7dc9 c03c 3d75 0bbc
00000050: 7783 d6bd 2f88 9f3c 9b49 27bd 5a29 593c
00000060: 597a 063d f5b8 0dbd 6da1 50bd fdbc a63c
00000070: 6bec 7f3a a623 423c 6e5f 9e3c c667 66b9
0.04530459 0.020511366 0.026801761 0.051073518 -0.0576361 0.028880322 0.024979193 -0.00031017052
-0.07487128 0.003834966 0.0027781134 -0.017419595 0.009904814 -0.022826077 0.0009705195 -0.00435635
0.036376446 0.0047993683 0.023533577 -0.0085118385 -0.10474294 0.019474117 -0.04084168 0.013254488
0.032831524 -0.034600217 -0.050935198 0.020353789 0.0009762707 0.01184932 0.019332614 -0.00021973168

exp_avg_sq f4 [8, 4]
00000000: 6f22 0d3b 5727 1c3a c7be 883b 5c97 2a3b
00000010: d5e7 5f3b 8546 b43a 8f7c c23a fae7 7835
00000020: 4dd7 b43b a135 5f3a b757 0c3a 0578 b339
00000030: 1264 cf39 c367 0a3b 7036 823c be5e 4f38
00000040: 4d70 b03a cfea 5539 ae7f 343a 6da9 9c38
00000050: 06c7 343c 5e62 c839 c34a e63a 28c8 4339
00000060: ec49 883a 740e da3a 41f8 223b 9672 ea39
00000070: a6b2 3237 9ad6 ed39 e653 0b3a 0f7b d935
0.0021535417 0.000595679 0.004173133 0.0026030159 0.0034165282 0.0013753927 0.0014838147 9.272477e-07
0.00551883 0.0008514766 0.00053536467 0.00034230962 0.00039556675 0.0021118976 0.015895098 4.944088e-05
0.0013461203 0.00020400736 0.0006885481 7.470218e-05 0.011033779 0.00038220262 0.0017569888 0.00018671213
0.0010398007 0.0016636387 0.002486721 0.0004471733 1.0651222e-05 0.00045364053 0.0005314931 1.6203575e-06

exp_avg f4 [8]
00000000: 9c0a ab3a 5803 1e3b 467c fcbb 39f9 a2ba
00000010: eb87 99bb 16d0 373b c120 153b bffb 2b3b
0.0013049426 0.002411088 -0.0077052442 -0.0012433893 -0.004685392 0.0028047613 0.0022755119 0.0026242582

exp_avg_sq f4 [8]
00000000: b528 843a 42fc 8939 c912 a83b 1864 bc3b
00000010: 554c 4b39 29f4 d637 349f fc37 df0f 223a
0.0010082932 0.00026318623 0.0051291925 0.005749237 0.00019388025 2.5624484e-05 3.0114876e-05 0.00061821745

exp_avg f4 [16, 8]
00000000: a9ce ae3c 0480 28bc 633c 1bbd d14b 79bd
00000010: 3111 0939 cd44 b1ba 1492 1abd e56f 88bc
00000020: 3e73 033d ea83 09bc a809 5fb8 6e24 8d3b
00000030: 9393 2abc d713 ebb8 bea8 75ba 2ff7 a2bd
00000040: 9dc2 8ebc b7b8 50bb 07ef 1cbc 5e0f 473d
00000050: db2b 543b 99c8 083d a908 fb3c 25ae 25b9
00000060: 8da5 17bb e622 3aba 4ddb c13c af40 a43c
00000070: 592c 86b8 496a 543c c96f 75bc c571 f43c
00000080: 3242 b23c 0874 1ab7 cb71 a3b8 3d6a 96bc
00000090: ad96 42bc 60d0 efbc a298 c13c e970 94bc
000000a0: 4e85 053d 8f67 8bbb 7aad f4b6 0bb5 1dbb
000000b0: abb1 69bc 9d91 05bd 85d7 713b f85a 873c
000000c0: edc6 123d bb81 e1bc 0130 213d 31dd 9bbc
000000d0: 7496 cfbb 0b50 3cbc 3301 8b3c d6b1 3ebc
000000e0: 0116 bc3c 0f91 393c f8df 86bb 0f1e 3dbb
000000f0: fe09 96bb 8fc8 993c bd18 983c 65f7 83bc
00000100: 2351 efbc da1a 0b3c d51a 95bc 3d9e 773c
00000110: 548e ae3c 0744 963b ce78 93bc c9c2 b93c
00000120: 8b12 09bc 6894 5f3c ecd8 e8b8 4961 393b
00000130: abaf d5bc 4a4a 16bc 4f3e 243d d6a1 4cbc
00000140: 0105 91bc 5767 683c 110d 0b3c 99af d93a
00000150: 8714 c7bc 3c89 3a3d d4b6 363c 9b18 7f3b
00000160: 12ec 013c ebad ecbc 9780 99bc e996 28bd
00000170: 2d1c c938 d452 81ba 2772 34bb 9832 b63a
00000180: 1cf6 eeb9 0d7d 093d 2b89 1c3c d0d5 7dba
00000190: 1f17 873c 91b1 ce3a ffbe 063c 0b7e c6bc
000001a0: 6598 933b 9a40 14bb ae3f 45bc 59e1 54bd
000001b0: a5e3 8e3c 2a3b 56bc e2f0 f43b b3ac 64bc
000001c0: e533 e3bb c8b0 473d b181 5db9 eac6 afbb
000001d0: 3d60 64bc d7c1 99ba 9503 cebc d2db 57bc
000001e0: 0fea b6bb c86c b83a 0505 b7bc 3ca5 26bd
000001f0: 4d1b 6f3b dce4 aa3c 6cc5 033d b880 23bc
0.021338778 -0.010284428 -0.037899386 -0.06086332 0.00013071742 -0.0013524533 -0.037736967 -0.016654918
0.032092325 -0.008393267 -5.3176336e-05 0.0043073213 -0.010411161 -0.00011209369 -0.0009371153 -0.07957303
-0.017426783 -0.003184838 -0.009578473 0.04859864 0.0032374773 0.03339443 0.030643778 -0.000158005
-0.0023139447 -0.0007100537 0.023664141 0.020050375 -6.397878e-05 0.0129647935 -0.014980265 0.029839406
0.02176008 -9.206131e-06 -7.793641e-05 -0.018361205 -0.011876744 -0.029274166 0.023632351 -0.018120246
0.032597832 -0.0042542885 -7.291962e-06 -0.002406421 -0.014263551 -0.03260957 0.0036902141 0.01652287
0.03583424 -0.02752768 0.03935242 -0.01902637 -0.006335074 -0.011493693 0.016968345 -0.011639079
0.022959711 0.011326089 -0.0041160546 -0.0028857028 -0.004578828 0.018772392 0.018566484 -0.016109178
-0.029213494 0.008490289 -0.018201271 0.015113411 0.021308102 0.004585746 -0.01800194 0.022675889
-0.008366237 0.013646223 -0.00011103027 0.0028286746 -0.026084742 -0.009172985 0.040098485 -0.012489757
-0.017702581 0.014184794 0.008487002 0.0016608118 -0.02430178 0.045541033 0.011151988 0.0038924578
0.007929819 -0.028891524 -0.018738074 -0.041159544 9.589675e-05 -0.0009866604 -0.002753386 0.0013900576
-0.00045578263 0.033566523 0.009554188 -0.00096830446 0.016490517 0.0015769472 0.008224248 -0.024230024
0.004504251 -0.0022621513 -0.012039108 -0.05197272 0.017442534 -0.013075629 0.0074750045 -0.01395719
-0.0069336765 0.048752576 -0.00021124516 -0.0053642886 -0.013938961 -0.0011730742 -0.025148192 -0.013174968
-0.005582101 0.0014070505 -0.02234126 -0.040684924 0.0036484778 0.020861082 0.032170698 -0.009979419

exp_avg_sq f4 [16, 8]
00000000: d09d 023a 2810 e438 be0c c13a 23a7 763b
00000010: 6cb4 8834 a169 a736 4992 bb3a 0f98 9239
00000020: 9435 8d3a e721 a838 400c ab34 3156 cf37
00000030: 3b81 f438 751a 8135 3bd6 1739 c10c d13b
00000040: 9e63 c239 6b22 7437 6b61 d238 2be5 1f3b
00000050: fdad 7537 2cbf 963a b456 673a b2d3 d436
00000060: 22f8 f738 68f5 6037 fc6d 1b3a c5d5 fb39
00000070: a13d 2036 cf2f 3839 a295 a939 86f6 7a3a
00000080: dbd9 023a 6346 9e35 2d91 c234 f338 b839
00000090: 9fa2 1d39 1e7e 653a 3b00 1d3a ed90 b539
000000a0: f00f 903a 5e53 b237 f6d9 9b34 5aad 2237
000000b0: 098a 6439 172f 913a 3128 0139 0c68 8439
000000c0: 2e37 b03a 3fc7 4b3a 23a1 cf3a cbcc d739
000000d0: 0d52 4138 c299 1c39 c19a df3a b127 ae39
000000e0: 035e 243a c8d8 1b39 47f6 a837 fdc8 8538
000000f0: 329b d537 3f2f e639 2bb3 813a ff4f 103a
00000100: e028 5d3a 3144 af38 913a b539 cae2 6f39
00000110: ec1e f639 2d69 ec37 277e 5e3a 3c5b 203a
00000120: 4b28 ba38 d77d 4539 1693 2935 264f 4437
00000130: f1bd 363a 90f4 b838 529f d73a f8c3 3e39
00000140: 8799 333a 73c7 dc39 59fa dd38 2dbd 3139
00000150: 151b 453a 6b36 083b 659e 013c 3e43 593a
00000160: c07e ad38 9e91 6d3a 0fb7 bb39 0f73 de3a
00000170: 01ae 8335 b7e2 af36 2a1c 433a c4b7 4238
00000180: 9227 9338 c9cc 9a3a 03da d638 1be4 8537
00000190: 2cb9 9d39 0910 bd37 d186 e53a 08e8 203a
000001a0: 2ede 9638 186d f737 09e3 4139 f9de 303b
000001b0: e6e6 a939 f99b 7139 62d5 743a b3f3 c539
000001c0: e631 cc38 da6f 2a3b 2e20 2437 96d4 6038
000001d0: 1865 6439 0753 5737 1177 803a 41b8 8a39
000001e0: 4fc4 1938 d7d8 e836 451b 093a 5695 e13a
000001f0: 746c 7a37 166a e839 f66c 8b3a 613f e138
0.00049826223 0.000108748965 0.0014728529 0.0037636242 2.5463248e-07 4.9892847e-06 0.0014310564 0.00027960583
0.0010773414 8.017179e-05 3.1860145e-07 2.4716459e-05 0.00011658898 9.618949e-07 0.00014480289 0.006379694
0.00037076784 1.4551547e-05 0.00010031726 0.002439807 1.4643648e-05 0.0011501065 0.00088248705 6.342737e-06
0.00011824096 1.34085785e-05 0.000592917 0.0004803372 2.387773e-06 0.00017565418 0.00032345677 0.0009573478
0.00049915694 1.1792403e-06 3.6240945e-07 0.00035137645 0.00015033268 0.00087544497 0.0005989109 0.00034630988
0.0010991078 2.1258074e-05 2.9029587e-07 9.696314e-06 0.00021795197 0.0011076656 0.00012317371 0.00025254523
0.0013444179 0.00077735254 0.0015840869 0.00041160578 4.60912e-05 0.00014934599 0.001705967 0.0003321744
0.00062701124 0.00014862709 2.0141842e-05 6.379371e-05 2.5463847e-05 0.0004390422 0.0009895315 0.00055050844
0.0008436572 8.357352e-05 0.00034566646 0.00022877302 0.00046943815 2.8182369e-05 0.0008487426 0.00061171106
8.876676e-05 0.00018834263 6.3171444e-07 1.1700939e-05 0.00069710525 8.819357e-05 0.0016450679 0.00018192816
0.00068511855 0.0004211027 0.00010584732 0.00016950509 0.0007518989 0.0020784389 0.007911299 0.0008287913
8.272892e-05 0.0009062531 0.0003580381 0.0016971546 9.810902e-07 5.2417995e-06 0.00074428564 4.642435e-05
7.016877e-05 0.0011810298 0.00010244923 1.5961055e-05 0.00030083337 2.2538023e-05 0.0017511492 0.0006138091
7.1939416e-05 2.9495495e-05 0.00018490491 0.002698837 0.00032406225 0.00023041655 0.0009339658 0.00037756338
9.736772e-05 0.002600661 9.782654e-06 5.3603748e-05 0.00021781435 1.283433e-05 0.000980111 0.0002645869
3.666087e-05 6.9393823e-06 0.0005230199 0.0017210643 1.4926412e-05 0.00044329528 0.0010637331 0.00010740641

exp_avg f4 [16]
00000000: efbe 2bba c5f6 efb9 c4ae 2539 877c 9aba
00000010: 6d8c 17b9 0e2f 40ba 3737 8f3a b253 613a
00000020: 1e39 793a 8a57 9936 a3ef 44bb ea11 ae3a
00000030: ad0f 30b9 50a7 683a bd43 48ba b1df 5db8
-0.00065515836 -0.0004576949 0.00015800731 -0.001178638 -0.00014452795 -0.00073312304 0.001092649 0.00085955404
0.00095071073 4.569946e-06 -0.0030050061 0.0013280485 -0.00016790508 0.0008875029 -0.00076394883 -5.2898835e-05

exp_avg_sq f4 [16]
00000000: 3646 b135 820f 6736 04dd 7736 3e02 4537
00000010: 02f2 2a36 5c4c 4836 0d27 8037 79b5 9537
00000020: eb8b 8336 ad99 8b35 da6a 4139 a16c a437
00000030: c967 9d36 994b 6e38 15ed d837 9564 8d34
1.3207962e-06 3.443071e-06 3.6934516e-06 1.1742637e-05 2.547284e-06 2.984677e-06 1.5276973e-05 1.7846689e-05
3.920393e-06 1.0401033e-06 0.0001844572 1.9600908e-05 4.691047e-06 5.6814028e-05 2.5859606e-05 2.633648e-07

exp_avg f4 [4]
00000000: 70f3 303d c5a6 2d3d f580 2d3d 9a79 2e3d
0.04320091 0.042395372 0.04235931 0.042596437

exp_avg_sq f4 [4]
00000000: 62d5 f93a 0c47 f13a c6e5 ee3a 074c f13a
0.0019060785 0.0018408014 0.0018226437 0.0018409499

exp_avg f4 [4]
00000000: a30b ac3b 4b4f 0cb9 37f4 bdba fc54 5ebb
0.0052504106 -0.0001338098 -0.0014492337 -0.0033925166

exp_avg_sq f4 [4]
00000000: a5a1 d438 f73d 1538 f0e9 f337 b995 e537
0.000101390564 3.5582078e-05 2.9076793e-05 2.7368647e-05

exp_avg f4 [4]
00000000: ba11 303d 418b 2e3d 06ad 353d c9f8 2d3d
0.042985655 0.04261327 0.04435446 0.04247359

exp_avg_sq f4 [4]
00000000: f0e0 043b e246 193b 0fd3 103b fd1a f03a
0.0020275675 0.0023388197 0.0022098457 0.001831859

exp_avg f4 [4]
00000000: 11fd edba 8e02 61b9 faa7 39bb b4cf ed3b
-0.0018157085 -0.00021458624 -0.0028328882 0.007257426

exp_avg_sq f4 [4]
00000000: 1b0a 423c 97ba 743a e335 433a a795 0f3b
0.01184323 0.00093356654 0.00074466894 0.0021909268

exp_avg f4 [8]
00000000: 9132 3b3d 2997 213d b1f8 2b3d bf0c 293d
00000010: 3cfd 263d f291 343d 4ea7 363d c66a 2b3d
0.04570252 0.0394508 0.041985217 0.04127192 0.040768847 0.044084497 0.044593148 0.041849874

exp_avg_sq f4 [8]
00000000: ee13 fd3a e1ea fa3a 2881 ef3a f9da f23a
00000010: ba7c f13a 99b8 043b a986 063b c2b7 053b
0.0019308308 0.0019143486 0.0018272744 0.0018528394 0.0018424012 0.002025163 0.002052704 0.0020403718

exp_avg f4 [8]
00000000: da71 0eba ef63 60bb 662d 29ba 288b f6ba
00000010: 6991 6e3b 02d8 e2ba 1b7d c73a db9b ab3a
-0.00054338353 -0.0034239253 -0.0006453603 -0.0018809782 0.003640259 -0.0017306807 0.001521978 0.0013092713

exp_avg_sq f4 [8]
00000000: 6e0e 1d37 43f7 8838 9305 8037 3297 b438
00000010: e4f8 9138 941e d138 bf6e 7637 205a 1838
9.361289e-06 6.5310414e-05 1.5261385e-05 8.611231e-05 6.960498e-05 9.971592e-05 1.4688528e-05 3.632356e-05

exp_avg f4 [4]
00000000: 0673 ad3e c34d 14bf 4c2f ea3e 3258 8ec0
0.33876818 -0.57931155 0.4573921 -4.448266

exp_avg_sq f4 [4]
00000000: e093 1146 4c18 1c44 eadc e841 b961 3f45
9316.969 624.37964 29.107868 3062.1077

exp_avg f4 [4]
00000000: 8e0a 173d 97d3 713d 805e 5a3d f950 133d
0.0368753 0.05903968 0.05331278 0.035965893

exp_avg_sq f4 [4]
00000000: 0b2f 723b 99a4 663b 02ba d03b daf3 633b
0.003695431 0.0035193323 0.00636983 0.0034782798

exp_avg f4 [4]
00000000: 34c6 293b 0f2a 1dbb 7f23 2d3c d43b 3c3c
0.0025905492 -0.0023981368 0.010567545 0.0114888735

exp_avg_sq f4 [4]
00000000: 0c53 1d3a 6821 363a 88e2 023a f42d 073a
0.00060014497 0.0006947727 0.0004992862 0.0005156689

exp_avg f4 [8, 4]
00000000: d4b5 f23c d3ac 5bbc 012e 173c 83a0 2cbd
00000010: a0aa 5e3c f228 4d3d f610 0fbd 00cd 77bc
00000020: 1f86 3bbd a305 233b 2086 e93c 13ec 3e39
00000030: 0ea2 a63c 8b5b 94bd 51cd 9a3c f7de 013c
00000040: 56c2 193c 5edd 5b3c 7344 593b ff0b 9d3c
00000050: cdd4 4cbd d486 ef3b dc8a 19bd 0cf2 8dbd
00000060: c544 453d 57fa 563c b8b2 f7bb be94 95bc
00000070: f997 c9bc 72e3 b33b a7bf 1ebd f5c7 8fbc
0.029627718 -0.013407904 0.009227277 -0.042145263 0.013590485 0.050087877 -0.034928285 -0.015124559
-0.045782205 0.0024875186 0.028506339 0.00018207757 0.020340946 -0.07244023 0.01889673 0.007926694
0.009384712 0.013419477 0.0033152371 0.01917076 -0.05000763 0.007309774 -0.037485942 -0.069309324
0.048161287 0.013121209 -0.0075591467 -0.018259402 -0.024608599 0.00548976 -0.038756993 -0.017551402

exp_avg_sq f4 [8, 4]
00000000: 6713 8a3a ef39 d939 f718 e639 9033 043b
00000010: c244 a83a 783a 593b 31b8 9a3b 2433 043b
00000020: 5f12 193b ca20 fa38 5631 6c3a 4d30 7038
00000030: ba07 db3a 8777 a63b 66e1 843a 8997 b33a
00000040: b3ff df39 2d05 093a 25c5 4f3a 5a67 d039
00000050: 8c70 4c3b f409 bd39 74a6 623b c0b8 ae3b
00000060: 944e 473b 1d9f 083b b12e e43b 1065 e33a
00000070: 899d 343a 98b3 ad39 84ee 103b d5ae 1c3a
0.0010534347 0.0004143263 0.0004388762 0.0020172335 0.0012837874 0.0033146422 0.0047216644 0.0020172084
0.0023356897 0.000119270364 0.0009010037 5.7265443e-05 0.0016710677 0.0050801667 0.0010137975 0.0013701777
0.00042724385 0.00052269065 0.00079258 0.00039749854 0.0031195013 0.00036056305 0.0034584077 0.0053320825
0.0030411826 0.0020846792 0.006963574 0.0017348845 0.00068899296 0.0003313094 0.0022114823 0.000597698

exp_avg f4 [8]
00000000: ea27 903a 7f62 b6ba 7e91 faba e006 67bb
00000010: 0105 fdbb 0890 fabb 64e8 a8bb 17e8 62bb
0.0010998223 -0.0013914852 -0.0019116846 -0.00352519 -0.007721544 -0.0076465644 -0.0051546562 -0.00346232

exp_avg_sq f4 [8]
00000000: c130 d038 e2a4 bf39 6506 b638 7856 ba39
00000010: fbe1 8e39 0bc6 5039 c203 073a 33bf 6739
9.927294e-05 0.00036553206 8.679627e-05 0.0003554111 0.0002725272 0.00019910203 0.0005150401 0.00022101104

exp_avg f4 [4, 8]
00000000: 557a bf3b e777 b4bc 51ef 52bb 2329 5c3c
00000010: 1c3f 933c 1179 0abd 3cc0 f23b edfb dabb
00000020: 4679 bfbc 244b 5d3c afe8 033c e048 113d
00000030: 7c5b e43b 02c3 2fbc a7bb 5e3c 3417 92bc
00000040: 4994 04bd aeda d53c a786 80bc 63af ecba
00000050: 5565 e1ba 2580 62bb 7b47 dfbc 4f04 e33c
00000060: 1b05 8cba b48f 01bd 47cd eabb 9aae 71ba
00000070: a9ad 0f3d db2a 20bd 6b75 4f3d efe8 8e3c
0.0058434405 -0.02202983 -0.00321861 0.013437542 0.017974429 -0.033806864 0.00740817 -0.006682864
-0.023373257 0.013506684 0.008051082 0.03546989 0.0069689136 -0.010727646 0.0135945445 -0.01783333
-0.03236798 0.026105251 -0.015689207 -0.001805764 -0.0017196337 -0.0034561243 -0.027255764 0.027712015
-0.0010682674 -0.031631187 -0.0071655842 -0.0009219438 0.035077725 -0.03910337 0.050649088 0.017445056
