saved_models/86_unfilled_myconvnext_2022_03_09_12_12_21.pt (torch, 67175 bytes, 125 tensors)

connection_layers.0.weight f4 [4, 1]
0.2770184 0.6102011 -0.44552034 0.019956617
00000000: 5bd5 8d3e 2436 1c3f 3e1b e4be 0f7c a33c

connection_layers.0.bias f4 [4]
2.9994513e-07 9.35338e-08 -2.4714507e-07 -3.766229e-07
00000000: 2508 a134 c0dc c833 5caf 84b4 a832 cab4

connection_layers.1.weight f4 [8, 4]
-0.127042 1.3315644 0.5324711 -0.036944687 0.40369076 -0.654203 -0.19390658 -0.18660146
0.56880033 0.42714548 -0.3003054 -0.1725563 0.10509556 0.13531467 0.2971174 0.34009874
-0.019917285 -0.14240286 -0.09447344 0.09916941 0.6092921 0.16478726 0.023218906 -0.08154016
-0.20074539 -0.19715823 0.9589521 -0.11657864 0.18182518 -0.13263056 -0.06352918 -0.54235923
00000000: 4c17 02be b470 aa3f 0750 083f 5053 17bd
00000010: 8eb0 ce3e d979 27bf 728f 46be 7414 3fbe
00000020: e69c 113f d0b2 da3e a1c1 99be 99b2 30be
00000030: 573c d73d ee8f 0a3e c61f 983e 6c21 ae3e
00000040: 9329 a3bc 0ed2 11be 4a7b c1bd 5519 cb3d
00000050: 91fa 1b3f febd 283e 9335 be3c 87fe a6bd
00000060: 3390 4dbe d9e3 49be e37d 753f c8c0 eebd
00000070: 6130 3a3e 4ed0 07be 961b 82bd 0ed8 0abf

connection_layers.1.bias f4 [8]
-0.046150114 -0.0018073277 -0.075744 -0.052588932 0.0015358815 -0.04116997 0.04996988 0.024876626
00000000: e707 3dbd dbe3 ecba ac1f 9bbd 7e67 57bd
00000010: a24f c93a d8a1 28bd 38ad 4c3d 11ca cb3c

connection_layers.2.weight f4 [16, 8]
0.045314733 -0.26450238 -0.04652223 0.7489389 -0.66208977 0.3973473 -0.08414174 0.0119592715
0.66578466 -0.19425654 0.13140868 0.09485193 0.24555908 0.055463664 0.667411 -0.17271206
0.27724168 0.94837207 -0.1921623 -0.009560984 -0.005675987 -0.023335246 0.6714952 0.7208088
0.7449228 0.33765742 0.2816532 -0.22920719 -0.90868384 -0.5720936 -0.06559224 -0.16795862
-0.8525436 -0.27663648 0.3798195 0.0038990434 0.4238812 -0.017112488 -0.25528282 0.76664984
0.60516065 0.16140209 0.0717854 -0.21324696 -0.99324006 1.1588392 -0.006041022 0.3209768
-0.00011121638 0.16185278 -0.33463365 0.6399246 -0.30372787 0.032803904 -0.06404228 -0.4890623
-0.23124477 0.92531127 0.15919931 -0.013086869 0.9287445 -0.0005570147 0.006376506 0.020799102
0.00020302426 -0.4715924 -0.02804246 0.2604083 -0.05282615 -0.8699233 0.42718908 0.4596106
-0.00023099793 -0.22089766 -0.14760232 0.087000646 -0.006961817 0.75430465 -0.41411948 -0.08881947
0.92761546 0.1341573 0.3844396 0.5066825 -0.16634245 0.39637417 -0.021036103 0.3329904
0.008718159 -0.20665896 0.4224319 0.49944973 0.5102846 0.29678825 0.40308958 0.69984496
-0.09427951 -0.77608365 0.43981832 -0.13536836 0.90450644 0.23921016 0.20807976 -0.6156386
0.40270776 0.19962503 -0.035339847 0.03598126 0.21420479 0.12734435 0.13005093 0.124351025
0.18341538 0.06807586 -0.116742104 0.19350238 0.007606445 -0.61218154 0.4346909 -0.44262674
-0.7043241 0.4937427 0.11587764 0.02375586 0.0646958 -0.14251655 -0.028948661 -0.20207687
00000000: f19b 393d db6c 87be 188e 3ebd 76ba 3f3f
00000010: b77e 29bf 1b71 cb3e 8152 acbd d2f0 433c
00000020: dd70 2a3f 30eb 46be ff8f 063e bb41 c23d
00000030: d773 7b3e de2d 633d 73db 2a3f 6edb 30be
00000040: 9ff2 8d3e 83c8 723f 32c6 44be aca5 1cbc
00000050: a1fd b9bb 8f29 bfbc 1ce7 2b3f ed86 383f
00000060: 43b3 3e3f 6fe1 ac3e d934 903e 4ab5 6abe
00000070: 819f 68bf ba74 12bf 3955 86bd 58fd 2bbe
00000080: 4c40 5abf 4ca3 8dbe b477 c23e 1887 7f3b
00000090: f506 d93e 7d2f 8cbc 6eb4 82be 2a43 443f
000000a0: cfeb 1a3f 9746 253e 3904 933d 695d 5abe
000000b0: fb44 7ebf d854 943f c4f3 c5bb 1257 a43e
000000c0: d73c e9b8 bcbc 253e 1a55 abbe 19d2 233f
000000d0: 3882 9bbe 635d 063d 9928 83bd 6066 fabe
000000e0: 6ecb 6cbe 33e1 6c3f 2505 233e 4f6a 56bc
000000f0: 33c2 6d3f a004 12ba 02f2 d03b e162 aa3c
00000100: e9e2 5439 8f74 f1be 4db9 e5bc 3d54 853e
00000110: 3c60 58bd 4bb3 5ebf 87b8 da3e 1552 eb3e
00000120: 0938 72b9 ff32 62be 1025 17be 652d b23d
00000130: f41f e4bb 1c1a 413f 7807 d4be fbe6 b5bd
00000140: 3578 6d3f 8860 093e 44d5 c43e f2b5 013f
00000150: ad55 2abe 8ef1 ca3e e853 acbc b87d aa3e
00000160: 9cd6 0e3c 689e 53be fe48 d83e e0b7 ff3e
00000170: 03a2 023f a1f4 973e c261 ce3e 0a29 333f
00000180: 9e15 c1bd 6bad 46bf de2f e13e 019e 0abe
00000190: bc8d 673f 82f3 743e dc12 553e 7e9a 1dbf
000001a0: b62f ce3e 816a 4c3e 84c0 10bd 1661 133d
000001b0: 8058 5b3e 8f66 023e 122c 053e c0ab fe3d
000001c0: 3ed1 3b3e 5b6b 8b3d 7c16 efbd 7d25 463e
000001d0: 7c3f f93b eeb7 1cbf ce8f de3e f99f e2be
000001e0: 964e 34bf d8cb fc3e 4251 ed3d a69b c23c
000001f0: 3b7f 843d dcef 11be be25 edbc 3ded 4ebe

connection_layers.2.bias f4 [16]
-1.275237e-05 0.0031561586 -0.01905687 -0.03608845 -0.0050537987 0.00041304404 -0.018187273 -0.004659461
-0.031228514 -0.020527748 0.01963633 0.009594244 -0.011580266 0.04469675 0.00020640617 0.009933556
00000000: 03f3 55b7 8ed7 4e3b 271d 9cbc 7cd1 13bd
00000010: 569a a5bb d58d d839 7afd 94bc 64ae 98bb
00000020: f1d2 ffbc cf29 a8bc 5edc a03c 2d31 1d3c
00000030: 28bb 3dbc f013 373d bc6e 5839 5bc0 223c

norm_layers.0.weight f4 [4]
0.8294861 0.8293552 0.8294935 0.8292916
00000000: 3359 543f 9f50 543f b059 543f 744c 543f

norm_layers.0.bias f4 [4]
-0.035721824 -0.073870555 0.043677725 -0.10421125
00000000: 0c51 12bd 7249 97bd 6ae7 323d b56c d5bd

norm_layers.0.running_mean f4 [4]
0.0002859942 0.00062944135 -0.00045972434 2.0204949e-05
00000000: 7ef1 9539 1801 253a 2807 f1b9 cc7d a937

norm_layers.0.running_var f4 [4]
0.07684552 0.37286136 0.1987634 0.00039881852
00000000: 2f61 9d3d afe7 be3e a288 4b3e 8418 d139

norm_layers.1.weight f4 [4]
0.8333408 0.8378053 0.8318209 0.83294666
00000000: d355 553f 687a 563f 37f2 543f fe3b 553f

norm_layers.1.bias f4 [4]
-0.074358635 -0.08212796 0.01570828 -0.03651305
00000000: 5749 98bd b432 a8bd a7ae 803c b58e 15bd

norm_layers.1.running_mean f4 [4]
0.00072628993 -7.53544e-05 0.00020845457 -0.00036581216
00000000: 7e64 3e3a 9607 9eb8 9994 5a39 7aca bfb9

norm_layers.1.running_var f4 [4]
2.006068e-06 2.7168085e-06 4.4363606e-08 7.462835e-07
00000000: fc9f 0636 6a52 3636 4d8a 3e33 3654 4835

norm_layers.2.weight f4 [8]
0.83097297 0.83429706 0.83391047 0.83113325 0.83101237 0.82767534 0.83059895 0.83235586
00000000: a5ba 543f 7e94 553f 287b 553f 26c5 543f
00000010: 3abd 543f 88e2 533f 22a2 543f 4615 553f

norm_layers.2.bias f4 [8]
-0.0020862494 -0.007986456 -0.0006725407 0.00035331343 0.0361623 0.040672977 -0.0074716173 -0.0016572386
00000000: 75b9 08bb a0d9 02bc 714d 30ba ed3c b939
00000010: eb1e 143d b598 263d 78d4 f4bb b337 d9ba

norm_layers.2.running_mean f4 [8]
1.3308666e-06 -0.00015030753 0.0029548993 -0.0003978435 0.00023809685 0.00013585264 -0.00013129483 0.00063058856
00000000: 3aa0 b235 df9b 1db9 fca6 413b a795 d0b9
00000010: a3a9 7939 aa73 0e39 30ac 09b9 154e 253a

norm_layers.2.running_var f4 [8]
5.751011e-11 5.813134e-07 7.86229e-06 1.8441613e-05 1.3205188e-07 2.1289534e-08 1.0259167e-08 1.1651337e-06
00000000: a1ee 7c2e 8d0b 1c35 47e8 0337 10b3 9a37
00000010: 25ca 0d34 2ee0 b632 4b40 3032 b061 9c35

stages.0.0.gamma f4 [4]
0.00494423 -0.0021989853 -0.0005358226 0.0026284927
00000000: 3503 a23b da1c 10bb 7276 0cba ca42 2c3b

stages.0.0.norm.weight f4 [4]
0.8601322 0.85133785 0.8701082 0.8306138
00000000: a031 5c3f 47f1 593f 69bf 5e3f 1ba3 543f

stages.0.0.norm.bias f4 [4]
-0.010895901 0.008411228 0.0034183434 -0.027352689
00000000: b984 32bc 3fcf 093c 4906 603b bf12 e0bc

stages.0.0.norm.running_mean f4 [4]
0.0075488086 0.043582384 -0.0435688 -0.1440075
00000000: ff5b f73b 7183 323d 3375 32bd b476 13be

stages.0.0.norm.running_var f4 [4]
0.3181326 0.43170992 1.0448087 1.4169538
00000000: 47e2 a23e 1509 dd3e 4bbc 853f be5e b53f

stages.0.0.pwconv1.weight f4 [8, 4]
0.42789006 0.49524948 0.7300724 0.05614508 0.05273433 0.1749251 -0.25924554 -0.4065097
1.1818948 -0.6902686 0.20912497 -0.29172567 -0.9697274 0.1644707 0.20063236 0.27803603
-0.35264632 -0.5389396 -1.8200688 0.5410737 0.39058343 0.9532857 -0.7413685 0.042959794
-0.12871233 -0.010957661 -0.036560155 1.0847411 -0.013442779 0.033082426 0.3275439 -1.1895443
00000000: 6814 db3e 5791 fd3e 06e6 3a3f 62f8 653d
00000010: f4ff 573d 911f 333e d5bb 84be 0a22 d0be
00000020: 5448 973f 71b5 30bf db24 563e 115d 95be
00000030: 0e40 78bf 026b 283e 9272 4d3e bd5a 8e3e
00000040: 0f8e b4be f2f7 09bf 04f8 e8bf ce83 0a3f
00000050: 8dfa c73e 880a 743f 53ca 3dbf 9cf6 2f3d
00000060: 2acd 03be c387 33bc 1ac0 15bd ccd8 8a3f
00000070: 1a3f 5cbc 7081 073d d6b3 a73e fd42 98bf

stages.0.0.pwconv1.bias f4 [8]
-0.013205285 0.006231 0.024361433 0.039838534 -0.01112559 0.020189118 0.039659698 0.050294265
00000000: fb5a 58bc 6b2d cc3b a191 c73c bb2d 233d
00000010: 1b48 36bc a663 a53c 3572 223d 5c01 4e3d

stages.0.0.pwconv2.weight f4 [4, 8]
0.78243333 -0.1459673 -0.14446586 0.21136387 0.22724587 0.19849455 -0.07264896 -0.27402824
-0.41278106 -0.17153963 -0.14255492 0.077604055 -0.10840985 0.700232 -0.6302306 0.035902306
0.052927006 0.0002371717 -0.018549878 -0.47157636 -0.013794 -0.44035086 -0.137902 0.27586752
-0.017993035 -0.046993483 -0.25391248 -0.1350849 -0.27458546 -0.022492735 -0.010225058 0.3012406
00000000: 8d4d 483f 7478 15be dcee 13be c56f 583e
00000010: 24b3 683e 2842 4b3e fac8 94bd 6e4d 8cbe
00000020: 0a58 d3be 16a8 2fbe ebf9 11be e0ee 9e3d
00000030: fc05 debd 6842 333f cb56 21bf 4c0e 133d
00000040: fdc9 583d 4bb1 7839 eaf5 97bc 7572 f1be
00000050: 3b00 62bc ab75 e1be 2f36 0dbe 823e 8d3e
00000060: 2166 93bc 3d7c 40bd d100 82be b253 0abe
00000070: 7796 8cbe af42 b8bc 0087 27bc 353c 9a3e

stages.0.0.pwconv2.bias f4 [4]
1.4750336e-07 5.471723e-08 6.5521355e-08 -5.8170095e-08
00000000: 6a61 1e34 3b02 6b33 bfb4 8c33 b2d6 79b3

stages.1.0.gamma f4 [8]
1.3166821e-05 0.000850382 -0.0032460988 0.0039256504 -0.00045038317 -0.00024659382 -0.0002480992 0.0019067487
00000000: 11e7 5c37 2cec 5e3a 80bc 54bb bea2 803b
00000010: 6821 ecb9 4349 81b9 5013 82b9 dfeb f93a

stages.1.0.norm.weight f4 [8]
0.8311707 0.8327261 0.83972275 0.83144414 0.8338468 0.832071 0.8327868 0.8333489
00000000: 9ac7 543f 8a2d 553f 12f8 563f 86d9 543f
00000010: fc76 553f 9b02 553f 8431 553f 5a56 553f

stages.1.0.norm.bias f4 [8]
-0.045131344 0.027964154 -0.009845634 0.010268251 0.007206233 -0.031638596 -0.03697782 -0.027886447
00000000: a5db 38bd 1515 e53c 954f 21bc 2b3c 283c
00000010: 4422 ec3b 7997 01bd 0e76 17bd 1e72 e4bc

stages.1.0.norm.running_mean f4 [8]
0.16595963 0.006640071 0.015250341 0.058354445 0.0039883046 -0.021706862 0.28057674 -0.030326618
00000000: 52f1 293e f494 d93b 91dc 793c 1205 6f3d
00000010: 53b0 823b 97d2 b1bc c1a7 8f3e 876f f8bc

stages.1.0.norm.running_var f4 [8]
0.36762595 0.012925409 0.030930439 0.0016923139 0.002749694 0.015666347 0.037277322 0.008907944
00000000: 7839 bc3e 18c5 533c d561 fd3c a2d0 dd3a
00000010: 3634 343b b656 803c 1bb0 183d a0f2 113c

stages.1.0.pwconv1.weight f4 [16, 8]
-0.31326023 -0.6101543 -0.43059716 -0.010292195 -0.08319418 -0.6864724 0.14447722 -0.029879864
-0.34562385 -0.03160557 0.8170845 0.2752184 -1.0598704 0.069311984 -0.27923924 -0.60536194
-0.01343403 -0.19097187 0.4776316 0.0010596055 0.77016973 0.6768192 -0.058481097 -0.9642174
-0.07494854 0.12835546 0.13851102 -0.049537867 -0.35532802 0.10146424 -0.00777638 -0.0024420344
0.011335574 0.9434241 -0.45259407 0.84740496 0.022003701 -0.040958337 -0.49588132 -0.22873923
-0.013999847 0.9293616 -0.2559212 0.23963182 0.21202382 0.011506649 0.014406811 0.21953005
-0.017323973 -0.10774228 0.002581338 -0.098059244 0.32375175 0.008916496 0.96046484 -0.43842292
-1.177376 -0.21019886 -0.0011057208 0.10622772 0.6135174 0.35396573 -0.011436301 -0.26863536
0.7045468 -0.008921166 -0.3390432 0.2024744 0.26641288 0.063446224 0.19814393 0.4493293
0.7516795 0.0060872873 0.014305342 0.30023387 0.14543918 -0.014096411 0.28022295 -0.033419706
0.03012024 -0.2760569 -0.31432238 0.12491627 -0.05965249 0.28268862 0.26991248 0.050118394
1.1357433 -0.5056219 -0.73323464 0.41888317 -0.36832735 0.38588825 0.3265279 -0.016464643
0.0010407129 0.0032044565 -0.21316545 0.034442447 0.012918415 0.5223068 -0.53775644 -0.32995403
-0.060509745 1.1950574 -0.1956608 0.93754095 0.58383787 0.51267356 0.007288512 -0.030252274
0.07938139 0.6972536 0.31332877 -0.10173236 0.04893759 0.11118188 -0.9194156 -1.0520205
-0.11328838 0.22494031 -0.17926784 -0.40177152 -0.25781605 -0.80738014 0.05013932 0.06647758
00000000: a563 a0be 1233 1cbf 3b77 dcbe 98a0 28bc
00000010: b661 aabd a8bc 2fbf d6f1 133e 9ec6 f4bc
00000020: 9cf5 b0be d874 01bd 732c 513f 6de9 8c3e
00000030: d5a9 87bf 71f3 8d3d 72f8 8ebe 00f9 1abf
00000040: 681a 5cbc 218e 43be 218c f43e 76e2 8a3a
00000050: d829 453f 0644 2d3f e089 6fbd f4d6 76bf
00000060: 9f7e 99bd 9d6f 033e d5d5 0d3e 38e8 4abd
00000070: 8eed b5be 7ccc cf3d 01d1 febb 8a0a 20bb
00000080: d8b8 393c 3e84 713f 69ba e7be 88ef 583f
00000090: 1b41 b43c eec3 27bd 28e4 fdbe 9e3a 6abe
000000a0: 9d5f 65bc a4ea 6d3f 1b08 83be 0b62 753e
000000b0: c61c 593e 6286 3c3c 8c0a 6c3c 7ccc 603e
000000c0: 01eb 8dbc fca7 dcbd aa2b 293b 49d3 c8bd
000000d0: cac2 a53e 7f16 123c 06e1 753f f878 e0be
000000e0: 42b4 96bf 5f3e 57be d5ed 90ba eb8d d93d
000000f0: 7a0f 1d3f ff3a b53e 535f 3bbc 938a 89be
00000100: 2e5d 343f 152a 12bc 1297 adbe 7355 4f3e
00000110: 4567 883e 18f0 813d 3ee6 4a3e 7d0e e63e
00000120: 116e 403f de77 c73b f460 6a3c 41b8 993e
00000130: 02ee 143e a2f4 66bc 6279 8f3e 1ae3 08bd
00000140: b9be f63c 5457 8dbe ddee a0be 1ad4 ff3d
00000150: 2b56 74bd 90bc 903e f831 8a3e f248 4d3d
00000160: 0960 913f 7070 01bf 44b5 3bbf db77 d63e
00000170: 6795 bcbe 2593 c53e aa2e a73e dce0 86bc
00000180: 8868 883a dc01 523b 0b48 5abe 8613 0d3d
00000190: c2a7 533c e6b5 053f 68aa 09bf bcef a8be
000001a0: 11d9 77bd a4f7 983f 4e5b 48be af02 703f
000001b0: 6676 153f 933e 033f 78d4 ee3b 9ed3 f7bc
000001c0: b692 a23d 367f 323f a16c a03e 0e59 d0bd
000001d0: c872 483d 53b3 e33d d25e 6bbf 9ca8 86bf
000001e0: bd03 e8bd c156 663e fd91 37be ffb4 cdbe
000001f0: 7700 84be 77b0 4ebf e35e 4d3d 6625 883d

stages.1.0.pwconv1.bias f4 [16]
0.022143506 0.008175524 -0.007008643 0.005121684 0.047329735 0.022897428 -0.0019304294 0.026769128
-2.0258003e-06 0.031400908 0.010796225 -0.035737857 0.0019244028 -0.016921936 0.013543007 0.0006497373
00000000: 4c66 b53c a2f2 053c c2a8 e5bb cdd3 a73b
00000010: d3dc 413d 6393 bb3c 7606 fdba ee4a db3c
00000020: fcf2 07b6 3d9e 003d a6e2 303c dc61 12bd
00000030: 3e3c fc3a df9f 8abc 7de3 5d3c 2253 2a3a

stages.1.0.pwconv2.weight f4 [8, 16]
-0.056609243 0.33527064 -0.00039864425 0.0012609673 0.22939695 0.065723255 0.08858707 0.0836785
-0.049399335 -0.21968076 -0.5605823 -0.13627914 -0.04502203 6.3685206e-05 0.003984104 -0.20658211
0.22184187 -0.16651456 -0.039535362 0.02055711 -0.0500734 0.005293074 0.0138452165 -0.060667697
0.7373409 -0.26407748 0.006632999 -0.060978305 -0.20369191 -0.006797646 -0.36682045 0.1624215
-0.72722983 0.12935673 0.020049391 -0.011116976 -0.15983225 -0.16560696 -0.012745506 -0.2065152
-0.33260408 0.05716923 0.01573988 -0.27734977 -0.03112179 0.40932664 -0.66420525 -0.51169914
0.21780922 -0.12843505 0.22618985 0.037140157 -0.53951997 0.72853464 0.037283994 -0.55750674
0.14683235 0.3564616 -0.6315672 0.19000219 -0.2482597 -0.09338116 -0.12715898 0.10382378
0.23633526 -0.23877189 0.007906145 -0.3064455 0.1337116 -0.3075388 -0.033866946 -0.2817311
0.23783481 -0.28202355 -0.028735854 0.15608591 0.13645774 0.02974141 -0.4195909 -0.097573325
-0.46829996 0.08587947 -0.016548878 -0.017799495 -0.2314784 -0.51043636 -0.4664928 -0.0006064331
-0.007632184 -0.0061391904 0.13810447 -0.030055033 -0.023308601 0.38997233 -0.5874178 0.5711201
-0.061200444 -0.13548568 0.0031015493 -0.00042838612 0.19072151 0.21390785 0.06863721 -0.009800329
0.33626488 -0.0029886328 0.20358825 0.1647562 0.022179905 0.037791204 0.27943048 -0.00059086276
-0.17042542 0.13656035 -0.014891866 -0.030134626 -0.03538352 -0.019858966 0.110447705 0.38763177
0.2514162 0.23339027 -0.010373469 -0.60342497 -0.047379617 0.1105579 0.1504161 -0.020582128
00000000: 18df 67bd 98a8 ab3e 2001 d1b9 0b47 a53a
00000010: 09e7 6a3e ea99 863d 236d b53d a25f ab3d
00000020: f556 4abd fef3 60be 5282 0fbf c28c 0bbe
00000030: 0569 38bd bc8e 8538 168d 823b 438a 53be
00000040: 842a 633e cb82 2abe d5ef 21bd 6267 a83c
00000050: c419 4dbd 8671 ad3b 0cd7 623c b17e 78bd
00000060: 60c2 3c3f 2a35 87be a159 d93b 63c4 79bd
00000070: 9d94 50be cabe debb e4cf bbbe d251 263e
00000080: bc2b 3abf 1776 043e 9f3e a43c fa23 36bc
00000090: 11ab 23be df94 29be 87d2 50bc b878 53be
000000a0: 154b aabe 482a 6a3d ecf0 803c ca00 8ebe
000000b0: 20f3 febc 4393 d13e 5b09 2abf b7fe 02bf
000000c0: 6109 5f3e 7a84 03be 509e 673e 4720 183d
000000d0: fb1d 0abf 3f81 3a3f 1ab7 183d c3b8 0ebf
000000e0: 385b 163e 2382 b63e 63ae 21bf ef8f 423e
000000f0: ca37 7ebe 9f3e bfbd f735 02be 90a1 d43d
00000100: df01 723e 9e80 74be c788 013c 6de6 9cbe
00000110: b2eb 083e ba75 9dbe 11b8 0abd 0f3f 90be
00000120: f88a 733e 6465 90be 7467 ebbc fcd4 1f3e
00000130: 94bb 0b3e 42a4 f33c 9ed4 d6be 86d4 c7bd
00000140: 03c5 efbe 93e1 af3d 8391 87bc 3fd0 91bc
00000150: ac08 6dbe f5ab 02bf 25d8 eebe 09f9 1eba
00000160: 6617 fabb 432b c9bb 426b 0d3e f935 f6bc
00000170: aef1 bebc 74aa c73e 0361 16bf ed34 123f
00000180: 51ad 7abd c2bc 0abe 5d43 4b3b 0399 e0b9
00000190: 804c 433e a90a 5b3e aa91 8c3d 8f91 20bc
000001a0: e92a ac3e f0dc 43bb 7079 503e d9b5 283e
000001b0: a2b2 b53c f3ca 1a3d 8311 8f3e 21e4 1aba
000001c0: 0084 2ebe 7ad6 0b3e 03fd 73bc e4dc f6bc
000001d0: 4fee 10bd 45af a2bc 6832 e23d ac77 c63e
000001e0: a0b9 803e dcfd 6e3e 7cf5 29bc 0f7a 1abf
000001f0: 2111 42bd 2e6c e23d ae06 1a3e da9b a8bc

stages.1.0.pwconv2.bias f4 [8]
-1.1667837e-09 7.8712375e-08 -1.1126886e-07 -1.1039964e-07 2.0222432e-08 9.7180965e-09 1.3084913e-08 6.890961e-08
00000000: 8d5c a0b0 9608 a933 b4f2 eeb3 d814 edb3
00000010: 99b5 ad32 a4f4 2632 0ecc 6032 75fb 9333

stages.2.0.gamma f4 [16]
0.14241092 0.114776745 -0.11005134 0.08804909 0.13444361 0.13041438 0.14076816 -0.08479337
-0.12739488 0.030530578 0.13436005 -0.13267359 0.14791304 -0.12157015 0.1485884 0.08634413
00000000: 2bd4 113e 1210 eb3d 9962 e1bd 1553 b43d
00000010: 96ab 093e 598b 053e 8725 103e 25a8 adbd
00000020: ce73 02be 431b fa3c ae95 093e 96db 07be
00000030: 8476 173e c5f9 f8bd 8f27 183e 31d5 b03d

stages.2.0.norm.weight f4 [16]
0.8315212 0.8302123 0.83521223 0.8337402 0.8320122 0.83253735 0.82965726 0.83354235
0.8298844 0.83217156 0.83179945 0.8310553 0.8324555 0.836729 0.8340283 0.8304408
00000000: 93de 543f cb88 543f 78d0 553f ff6f 553f
00000010: c0fe 543f 2b21 553f 6b64 543f 0863 553f
00000020: 4e73 543f 3209 553f cff0 543f 0ac0 543f
00000030: ce1b 553f df33 563f e182 553f c597 543f

stages.2.0.norm.bias f4 [16]
-0.031640586 0.0026832724 -0.045037117 0.016184783 -0.07112606 -0.059438244 -0.05678552 -0.085196234
0.017180756 -0.0036196804 -0.08391569 -0.007604185 -0.0033581364 0.0577382 -0.0047270204 0.0048841634
00000000: 8f99 01bd d7d9 2f3b d778 38bd f395 843c
00000010: 8aaa 91bd 8475 73bd ef97 68bd 5d7b aebd
00000020: a8be 8c3c 2938 6dbb fddb abbd 872c f9bb
00000030: 2e14 5cbb e47e 6c3d 1fe5 9abb 550b a03b

stages.2.0.norm.running_mean f4 [16]
-0.0071184435 0.01688031 0.025685651 0.085782565 -0.01932428 -0.0048638727 0.018646538 0.026011936
0.0021592153 -0.008929103 -0.020046337 -0.041491304 0.014677373 -0.029798936 -0.02210781 0.007241771
00000000: d541 e9bb 9348 8a3c b76a d23c c5ae af3d
00000010: f44d 9ebc 1f61 9fbb a0c0 983c fc16 d53c
00000020: 9f81 0d3b 5f4b 12bc 3738 a4bc c9f2 29bd
00000030: 5d79 703c e61c f4bc 701b b5bc 614c ed3b

stages.2.0.norm.running_var f4 [16]
0.37779725 0.005131713 0.09022005 0.014245356 0.15920705 0.009474021 0.37328297 0.0123343775
0.010956685 0.005799041 0.034758005 0.057548225 0.11253634 0.00081952196 0.037760075 0.033909082
00000000: a46e c13e ee27 a83b 4ac5 b83d 5b65 693c
00000010: 2c07 233e ed38 1b3c f21e bf3e 2116 4a3c
00000020: ab83 333c e205 be3b 695e 0e3d b0b7 6b3d
00000030: 7479 e63d 30d5 563a 4faa 1a3d 40e4 0a3d

stages.2.0.pwconv1.weight f4 [32, 16]
0.046872888 0.04031205 0.39696681 0.54658926 -0.018372003 -0.2898818 0.015641212 0.31843394
-0.43549067 0.13539083 -0.027418938 -0.009216713 -0.32436398 0.20670639 -0.06575394 -0.12024768
0.027085578 -0.013874498 0.1857644 -0.088146545 -0.12986661 -0.09929938 -0.0023841436 0.033397585
-0.0061118975 0.36376163 0.22094518 -0.32113776 -0.5263477 0.10052024 0.5440628 -0.07893221
0.06577922 0.0035295796 0.06824713 0.17116494 0.041546788 -0.37627295 0.0076108193 0.15022223
-0.21759617 0.22163567 0.055139635 0.22937748 0.016335351 0.39749533 -0.019728117 -0.1059764
0.02507747 -0.04186758 -0.008516696 0.47169006 0.0067070466 0.2267577 0.26026574 0.16590609
-0.44844702 0.28883842 -0.11000779 -0.078600824 -0.018406827 -0.078138664 0.06887882 0.012301169
-0.09998962 0.1677643 0.44763377 -0.10516888 -0.6747873 0.10318859 -0.36819345 -0.1658791
-0.41038114 0.26408076 -0.07303686 -0.17383845 0.07788308 0.12657858 -0.056228407 0.058924552
-0.025514726 0.007513842 0.48709568 -0.018465873 -0.022360506 -0.26746082 -0.15415 0.06723818
0.5066012 0.052076187 -0.13640024 -0.08516992 0.07005197 0.057014816 0.1139554 -0.14637697
0.015010707 0.16544594 -0.075766616 -0.5190097 -0.20090902 0.0034359137 -0.10747246 -0.09118875
0.13723668 0.20133512 -0.023064286 -0.21570118 -0.19317764 0.16580744 0.020083025 -0.051053856
0.14655967 -0.22615393 -0.28570148 0.06535953 -0.27779898 0.04542217 0.1381886 -0.6703389
-0.093405895 0.27020976 -0.45987862 0.015495304 -0.5614628 -0.2406766 0.045683067 0.034380168
0.036323372 -0.6122949 0.36040983 -0.04026227 -0.5311766 -0.13411008 -0.00774114 0.18531458
0.42384875 0.022125525 -0.23280528 -0.060327597 0.37746212 0.019320026 0.0059653632 0.20797338
-0.037491426 0.04240684 -0.020191181 -0.053362172 -0.579411 -0.009581666 -0.032315023 -0.1900937
-0.012751424 0.017174006 0.06257056 -0.0127856145 0.003940478 0.07497998 -0.40278125 0.068574585
0.06261326 0.3973468 -0.07493056 0.010587088 0.006296226 -0.005173008 -0.005042946 0.03059559
-0.44428205 -0.10576753 -0.009513111 0.18662319 0.010022686 0.21233922 0.0038345798 0.0052534416
0.41832715 0.06776985 -0.574809 -0.0072544916 -0.03949408 -0.10534672 -0.008328546 -0.070479736
0.41139916 -0.022179293 0.14814082 -0.11924309 0.014952153 -0.16807988 0.030741565 -0.07559914
0.63316596 -0.49816373 0.2231768 -0.4403538 -0.023591293 -0.0037560954 -0.67924017 -0.9720476
0.05317265 0.10842273 0.22170864 0.2959184 0.0051746434 -0.52041113 -0.018633343 0.27064323
0.17654839 -0.752551 0.013331966 -0.21170309 -0.5779367 -0.009304254 0.058136363 -0.6205236
0.18829697 -0.029987792 0.13350306 0.36689472 0.67726386 -0.044852756 0.02234704 -0.47161585
0.029901896 -0.26007572 -0.040133897 0.06928787 0.05469823 0.40756187 0.08174795 -0.3322658
-0.16896799 -0.019068854 -0.041058578 -0.08970164 -0.040290743 0.14400487 -0.2281086 0.03791079
-0.5331559 -0.020707317 -0.0077884425 -0.018840896 0.30819947 -0.23297586 0.0425451 -0.03750123
0.22220352 -0.0145202065 0.29375985 -0.16143833 0.04272128 -0.1538604 -0.0070001893 -0.19242239
00000000: c9fd 3f3d 401e 253d 3c3f cb3e 46ed 0b3f
00000010: e280 96bc 636b 94be 0022 803c c609 a33e
00000020: a2f8 debe e5a3 0a3e ae9d e0bc b201 17bc
00000030: 0913 a6be d7aa 533e 00aa 86bd 6a44 f6bd
00000040: 93e2 dd3c dd51 63bc 0639 3e3e 2d86 b4bd
00000050: c1fb 04be 795d cbbd 4b3f 1cbb e8cb 083d
00000060: 5046 c8bb f73e ba3e 743f 623e 2b6c a4be
00000070: b9be 06bf 8edd cd3d b347 0b3f 36a7 a1bd
00000080: 41b7 863d 8550 673b 27c5 8b3d dd45 2f3e
00000090: f72c 2a3d d9a6 c0be 2e64 f93b dbd3 193e
000000a0: 88d1 5ebe 76f4 623e 19da 613d eee1 6a3e
000000b0: b7d1 853c 8284 cb3e dc9c a1bc 280a d9bd
000000c0: 446f cd3c 577d 2bbd 9d89 0bbc 5c81 f13e
000000d0: c9c6 db3b 2c33 683e 8d41 853e 49e3 293e
000000e0: d99a e5be a1e2 933e c44b e1bd 78f9 a0bd
000000f0: eac9 96bc 2a07 a0bd 5710 8d3d d88a 493c
00000100: 5cc7 ccbd 68ca 2b3e 4130 e53e c862 d7bd
00000110: dcbe 2cbf 8a54 d33d da83 bcbe 36dc 29be
00000120: 7a1d d2be 9835 873e 5994 95bd b502 32be
00000130: 2a81 9f3d d19d 013e c24f 66bd df5a 713d
00000140: 4204 d1bc ad36 f63b 9b64 f93e be45 97bc
00000150: 612d b7bc a0f0 88be 7fd9 1dbe 2cb4 893d
00000160: 9eb0 013f d74d 553d 81ac 0bbe 916d aebd
00000170: 6877 8f3d 5e88 693d 7361 e93d d8e3 15be
00000180: 78ef 753c a96a 293e 872b 9bbd d2dd 04bf
00000190: 18bb 4dbe 112d 613b 851a dcbd 2bc1 babd
000001a0: c687 0c3e cb2a 4e3e 50f1 bcbc c5e0 5cbe
000001b0: 5cd0 45be 6dc9 293e 2885 a43c d91d 51bd
000001c0: bd13 163e e594 67be 7747 92be 38db 853d
000001d0: ab3b 8ebe 990c 3a3d 5081 0d3e 559b 2bbf
000001e0: 974b bfbd ef58 8a3e 3675 ebbe 04e0 7d3c
000001f0: 07bc 0fbf ed73 76be 2b1e 3b3d 38d2 0c3d
00000200: d1c7 143d 5cbf 1cbf a387 b83e 0dea 24bd
00000210: 31fb 07bf 2754 09be 64a9 fdbb 1bc3 3d3e
00000220: b402 d93e 9740 b53c 8264 6ebe 121a 77bd
00000230: b742 c13e 0845 9e3c 1879 c33b f9f6 543e
00000240: 9c90 19bd cbb2 2d3d fa67 a5bc 4b92 5abd
00000250: 4754 14bf 6cfc 1cbc c25c 04bd eca7 42be
00000260: 59eb 50bc 80b0 8c3c fe24 803d c17a 51bc
00000270: 201f 813b 1b8f 993d 5839 cebe d570 8c3d
00000280: 613b 803d 0a71 cb3e 3275 99bd 7775 2d3c
00000290: 9250 ce3b 5682 a9bb 4c3f a5bb 9aa3 fa3c
000002a0: f078 e3be a69c d8bd e1dc 1bbc 261a 3f3e
000002b0: 3136 243c 746f 593e 934d 7b3b 1025 ac3b
000002c0: fa2e d63e ebca 8a3d af26 13bf 16b7 edbb
000002d0: 8bc4 21bd 05c0 d7bd 7474 08bc ae57 90bd
000002e0: e9a2 d23e 59b1 b5bc 3ab2 173e b935 f4bd
000002f0: e0f9 743c 221d 2cbe bcd5 fb3c b9d3 9abd
00000300: 2a17 223f 510f ffbe 7688 643e 0e76 e1be
00000310: 8742 c1bc d328 76bb afe2 2dbf 1dd8 78bf
00000320: 91cb 593d bc0c de3d 9707 633e 9e82 973e
00000330: 0e90 a93b aa39 05bf f4a4 98bc c091 8a3e
00000340: 1ac9 343e 2fa7 40bf 516e 5a3c b2c8 58be
00000350: a9f3 13bf df70 18bc 6520 6e3d a2da 1ebf
00000360: ecd0 403e f5a8 f5bc 07b5 083e a0d9 bb3e
00000370: 2a61 2d3f 86b7 37bd 2411 b73c a277 f1be
00000380: d2f4 f43c a528 85be 7163 24bd cce6 8d3d
00000390: 400b 603d f3ab d03e 786b a73d be1e aabe
000003a0: f205 2dbe 4936 9cbc 0a2d 28bd 7eb5 b7bd
000003b0: e807 25bd 0376 133e 4d95 69be 5848 1b3d
000003c0: e87c 08bf 64a2 a9bc 3136 ffbb 3958 9abc
000003d0: 52cc 9d3e 3991 6ebe c543 2e3d e49a 19bd
000003e0: 5289 633e 29e6 6dbc b167 963e 1750 25be
000003f0: 82fc 2e3d 958d 1dbe d861 e5bb 600a 45be

stages.2.0.pwconv1.bias f4 [32]
-0.014358892 -0.02573111 0.06469308 0.020356236 0.074558556 0.035187576 0.04529428 0.026586503
-0.0067272116 0.007959023 0.00980316 -0.019951528 0.024084102 0.030425206 0.01673365 0.016783563
0.00017953156 0.06561714 0.049905647 0.09071001 0.019930797 0.039240044 0.008220472 0.0725478
-0.027924439 -0.019841468 0.013023514 -0.0041328347 0.014888825 0.03642782 0.08173561 0.007428721
00000000: 8f41 6bbc 0cca d2bc ce7d 843d 1fc2 a63c
00000010: 28b2 983d d920 103d 7f86 393d f0cb d93c
00000020: f16f dcbb 9066 023c 6f9d 203c 6371 a3bc
00000030: 064c c53c 483e f93c 0215 893c af7d 893c
00000040: a340 3c39 4762 863d dd69 4c3d 2bc6 b93d
00000050: e945 a33c 2bba 203d 29af 063c f193 943d
00000060: cbc1 e4bc 938a a2bc 9460 553c bb6c 87bb
00000070: 42f0 733c 5635 153d 0065 a73d a16c f33b

stages.2.0.pwconv2.weight f4 [16, 32]
0.010598737 0.030176306 0.050779905 -0.045879614 0.31021836 0.03400277 -0.18439382 -0.06405755
0.0312541 0.0013860718 0.025872163 -0.015369188 -0.02617844 -0.017729674 -0.008491747 -0.2303643
0.01370488 -0.09729745 0.03902879 -0.06267783 0.031098625 -0.0983402 0.02719621 -0.058631066
0.31512377 0.051201895 0.07717485 -0.03864299 0.044376444 0.046617117 0.094257034 0.15337232
0.008083937 0.11534253 -0.011182814 -0.0077163414 0.07425207 0.027705222 0.05002914 -0.32043323
-0.27424604 -0.011849158 -0.25427288 -0.032101262 0.008997888 0.06587567 -0.25060418 0.05146674
0.19360216 0.21071647 0.04346854 -0.51989853 0.21246015 -0.053612404 -0.0019074051 -0.11713114
0.015402659 0.13747051 -0.04662734 -0.15053311 -0.018062074 -0.011588908 -0.032441363 -0.27614722
0.06781274 -0.017657287 -0.3266483 0.009453456 0.22684735 -0.02375746 -0.27649796 0.24388318
0.01167496 -0.03121621 -0.053908825 -0.04213707 -0.152534 0.22159587 -0.040121686 -0.036310285
-0.03362664 0.0049686204 0.04471857 0.022989493 0.005895827 -0.064628296 -0.31987685 0.30899376
0.025366493 -0.019623721 0.1250533 0.006093007 -0.053373195 -0.08983188 -0.14712964 -0.027275316
0.045087997 -0.11917519 0.07279245 -0.14487201 -0.04345795 0.058667082 -0.17530425 -0.270947
0.010368348 0.06818063 -0.05837853 -0.09023267 0.024316998 -0.028628696 -0.13704854 0.0030805583
0.040791277 0.06134817 0.11097645 -0.057716694 -0.048929363 -0.06789092 0.013076593 -0.03293515
0.5049303 0.0625282 0.07862471 -0.09992536 0.10534366 0.15874714 0.028291374 -0.07193565
-0.53088886 0.024105221 0.06621815 0.02647588 0.24265757 -0.18196948 0.12338106 -0.17315137
0.26926762 -0.14021237 -0.087712504 0.15668848 -0.025890445 0.09278686 -0.11316831 0.04844414
0.032911487 0.0004151711 -0.23880352 -0.28120238 0.0038135988 -0.2695533 -0.032121174 -0.06380505
-0.021732954 0.041309014 0.1629784 0.03128003 -0.06786795 0.33270776 0.15687023 0.05674336
-0.056355875 0.04810744 -0.010375667 0.0028805272 0.21210271 -0.03493108 -0.10025108 0.17227064
-0.115062095 -0.152721 -0.003147445 0.06744875 0.018886467 -0.070404045 -0.06186755 -0.07583573
0.11690668 -0.26371416 -0.16587172 0.22251138 0.14975148 0.3040245 -0.035480853 0.081454545
-0.05797335 -0.099849746 0.0058559277 0.15751591 -0.0037073859 -0.23496743 0.24111651 0.14485644
0.052296016 -0.00027644183 0.20201449 -0.12769313 -0.10049135 -0.3957905 -0.17383088 -0.03587798
0.08690278 -0.33605883 -0.00492233 -0.052397933 0.016720392 0.06710197 -0.041453607 -0.21264794
-0.073246546 0.044239204 0.08065965 0.12141301 0.08739879 -0.0057731015 -0.096035875 0.2080157
-0.18535326 -0.07657668 -0.12406288 0.26459515 -0.052126247 -0.14948095 -0.22539617 0.45609906
-0.1781532 0.02226509 0.141665 -0.11957415 -0.2439853 -0.2777305 0.0042696805 -0.27347213
-0.2675163 -0.023473112 -0.0028012113 0.060055643 0.008546371 -0.08757604 0.12343484 0.022452317
0.00039567627 -0.017412158 -0.077461176 0.061780293 -0.4000745 -0.04149071 0.000774699 -0.054040823
-0.32456943 0.1262313 0.11334525 -0.031430524 -0.017210897 0.10602785 0.033817716 0.0029171878
00000000: 53a6 2d3c 4d34 f73c 97fe 4f3d 43ec 3bbd
00000010: f1d4 9e3e 7d46 0b3d bcd1 3cbe 9b30 83bd
00000020: 4d04 003d daac b53a dcf1 d33c 0ccf 7bbc
00000030: 2b74 d6bc d23d 91bc f820 0bbc 9ee4 6bbe
00000040: 6f8a 603c e343 c7bd a7dc 1f3d 3c5d 80bd
00000050: 8bc2 fe3c 9666 c9bd 96ca de3c 2127 70bd
00000060: e757 a13e 14b9 513d d90d 9e3d 1d48 1ebd
00000070: 13c4 353d 97f1 3e3d d509 c13d a20d 1d3e
00000080: 7d72 043c b438 ec3d 1f38 37bc 5dd9 fcbb
00000090: 7811 983d 10f6 e23c 5beb 4c3d d30f a4be
000000a0: fa69 8cbe f922 42bc 0e30 82be 9d7c 03bd
000000b0: e16b 133c d3e9 863d 314f 80be cace 523d
000000c0: a53f 463e 0fc6 573e 110c 323d 1218 05bf
000000d0: 278f 593e ae98 5bbd e501 faba 73e2 efbd
000000e0: 6f5b 7c3c 12c5 0c3e 4ffc 3ebd 5a25 1abe
000000f0: eaf6 93bc 67df 3dbc 3ce1 04bd 2b63 8dbe
00000100: 68e1 8a3d 04a6 90bc 723e a7be abe2 1a3c
00000110: ac4a 683e 019f c2bc 2491 8dbe 83bc 793e
00000120: 5548 3f3c 23b9 ffbc 80cf 5cbd ec97 2cbd
00000130: df31 1cbe 07ea 623e a356 24bd 18ba 14bd
00000140: 16bc 09bd cfcf a23b d22a 373d 7654 bc3c
00000150: c831 c13b d75b 84bd e6c6 a3be 6e34 9e3e
00000160: 64cd cf3c edc1 a0bc f90d 003e d9a7 c73b
00000170: da9d 5abd c7f9 b7bd 27a9 16be 7c70 dfbc
00000180: 31ae 383d 1f12 f4bd 3514 953d 5459 14be
00000190: f700 32bd e54c 703d f582 33be 91b9 8abe
000001a0: 01e0 293c 49a2 8b3d 531e 6fbd e8cb b8bd
000001b0: 7134 c73c ba86 eabc 7456 0cbe 31e3 493b
000001c0: c114 273d 3848 7b3d 9f47 e33d 5768 6cbd
000001d0: 286a 48bd 650a 8bbd 353f 563c 02e7 06bd
000001e0: 1d43 013f c90e 803d fe05 a13d aba5 ccbd
000001f0: 6bbe d73d 9c8e 223e 50c3 e73c 0053 93bd
00000200: 55e8 07bf 5078 c53c 629d 873d f2e3 d83c
00000210: 3a7b 783e 3556 3abe 36af fc3d 984e 31be
00000220: 72dd 893e d593 0fbe 9da2 b3bd f272 203e
00000230: 3318 d4bc 0a07 be3d c9c4 e7bd 5d6d 463d
00000240: 32ce 063d 52ab d939 e988 74be c2f9 8fbe
00000250: 92ed 793b e402 8abe 7e91 03bd 39ac 82bd
00000260: 4f09 b2bc a433 293d cfe3 263e 7d1f 003d
00000270: 5afe 8abd ac58 aa3e 97a2 203e ba6b 683d
00000280: 6bd5 66bd 4f0c 453d b4fe 29bc 3ac7 3c3b
00000290: 7431 593e e413 0fbd 7050 cdbd b767 303e
000002a0: ada5 ebbd e562 1cbe 5d45 4ebb 9222 8a3d
000002b0: cbb7 9a3c ff2f 90bd d468 7dbd c34f 9bbd
000002c0: c56c ef3d 8b05 87be 47da 29be 06da 633e
000002d0: 7458 193e 19a9 9b3e 5f54 11bd a4d1 a63d
000002e0: 7775 6dbd 067e ccbd 15e3 bf3b da4b 213e
000002f0: 9df7 72bb 4d9b 70be 3fe7 763e 3f55 143e
00000300: 5934 563d 65ef 90b9 e3dc 4e3e fdc1 02be
00000310: 69ce cdbd 0da5 cabe b900 32be caf4 12bd
00000320: 16fa b13d e70f acbe 7f4b a1bb 379f 56bd
00000330: 34f9 883c c26c 893d 42cb 29bd 62c0 59be
00000340: 4902 96bd 2b34 353d e330 a53d 62a7 f83d
00000350: 23fe b23d 492c bdbb 75ae c4bd 1102 553e
00000360: 3fcd 3dbe 3cd4 9cbd ae14 febd 0479 873e
00000370: 5582 55bd 8911 19be 41ce 66be d185 e93e
00000380: cb6d 36be 4765 b63c a110 113e 4be3 f4bd
00000390: 48d7 79be b132 8ebe ade8 8b3b 8a04 8cbe
000003a0: e5f7 88be af4a c0bc 8794 37bb e8fc 753d
000003b0: 1406 0c3c 115b b3bd 68cb fc3d eced b73c
000003c0: c572 cf39 f1a3 8ebc f7a3 9ebd 550d 7d3d
000003d0: 91d6 ccbe 2af2 29bd 2b15 4b3a e959 5dbd
000003e0: f72d a6be c742 013e 8e21 e83d 4bbd 00bd
000003f0: defd 8cbc 2125 d93d 7284 0a3d 4a2e 3f3b

stages.2.0.pwconv2.bias f4 [16]
2.0869771e-07 -2.712083e-07 -1.3061107e-07 -2.9031503e-08 7.876979e-08 7.533137e-07 -1.01681e-06 -1.378497e-07
5.143346e-07 4.6814023e-08 -1.4189318e-07 -7.2091984e-07 2.6932262e-06 -2.1985689e-07 -3.6590093e-06 -9.755243e-09
00000000: 6416 6034 969a 91b4 193e 0cb4 f360 f9b2
00000010: 2628 a933 5337 4a35 5379 88b5 d603 14b4
00000020: ce10 0a35 9010 4933 4d5b 18b4 3c85 41b5
00000030: 46bd 3436 cd11 6cb4 4d8d 75b6 0398 27b2

norm.weight f4 [16]
0.8312038 0.83269995 0.8321416 0.83717823 0.8424404 0.8401359 0.95464176 0.8325831
0.8345906 0.8278618 0.8365861 0.8349065 0.84064704 0.8339481 0.842891 0.82953465
00000000: c6c9 543f d32b 553f 3b07 553f 5051 563f
00000010: 2daa 573f 2513 573f 6763 743f 2b24 553f
00000020: bba7 553f c0ee 533f 822a 563f 6fbc 553f
00000030: a534 573f 9f7d 553f b4c7 573f 625c 543f

norm.bias f4 [16]
0.029734004 0.10582965 -0.13614412 0.1469699 -0.10027306 -0.13579088 0.11385395 0.1378146
-0.021193232 -0.11993542 0.11709921 -0.031669877 -0.066223934 0.0807513 0.121408015 -0.1326142
00000000: ba94 f33c 37bd d83d 5d69 0bbe 477f 163e
00000010: f65b cdbd c40c 0bbe 422c e93d 451f 0d3e
00000020: 6e9d adbc b4a0 f5bd b6d1 ef3d 46b8 01bd
00000030: 6aa0 87bd f060 a53d c4a4 f83d 04cc 07be

norm.running_mean f4 [16]
0.022044023 -0.051355164 0.0033218404 -0.0028397017 0.0068581873 0.030771064 -0.039719168 0.052052908
-0.03360936 -0.0050207754 -0.0065500424 0.06083585 0.062021833 0.04655942 -0.11633736 -0.013560467
00000000: ab95 b43c cb59 52bd 3cb3 593b 4a1a 3abb
00000010: a5ba e03b 9913 fc3c 91b0 22bd 6e35 553d
00000020: f8a9 09bd 5185 a4bb bda1 d6bb 032f 793d
00000030: 9b0a 7e3d 17b5 3e3d 4842 eebd b92c 5ebc

norm.running_var f4 [16]
1.9662155e-05 3.2296244e-05 1.29176e-05 1.0288896e-05 3.6735375e-05 1.5075468e-05 6.564005e-05 3.4085053e-06
2.1037195e-05 2.3015863e-07 1.7548937e-05 1.9991476e-05 1.0909951e-05 3.1379983e-05 8.214797e-06 2.0078137e-06
00000000: 28f0 a437 d475 0738 abb8 5837 799e 2c37
00000010: 4f14 1a38 a4ec 7c37 3ca8 8938 adbd 6436
00000020: 0879 b037 8621 7734 0e36 9337 5eb3 a737
00000030: e209 3737 009e 0338 49d2 0937 fabd 0636

head.weight f4 [4, 16]
-0.12420317 -0.2558238 -0.039449845 -0.40068966 -0.31669682 0.64625174 -0.021292258 -0.26164797
0.35567546 0.19093752 -0.6564417 0.0019174027 -0.2062679 -0.3358232 0.060156118 0.14679784
0.04667198 0.027790563 -0.19121802 0.37201023 -0.34725845 -0.12702267 0.045793872 0.12709546
0.09712126 -0.29636106 -0.18267213 0.20394774 -0.13872978 0.055257663 0.19617508 -0.10437728
0.18702084 0.27788186 0.064875424 0.3090362 0.11608957 -0.16572726 -0.6476078 0.13339962
-0.030397952 0.21196505 0.073259905 0.4259231 -0.05264094 0.15223163 -0.047332972 -0.12958027
0.1964418 -0.026483862 0.2167334 0.048018735 0.29084212 -0.085334234 -0.9797837 -0.05881491
-0.21968189 -0.13649258 -0.1768109 0.58428365 0.42970064 0.28757262 -0.445345 -0.036190093
00000000: 3b5e febd 56fb 82be 2996 21bd 3227 cdbe
00000010: 1626 a2be c170 253f 1a6d aebc b9f6 85be
00000020: 181b b63e 2085 433e 900c 28bf 5c51 fb3a
00000030: e437 53be 05f1 abbe 4366 763d 2c52 163e
00000040: 1e2b 3f3d 09a9 e33c a8ce 43be 2078 be3e
00000050: dccb b1be 3b12 02be 5b92 3b3d 5025 023e
00000060: 83e7 c63d a3bc 97be 670e 3bbe add7 503e
00000070: 2e0f 0ebe dc55 623d 1fe2 483e c1c3 d5bd
00000080: 6482 3f3e 8846 8e3e 68dd 843d fe39 9e3e
00000090: 5ec0 ed3d 68b4 29be a0c9 25bf e999 083e
000000a0: 2005 f9bc 5e0d 593e 4a09 963d 9812 da3e
000000b0: 079e 57bd 9ce2 1b3e 38e0 41bd b1b0 04be
000000c0: 0a28 493e aff4 d8bc 5cef 5d3e 4baf 443d
000000d0: 42e9 943e b7c3 aebd 1bd3 7abf e7e7 70bd
000000e0: 4af4 60be b6c4 0bbe eb0d 35be 9d93 153f
000000f0: b901 dc3e b83c 933e 4304 e4be 103c 14bd

head.bias f4 [4]
-0.13526423 0.14566411 0.021986952 -0.1121142
00000000: b582 0abe f928 153e fb1d b43c 219c e5bd

exp_avg f4 [4, 1]
0.013850977 0.030510085 -0.022276053 0.002705312
00000000: 35ef 623c 49f0 f93c 457c b6bc 9b4b 313b

exp_avg_sq f4 [4, 1]
0.00019534008 0.0009385572 0.000501836 6.0380003e-06
00000000: 34d4 4c39 8209 763a a58d 033a 079a ca36

exp_avg f4 [4]
2.3555032e-08 -2.2765853e-08 -8.495082e-08 -1.4769845e-06
00000000: 1056 ca32 a48e c3b2 356e b6b3 cd3c c6b5

exp_avg_sq f4 [4]
2.0159825e-14 1.1493198e-14 4.6958677e-14 7.7294005e-12
00000000: 6495 b528 050b 4f28 ab7b 5329 20fa 072d

exp_avg f4 [8, 4]
-0.0072919414 0.06666406 0.026775977 -0.0016777936 0.023801886 -0.029764451 -0.010685011 -0.01081085
0.027862975 0.026359495 -0.015959105 -0.0019340467 -0.015174722 -0.00243446 0.012713999 0.02699085
-0.0009815467 -0.008468527 -0.0055201496 0.0023047759 0.03142504 0.0072814203 -0.00036649435 -0.00087112375
-0.0012401412 -0.018901415 0.04853826 -0.0073970165 0.011061597 -0.01648801 -0.0015646586 -0.023906099
00000000: 3df1 eebb 2b87 883d 4b59 db3c 69e9 dbba
00000010: 2cfc c23c 94d4 f3bc 2f10 2fbc fe1f 31bc
00000020: e540 e43c deef d73c abbc 82bc d77f fdba
00000030: 669f 78bc 768b 1fbb 604e 503c ea1b dd3c
00000040: 3ea7 80ba 94bf 0abc 5fe2 b4bb b90b 173b
00000050: 8bb7 003d fb98 ee3b 0a26 c0b9 205c 64ba
00000060: 3c8c a2ba 24d7 9abc 0ed0 463d ac62 f2bb
00000070: b33b 353c dd11 87bc 3b15 cdba b9d6 c3bc

exp_avg_sq f4 [8, 4]
6.715978e-05 0.0044516376 0.0007286199 1.6453636e-05 0.0013044561 0.0011209667 0.00013683716 0.00028908046
0.0007925157 0.0006973797 0.00025171027 0.00018846685 0.0015592148 0.00417408 0.00021911759 0.0019735843
0.00086788624 0.00020078526 3.398122e-05 5.5500375e-05 0.001059277 0.00026890106 7.232779e-06 5.2849995e-05
0.00074337533 0.0030976166 0.0024334828 0.0010804026 0.0005296187 0.0012243573 1.6903434e-05 0.0006278613
00000000: 22d8 8c38 0bdf 913b db00 3f3a ea05 8a37
00000010: 49fa aa3a 67ed 923a f27b 0f39 b98f 9739
00000020: d4c0 4f3a 5cd0 363a fbf7 8339 2f9f 4539
00000030: 915e cc3a b9c6 883b eec2 6539 4057 013b
00000040: dc82 633a e289 5239 0f87 0e38 13c9 6838
00000050: 70d7 8a3a 4afb 8c39 19b1 f236 40ab 5d38
00000060: 13df 423a 6201 4b3b 117b 1f3b 4c9c 8d3a
00000070: 1cd6 0a3a 9d7a a03a d9cb 8d37 0f97 243a

exp_avg f4 [8]
0.0043794955 0.00070058316 0.008586223 -0.014664 -0.0033630743 0.0011062835 -0.012834535 0.008450794
00000000: df81 8f3b 57a7 373a 3bad 0c3c 4641 70bc
00000010: 0667 5cbb b700 913a f147 52bc 3375 0a3c

exp_avg_sq f4 [8]
2.4503215e-05 2.0904292e-05 0.00014329559 0.0005790834 0.000111510846 5.5234832e-05 0.0002800757 0.00012773795
00000000: 418c cd37 a05b af37 9e41 1639 a1cd 173a
00000010: eeda e938 f3ab 6738 20d7 9239 65f1 0539

exp_avg f4 [16, 8]
0.0022585234 -0.012694322 -0.0016098529 0.037492864 -0.033449028 0.01968238 -0.0041313637 -0.00012131949
0.033252586 -0.0021489088 -0.0012849836 0.054136362 0.013039775 0.0026869655 0.03271092 0.0024022434
0.013866075 0.04734687 -0.0025362596 -0.0013777596 0.0005624053 -0.00052276766 0.03269026 0.038875453
0.0372965 0.013853113 0.022049608 -0.0240445 -0.043128923 -0.02789632 -0.0030881243 0.0015191456
-0.04262588 -0.015341024 0.01538284 0.0023473948 0.021864787 -0.00082485063 -0.012789867 0.039184157
0.030280113 0.008799818 -0.0036537796 -0.00803941 -0.048993435 0.05747668 0.00023546196 0.02276011
2.1025292e-06 0.008278968 -0.019890454 0.03245779 -0.014958765 0.0017849684 -0.0033264258 -0.021768814
-0.011541851 0.044858653 0.0078032315 -0.003769379 0.047654316 0.00030533507 0.00010220972 0.008939522
-1.42105855e-05 -0.022096455 0.0024652437 0.011258261 -0.0032477719 -0.042928215 0.021054087 0.027146632
-1.5736845e-05 -0.010888192 0.008042303 0.01575035 0.00021923972 0.03947492 -0.021218512 -0.001830211
0.04638442 0.006593398 0.026603444 0.021857396 -0.008601499 0.019787736 -0.0011932203 0.01343937
0.0004449588 -0.010730991 0.02133809 0.024428515 0.025736917 0.014834124 0.019968081 0.035105743
-0.00470678 -0.039915323 0.021260543 -0.010901804 0.046014685 0.011974032 0.010413053 -0.027831055
0.020077389 0.012943521 -0.009663705 0.02056363 0.0094966525 0.0022280375 0.009127086 -0.0055993637
0.009170712 0.0037561343 -0.0035254105 0.005278103 -0.00023448114 -0.030904561 0.021806374 -0.02414065
-0.035224646 0.02518437 -0.0018159242 0.00932252 0.0028262183 -0.0071715643 -0.0017100895 -0.012327761
00000000: bc03 143b d8fb 4fbc b301 d3ba 1e92 193d
00000010: d901 09bd f13c a13c 6460 87bb e86c feb8
00000020: dd33 083d b5d4 0cbb e56c a8ba 17be 5d3d
00000030: c8a4 553c cd17 303b e3fb 053d f56e 1d3b
00000040: 892e 633c cbee 413d 6037 26bb f195 b4ba
00000050: 616e 133a 580a 09ba 39e6 053d de3b 1f3d
00000060: 37c4 183d 2bf8 623c 61a1 b43c f9f8 c4bc
00000070: f4a7 30bd d386 e4bc 2162 4abb 111e c73a
00000080: 7a98 2ebd eb58 7bbc 4f08 7c3c c0d6 193b
00000090: c81d b33c ca3a 58ba 978c 51bc 917f 203d
000000a0: 000e f83c 1d2d 103c 4074 6fbb bbb7 03bc
000000b0: 57ad 48bd ab6c 6b3d 57e6 7639 6973 ba3c
000000c0: 2d19 0d36 82a4 073c 4ef1 a2bc 76f2 043d
000000d0: 9c15 75bc 9af5 e93a 2a00 5abb 8354 b2bc
000000e0: 081a 3dbc b5bd 373d 40b2 ff3b b007 77bb
000000f0: 2c31 433d 6115 a039 6d59 d638 1377 123c
00000100: 006a 6eb7 a003 b5bc ed8f 213b 9274 383c
00000110: 92d8 54bb 7fd5 2fbd 9f79 ac3c 9d62 de3c
00000120: 9e02 84b7 6364 32bc ddc3 033c e106 813c
00000130: b7e3 6539 74b0 213d 72d2 adbc b1e3 efba
00000140: 97fd 3d3d 6e0d d83b 77ef d93c 480e b33c
00000150: 4ded 0cbc e419 a23c d465 9cba ce30 5c3c
00000160: 5c49 e939 0ad1 2fbc 38cd ae3c 4f1e c83c
00000170: 3ad6 d23c d30a 733c 1a94 a33c 0acb 0f3d
00000180: 553b 9abb 407e 23bd 972a ae3c 7b9d 32bc
00000190: e579 3c3d bb2e 443c 839b 2a3c f4fd e3bc
000001a0: 5679 a43c 1011 543c 8454 1ebc 0f75 a83c
000001b0: d997 1b3c 4404 123b c689 153c de7a b7bb
000001c0: c140 163c 7a29 763b 930a 67bb f0f3 ac3b
000001d0: 0ddf 75b9 902b fdbc 48a3 b23c 9dc2 c5bc
000001e0: b847 10bd 744f ce3c 4e04 eeba 7cbd 183c
000001f0: 1338 393b 71ff eabb 1525 e0ba 61fa 49bc

exp_avg_sq f4 [16, 8]
5.6680983e-06 0.00017259581 2.6388412e-05 0.0014167189 0.0011195895 0.0003923303 1.8051636e-05 9.148219e-06
0.0011142192 0.0006384266 0.0036913056 0.011757031 0.00028048214 5.840183e-05 0.0011391959 0.0011054093
0.00019569747 0.0023727966 0.0002380132 0.0005059985 1.08528375e-05 3.0638914e-06 0.0010931562 0.0015183903
0.0013986998 0.0003523074 0.00051240367 0.0008347792 0.0019950436 0.0008224657 1.1583355e-05 8.455171e-05
0.0018280105 0.0002270798 0.00026528226 3.1863878e-05 0.00047399764 9.735475e-07 0.00016634782 0.0015592459
0.00092401786 0.00010002432 0.00014655391 0.00013337476 0.0024332975 0.003324512 1.721473e-06 0.0005382326
1.432681e-10 7.22545e-05 0.00037235368 0.0010605343 0.00022946043 3.6579165e-06 1.22871825e-05 0.0005048546
0.00013692227 0.002178315 0.0006841359 0.0011385909 0.0022158066 3.2812093e-06 1.1180847e-06 0.00017534394
9.508302e-09 0.0005736535 0.00046322454 0.0002964418 1.2265334e-05 0.0018969619 0.0004627932 0.0006706833
2.2312094e-08 0.00021974185 0.00024700197 0.0007686771 1.9778561e-05 0.0015400243 0.00045356582 0.00018898796
0.0021641315 5.109992e-05 0.00092690357 0.0005070678 7.2616465e-05 0.00040168138 1.8173102e-06 0.00024238949
3.3195823e-07 0.00015075422 0.00071662414 0.00076536695 0.00068075967 0.00022739556 0.0004025447 0.0012383218
2.3381086e-05 0.0015586795 0.00051561376 9.650905e-05 0.0021049597 0.00014643403 0.000111052854 0.0008369745
0.00041074632 0.00044988326 0.0023377158 0.0029984205 0.0002202218 2.4289116e-05 9.135295e-05 0.0008673172
8.654156e-05 1.2567262e-05 4.9476057e-05 3.6197234e-05 2.453617e-07 0.0009632076 0.0004839336 0.0006493194
0.0012493238 0.00062138756 0.0003020476 0.00032219072 1.2542871e-05 5.056608e-05 4.0016e-06 0.00014175937
00000000: 9830 be36 d6fa 3439 af5c dd37 33b1 b93a
00000010: 31bf 923a aeb1 cd39 986d 9737 4d7b 1937
00000020: fe0a 923a 155c 273a d5e9 713b 90a0 403c
00000030: ad0d 9339 7df4 7438 1251 953a 62e3 903a
00000040: 2434 4d39 ec80 1b3b 2f93 7939 fca4 043a
00000050: 9514 3637 419d 4d36 3c48 8f3a b904 c73a
00000060: 9454 b73a e6b5 b839 d452 063a 15d5 5a3a
00000070: 47bf 023b bd9a 573a 2256 4237 5b51 b138
00000080: db99 ef3a 451c 6e39 9515 8b39 94a5 0538
00000090: e382 f839 d6aa 8235 a76d 2e39 9c5f cc3a
000000a0: ca39 723a 26c4 d138 44ac 1939 84da 0b39
000000b0: f577 1f3b 0ee0 593b 5d0d e735 2e18 0d3a
000000c0: 6386 1d2f 5787 9738 7738 c339 a001 8b3a
000000d0: 519b 7039 877a 7536 0c25 4e37 3858 043a
000000e0: cb92 0f39 10c2 0e3b 9557 333a c53c 953a
000000f0: 1137 113b bf32 5c36 1911 9635 88dc 3739
00000100: f459 2332 3c61 163a f2dc f239 bf6b 9b39
00000110: 35c7 4d37 7ba3 f83a 0da3 f239 cbd0 2f3a
00000120: d0a8 bf32 816a 6639 0b80 8139 0c81 493a
00000130: 23ea a537 a4da c93a 93cc ed39 122b 4639
00000140: 1ad4 0d3b 1f54 5638 72fb 723a beec 043a
00000150: ab49 9838 c398 d239 4eea f335 ef29 7e39
00000160: fe37 b234 c713 1e39 d5db 3b3a e8a2 483a
00000170: 0275 323a 0871 6e39 a30c d339 2f4f a23a
00000180: 8022 c437 9b4c cc3a 412a 073a e764 ca38
00000190: 5df3 093b 168c 1939 0ce5 e838 6868 5b3a
000001a0: 7059 d739 4fde eb39 5d34 193b 2681 443b
000001b0: 57eb 6639 7bc0 cb37 be94 bf38 ac5c 633a
000001c0: a57d b538 fbd7 5237 8384 4f38 7cd2 1738
000001d0: 41ba 8334 c57f 7c3a 78b8 fd39 1637 2a3a
000001e0: 5ac0 a33a 9de4 223a 255c 9e39 b5eb a839
000001f0: 396f 5237 ea16 5438 7b45 8636 3ea5 1439

exp_avg f4 [16]
-2.8807783e-05 0.0010576744 -0.0002938985 -0.0027687694 -0.00071195094 -0.00016722335 -0.00017605677 0.00033914228
0.00021354544 -0.0017472942 -0.0007157511 -0.0014476625 -0.0003676755 0.010578041 -0.0009969956 0.00048863277
00000000: 3ea8 f1b7 aaa1 8a3a 6416 9ab9 3e74 35bb
00000010: 38a2 3aba ad58 2fb9 e19b 38b9 e8ce b139
00000020: 2beb 5f39 7705 e5ba 3ea1 3bba 7ebf bdba
00000030: 92c4 c0b9 854f 2d3c 9fad 82ba 9717 003a

exp_avg_sq f4 [16]
1.2149491e-06 3.52697e-05 1.4359187e-05 1.5567184e-05 1.1664663e-06 9.801599e-07 5.359323e-07 5.827884e-05
1.33492995e-05 1.5184189e-05 5.557077e-06 3.6580866e-06 1.0939526e-06 0.00011907485 3.8596195e-06 4.8341553e-07
00000000: 5511 a335 8dee 1338 3de8 7037 4696 8237
00000010: 7a8f 9c35 0a8e 8335 fddc 0f35 6e70 7438
00000020: cef6 5f37 98bf 7e37 ee76 ba36 737d 7536
00000030: edd3 9235 d3b7 f938 e181 8136 10c4 0135

exp_avg f4 [4]
0.041635036 0.042566106 0.041580167 0.04314429
00000000: 8089 2a3d cc59 2e3d f74f 2a3d 11b8 303d

exp_avg_sq f4 [4]
0.0017408213 0.001817965 0.0017400878 0.0018557525
00000000: 452c e43a c848 ee3a a813 e43a b93c f33a

exp_avg f4 [4]
0.0019455862 0.008637867 0.00018047226 0.008156305
00000000: 0a03 ff3a d785 0d3c 273d 3d39 06a2 053c

exp_avg_sq f4 [4]
9.083792e-06 0.00011518 2.8931813e-06 6.9826165e-05
00000000: 9766 1837 cb8c f138 7a28 4236 a36f 9238

exp_avg f4 [4]
0.040642552 0.04600262 0.04245281 0.041750934
00000000: ce78 263d 3e6d 3c3d ffe2 2d3d 0703 2b3d

exp_avg_sq f4 [4]
0.0022914223 0.0025281906 0.0019546682 0.0020701848
00000000: b02b 163b 00b0 253b e419 003b f0ab 073b

exp_avg f4 [4]
0.007910292 0.011015667 -0.017861841 -0.011168795
00000000: 2b9a 013c 0e7b 343c ff52 92bc 52fd 36bc

exp_avg_sq f4 [4]
0.00017616128 0.00020053654 0.00042222542 0.00014592509
00000000: efb7 3839 1e47 5239 235e dd39 7803 1939

exp_avg f4 [8]
0.041561313 0.03887801 0.0396691 0.04934681 0.04096739 0.040778007 0.04076525 0.040257312
00000000: 323c 2a3d 8c3e 1f3d 117c 223d e11f 4a3d
00000010: 6ccd 273d d706 273d 76f9 263d dae4 243d

exp_avg_sq f4 [8]
0.001739556 0.0018874631 0.0019555297 0.0020832932 0.001773433 0.001731445 0.0017489975 0.0018695625
00000000: d001 e43a c164 f73a 5828 003b dc87 083b
00000010: 8972 e83a a7f1 e23a 9e3e e53a 1c0c f53a

exp_avg f4 [8]
0.0016732138 0.0013991287 -0.0021499328 -0.00055006915 0.004401094 0.00082062057 0.0018171365 -4.025169e-05
00000000: bd4f db3a f862 b73a e3e5 0cbb 8432 10ba
00000010: 0d37 903b ea1e 573a fc2c ee3a ecd3 28b8

exp_avg_sq f4 [8]
2.0221521e-05 5.48288e-05 1.0026259e-05 5.64553e-06 0.0001093935 2.6360389e-05 2.2344773e-05 1.20154145e-05
00000000: 63a1 a937 faf7 6538 7436 2837 bc6e bd36
00000010: 306a e538 8120 dd37 0971 bb37 d095 4937

exp_avg f4 [4]
-0.14234062 -1.2321279 -1.3319182 0.030420804
00000000: bdc1 11be 5eb6 9dbf 4c7c aabf 0d35 f93c

exp_avg_sq f4 [4]
6.276333 48.771255 456.8527 20.548304
00000000: b8d7 c840 c415 4342 256d e443 ed62 a441

exp_avg f4 [4]
0.05182336 0.04015701 0.042243186 0.040294554
00000000: bb44 543d ad7b 243d 3107 2d3d e70b 253d

exp_avg_sq f4 [4]
0.003984862 0.003070162 0.004127074 0.0018743405
00000000: 7293 823b c534 493b 683c 873b 6eac f53a

exp_avg f4 [4]
-0.0037624475 -0.0010200214 -0.003472525 0.00024915114
00000000: 6593 76bb 3db2 85ba 4d93 63bb 80a0 8239

exp_avg_sq f4 [4]
0.00024587027 0.00045816618 0.0007149344 0.00025685193
00000000: 26e8 8039 0636 f039 6f6a 3b3a 15aa 8639

exp_avg f4 [8, 4]
0.054321717 0.02481022 0.038017277 -0.0036735302 -0.00015193154 0.010746836 -0.0133064585 -0.019994788
0.056251876 -0.038676795 0.009869707 -0.00594595 -0.046492483 0.0052854917 0.01032615 0.015702888
-0.020452533 -0.024091022 -0.09116753 0.024390783 0.016843177 0.04424532 -0.033868507 0.0063667847
0.0031018131 -0.0056307795 -0.0032634002 0.062176753 -0.019424655 -0.00092227507 0.015704514 -0.05451246
00000000: 7380 5e3d cd3e cb3c 01b8 1b3d 9cbf 70bb
00000010: d04f 1fb9 7f13 303c 5503 5abc 1ccc a3bc
00000020: 5e68 663d 8f6b 1ebd 8db4 213c 3ed6 c2bb
00000030: e76e 3ebd eb31 ad3b 032f 293c 58a3 803c
00000040: 128c a7bc 895a c5bc 0bb6 babd 2ecf c73c
00000050: b4fa 893c 953a 353d b4b9 0abd 76a0 d03b
00000060: ca47 4b3b 6782 b8bb c5de 55bb 0dad 7e3d
00000070: 7420 9fbc d5c4 71ba c1a6 803c 7548 5fbd

exp_avg_sq f4 [8, 4]
0.007717715 0.0033575834 0.0035583137 0.0022720578 1.048078e-05 0.00013308687 0.00018782899 0.000418415
0.0033897292 0.0015389597 0.00014904178 0.00019986529 0.0023516098 0.00025194502 0.00018292095 0.0003654345
0.00060733646 0.0006547432 0.00860129 0.0009911018 0.000774941 0.0021415874 0.0012434751 8.67716e-05
0.0009319245 0.00016072551 0.0001037821 0.0037405354 0.0009596979 0.00010274039 0.00065767486 0.0032036079
00000000: e3e4 fc3b e70a 5c3b 9932 693b cee6 143b
00000010: 9bd6 2f37 3c8d 0b39 f6f3 4439 b65e db39
00000020: 3826 5e3b ebb6 c93a 1948 1c39 ee92 5139
00000030: 771d 1a3b 7d17 8439 78ce 3f39 ca97 bf39
00000040: a935 1f3a 13a3 2b3a 6dec 0c3c dce7 813a
00000050: 6925 4b3a e059 0c3b 1afc a23a 26f9 b538
00000060: 654c 743a 6d88 2839 97a5 d938 c523 753b
00000070: 3c94 7b3a 5476 d738 d067 2c3a 9ff3 513b

exp_avg f4 [8]
-0.0032843477 0.0005286866 -0.0032229712 -0.0019478062 -0.00021299563 -0.0014208568 -0.00067459955 -0.0012292934
00000000: 363e 57bb 8f97 0a3a 7c38 53bb 884d ffba
00000010: 9457 5fb9 0b3c baba 9cd7 30ba 3e20 a1ba

exp_avg_sq f4 [8]
0.0007596636 1.4717418e-05 5.5288678e-05 2.992394e-05 4.4781893e-05 0.00013078577 4.7998088e-05 0.00012871354
00000000: 2924 473a d4ea 7637 c4e5 6738 2c05 fb37
00000010: 31d4 3b38 8a23 0939 8e51 4938 47f7 0639
