saved_models/90_polygen_myconvnext_2022_01_21_17_59_58.pt (torch, 132644 bytes, 125 tensors)

connection_layers.0.weight f4 [8, 1]
00000000: 4ed9 f2bf 6aa5 e13f 1fad cfbf 701b 91bf
00000010: 1439 4fbf 7492 bdbf 4ceb 92bf aee7 51bd
-1.8972566 1.7628605 -1.6224707 -1.1336498 -0.8094647 -1.4810319 -1.1478057 -0.051246338

connection_layers.0.bias f4 [8]
00000000: 2778 7c37 ced4 6937 ec3b 9e37 a8a8 cf37
00000010: 2eb1 1d38 b9c6 b937 df80 e737 f988 193a
1.5048346e-05 1.393743e-05 1.8862971e-05 2.475486e-05 3.759673e-05 2.2146256e-05 2.7597356e-05 0.00058568973

connection_layers.1.weight f4 [16, 8]
00000000: b326 2bbe 84b4 b83b e159 693e df92 7c3e
00000010: 0def cbbe ef99 0b3f 0cf9 093e 1d19 a93d
00000020: 0585 de3d 5f31 1a3e 2eed e8bc f3b8 46be
00000030: 00c1 c43b e189 2bbd 3b2c d43e 943e 293d
00000040: 52fd 7fbf f7e4 59be a9db a1be 5eb8 02bd
00000050: e250 233e 77f4 cf3d 45a9 053f 5a04 0f3d
00000060: 37d4 003e c427 743c dac0 3fbe 57a1 09bf
00000070: ee73 023c 6d28 4f3e 956e fc3c a1b4 483f
00000080: 28a9 88be 46de 133a b930 0ebf c433 0ebe
00000090: 7d8e 2d3f 71b6 79bd f770 9d3e 483a b73d
000000a0: 83d5 28bf cb74 67bd 9265 94bf d6a1 403f
000000b0: 56fc cbbc 5da9 293d 0611 643e 1d94 b63d
000000c0: 2f42 bc3e 0c4c e23c c05c 03bf 39a3 953e
000000d0: 5f1d 87ba 4d2a 6cbe e883 eb3e a700 273d
000000e0: 3287 80be 78ee 8f3e b366 e6be 0484 263f
000000f0: 0cca 3fbf 45da b13d 1b1d 013f 40b3 bcbe
00000100: 6267 6c3e f45f afbe b86b 96be 342f 7cbe
00000110: f727 e2be 858a 313f de24 0f3d 09e2 833f
00000120: b74f 9fbe 5bf1 1f3e da5e 393e a570 85be
00000130: 7435 42bb 0f37 463e c301 b4be 89a2 813c
00000140: 622f debd a5e0 00be 233f e23e 76a7 e23c
00000150: 6f09 eebe 4d9a 20bf 18d3 783e 6d0d dcbc
00000160: 05af 7fbe 3aeb ae3d 38a5 eb3e eb5c c13e
00000170: 0dea 1abc 51c8 87be d69e 5b3d 47f3 643e
00000180: ad3d 87be c65b 5e3f 2755 5c3e 9209 dc3d
00000190: d31c 2ebf 97d4 debc 2933 04be f0ab b43e
000001a0: 9c3d 82bd 0fdd 63be ad1b e5bd a592 583e
000001b0: f879 dd39 31f3 35be 303d e6be 9548 02bd
000001c0: 2215 c43e 3d8f 893d 2e5f aebe 9886 da3c
000001d0: cdfa ef3c 1f78 4e3e a001 40bd 9bbe dc3e
000001e0: 1a23 46be 1fcf f7be 179c 123e 2a99 b6be
000001f0: dc55 b33e 5a6d 053f 3759 1cbe b54a 153e
-0.16713981 0.0056367535 0.22788192 0.24665402 -0.3983082 0.5453176 0.1347391 0.08256743
0.10865215 0.15057896 -0.028433409 -0.1940649 0.0060044527 -0.04187954 0.41439995 0.041319445
-0.9999591 -0.2127875 -0.316129 -0.031914108 0.15948823 0.1015405 0.5221141 0.03491626
0.12580954 0.014902059 -0.18725911 -0.5376181 0.00796221 0.20230265 0.030814448 0.7840062
-0.26691556 0.00056407263 -0.55543095 -0.13886935 0.67795545 -0.060965005 0.30750248 0.08946663
-0.65950793 -0.056507867 -1.1593497 0.7524694 -0.024900597 0.041421283 0.22272119 0.08914969
0.36769244 0.027624153 -0.513134 0.29226092 -0.0010308436 -0.23063011 0.45999074 0.040772106
-0.25103146 0.28111625 -0.45000228 0.6504519 -0.74917674 0.0868421 0.50435036 -0.36855507
0.23086312 -0.34252894 -0.29379058 -0.24627382 -0.44171116 0.6935199 0.03494727 1.0303355
-0.31115505 0.15619414 0.18102589 -0.26062503 -0.0029633911 0.1935694 -0.35157594 0.015824573
-0.10848881 -0.12585695 0.44188794 0.027667742 -0.46491572 -0.62735444 0.24299276 -0.02686187
-0.24969108 0.0854096 0.4602449 0.37766203 -0.009455216 -0.26520017 0.053618275 0.22358428
-0.26414242 0.86858785 0.21516858 0.10744013 -0.6801273 -0.02720098 -0.12910141 0.35287428
-0.06359407 -0.22252296 -0.11186919 0.2114969 0.0004224328 -0.17768551 -0.44968557 -0.0318075
0.38297373 0.06716774 -0.3405699 0.026675507 0.029294396 0.2016301 -0.04687655 0.4311417
-0.19349328 -0.48400208 0.14317356 -0.3566373 0.35026443 0.5211998 -0.15268408 0.1457928

connection_layers.1.bias f4 [16]
00000000: 3743 27bc 4932 ae3d 7151 6a3c 9e5f c23c
00000010: ccc4 3338 ceff 0abb 5755 10bd 6192 45bd
00000020: 7753 a13c ef8c 443d 0828 97bc 4431 b6bc
00000030: edb9 983d d3b6 733c b8bb b83c 864e 9a3d
-0.010208896 0.08505685 0.014301644 0.023727234 4.2860207e-05 -0.00212096 -0.035237636 -0.0482353
0.01969312 0.047985967 -0.018451706 -0.022240289 0.074573375 0.014875132 0.022550449 0.075345084

connection_layers.2.weight f4 [32, 16]
00000000: 87cf c53e f52f f33e d576 883a d79c 6dbe
00000010: 48d0 2fbf 1d57 2abd 05be 14bc 2093 d5bd
00000020: 8eff 8dbe 30ae c13c 7dc9 0bbf ca89 1a3c
00000030: 3ec5 da3c 2572 ec3d fdb2 903e b388 dd3e
00000040: b2af 21bd defb b03a e9e4 b1be fa31 2fbe
00000050: 5ab8 c23e 9a6c c6bd 1e42 94be 874a 60be
00000060: ba1a 83be d554 41bd e045 ab3d f19c 873e
00000070: 8684 9fbc b7e0 903e 8d2e 8fbd 6593 f03b
00000080: 6893 303b 431b dd3d 647f 08ba 5032 81bb
00000090: 0579 30ba eaee 17bf b48f a3bd f60a 9b3b
000000a0: b948 bd3e 7320 fb37 a0fe dd3e e620 a53d
000000b0: 9654 833b 7e86 55bc 4435 e43e 54ed 7cbd
000000c0: 7302 003f 4933 5b3c 9696 ac3e 03da 6f3d
000000d0: 6139 fabb 103a 703e f1fc bbbb 12c5 c7be
000000e0: 6ac2 343c cadd ab3e 66d0 e13d 5913 d23d
000000f0: 310c 8f3e 7c98 47bd cd90 dabb bd43 af3e
00000100: 4e1c edbd 80ea b93e a4c0 ba3e 11b7 3d3d
00000110: 79a8 ebbb ee12 56be 9a84 fdba 10f6 2cba
00000120: 8b21 47ba 6b40 903d 251f 8c3d 6727 283c
00000130: 58a5 843a 9356 efbd 48f5 c03e 14e2 333c
00000140: 4d98 0bbe d83a 17bc ac6f bab9 158b 84be
00000150: e003 023d c029 61bd 6ddc bcbe 191f 8d3e
00000160: cb68 e4bd 00c9 33ba f65a cfbc 2cf6 a5bd
00000170: 647f e43d 8944 7fbc 067d 1a3e c206 9f3c
00000180: f6a2 69bc 7c5e 053f 4f7d 31bc 0fa2 ca3e
00000190: 0cde 8dba d364 063f 2523 adbe 5e21 bf3e
000001a0: c2ef 50bc e30b 123e 0984 0dba 922c a03e
000001b0: e16a 283f 5f79 abbe b7ab 5e3e c506 abba
000001c0: 53d8 71be d5e8 cd3c 06d9 bcb9 c440 853e
000001d0: 8c38 093d 0e70 30bf f776 893b e42c 7dbe
000001e0: e961 b43d 84b2 86b9 fb87 c53e 69d6 24bc
000001f0: 3a97 94bb 63cb d63c 36b3 6e3e f237 3abd
00000200: 03e5 283f fe88 0b3c b779 61be 931b 09bc
00000210: f413 cabd 6661 833d 3f4e f6bd 74ea 99be
00000220: e2fe 853e 8291 f83d c272 623b b534 033b
00000230: aa5c 0e3d 9ee9 56be 93ce 02be fa17 c8bc
00000240: 33f0 2ebe 9724 7e3b 4642 d93e 0534 5c3e
00000250: ad23 ed3b b771 bc3e 8fa6 d13e f3c4 3b3f
00000260: db3b 08be 310a 79b8 9f94 a7be c400 65be
00000270: 8c15 26bf 392d ae3c 5174 933e fea2 e4bb
00000280: 177c 3f3d e9dc 20bf 4f26 76be bf4b d33e
00000290: 5653 19be e5dd 763d 0b3a 03be a344 41b9
000002a0: 04f9 a9bb e360 773e f4d1 85be 5408 a6ba
000002b0: 9b70 93bd 00a5 30bd 547a 033f c859 123c
000002c0: 37e6 02be ae44 aa3d 961b aabe f0ce f23d
000002d0: 4407 113c 13bc 8e3e 6b3a 4b3b 4900 89be
000002e0: 67fe 123d 85b0 c8b9 b28a c13b 7ab4 03bb
000002f0: 430d 03bf d8e4 693c d560 903d 1288 e63e
00000300: 1ef8 7b3e 0d07 003e 8a41 e23e 87a2 50b7
00000310: 6e73 0abf 8cdc e1bd a2bd 07be 6784 fd3c
00000320: b66d cf3a cefa cf3d be14 2b3c ce34 efbb
00000330: e9d4 05be 7ef0 203e 220c aabb 9f08 a9bd
00000340: 4219 3cbe 4cd2 6bbe d2ee f43e c5e0 ddbe
00000350: f184 51bd 39ea 12bd eb84 263e 74f0 96be
00000360: 3b82 f73c 079c a439 c566 5dbe 8695 54be
00000370: da53 3e3d 3a42 70bc 1aae c1bd 3dc8 82bd
00000380: 6821 973e c6e0 8bbb fe15 9ab9 877f 8b3e
00000390: b4f7 183c d6cf cdbe eb9c e6bd 46f9 dbbb
000003a0: d412 35bd fa67 9aba 21c7 b9be fcc6 9e3e
000003b0: adbc 093c cad7 2e3e 8398 5d3c 15a4 72be
000003c0: d69e 99bc c6d3 033f 90c6 0abf 9327 a13d
000003d0: b56c 8dbe c0e5 ea3c 5403 38be be72 90bd
000003e0: 62a9 133f f452 72bc afb5 7bba af73 9dbe
000003f0: 1baf b33b 444f 38be c016 c1be be5d c03d
0.38634893 0.47497526 0.0010411391 -0.23204361 -0.68677187 -0.041586984 -0.009078507 -0.104284525
-0.27734035 0.02364263 -0.5460432 0.009432266 0.02670538 0.11545209 0.28261557 0.43268356
-0.039474197 0.0013502797 -0.34744957 -0.17108908 0.38031274 -0.09688683 -0.28956693 -0.2190343
-0.25606328 -0.047200043 0.08362937 0.26486924 -0.019472372 0.28296444 -0.06991301 0.0073417895
0.002694333 0.107962154 -0.0005206971 -0.0039427653 -0.00067319005 -0.5934893 -0.079863936 0.0047315313
0.36969545 2.9936642e-05 0.43358326 0.080629155 0.004007886 -0.013032554 0.44571888 -0.06174977
0.5000374 0.013378927 0.33708638 0.05855752 -0.0076362346 0.23459649 -0.00573694 -0.3901754
0.01103268 0.3356765 0.11026077 0.102575965 0.2793899 -0.048729405 -0.0066700936 0.34231368
-0.11577664 0.36311722 0.36475098 0.046317164 -0.0071917144 -0.20905659 -0.0019341887 -0.00065979455
-0.0007596246 0.07043537 0.06841878 0.0102633005 0.0010120077 -0.116864346 0.37687135 0.010979194
-0.13632317 -0.009230338 -0.00035559887 -0.2588736 0.031741977 -0.054971457 -0.36886922 0.27562788
-0.111528 -0.00068582594 -0.025311928 -0.08103594 0.1115711 -0.015580305 0.15086755 0.019412402
-0.014260044 0.52097297 -0.010833099 0.39576766 -0.0010823621 0.52497596 -0.33815876 0.37330145
-0.012752475 0.14262347 -0.0005398398 0.31284004 0.65788084 -0.33491036 0.21745192 -0.0013048282
-0.23617677 0.025135437 -0.0003601985 0.26025975 0.033501193 -0.6892098 0.00419509 -0.24724156
0.088077374 -0.00025691476 0.38580307 -0.010060885 -0.004534629 0.02622003 0.23310551 -0.04546351
0.65974444 0.008516548 -0.22019087 -0.008368391 -0.09867087 0.06415062 -0.12026643 -0.30061686
0.26171023 0.121371284 0.0034553264 0.002002043 0.03475634 -0.20987555 -0.12774114 -0.024425495
-0.17083816 0.0038779133 0.42433375 0.21504219 0.007236919 0.36805508 0.40947387 0.73347396
-0.13304083 -5.9375718e-05 -0.32730576 -0.22363573 -0.6487663 0.021261798 0.2879968 -0.006977438
0.0467492 -0.6283708 -0.24038051 0.41268727 -0.14973196 0.06027021 -0.1281511 -0.00018431483
-0.0051871557 0.24158053 -0.26136744 -0.0012667277 -0.07199212 -0.043126106 0.5135853 0.008932538
-0.12783132 0.08313881 -0.3322417 0.118558764 0.00885183 0.27877864 0.0031010162 -0.2675803
0.03588715 -0.0003827849 0.0059064263 -0.0020096586 -0.5119211 0.014275752 0.07049719 0.45025688
0.24606368 0.1250269 0.44190627 -1.24356075e-05 -0.5408238 -0.11028394 -0.13255933 0.030946923
0.0015825543 0.10155259 0.010441957 -0.007299996 -0.130695 0.1571674 -0.0051894346 -0.082535975
-0.1836901 -0.2302944 0.47838455 -0.43335548 -0.051152173 -0.035867903 0.16261642 -0.29480326
0.030213466 0.00031396767 -0.21621235 -0.20760164 0.046466686 -0.014664227 -0.09457035 -0.06385849
0.29517674 -0.0042687384 -0.00029389554 0.27245733 0.009336401 -0.4019763 -0.112603985 -0.0067130653
-0.04420741 -0.0011780255 -0.36284736 0.31011188 0.0084068 0.17074504 0.013525131 -0.23695405
-0.018752497 0.51495016 -0.5420923 0.07868876 -0.27622 0.028674006 -0.1797002 -0.07053135
0.5768033 -0.014790285 -0.0009601963 -0.30752322 0.0054835207 -0.17998987 -0.3771267 0.0939288

connection_layers.2.bias f4 [32]
00000000: 291c b23b 5de3 003b 912b aabb de16 f43c
00000010: 7e9d 703c a22b a4bc 04b1 29bc 348d 36bb
00000020: aa00 a5bc 5102 393c 9588 eabc 3ea6 b23c
00000030: 385a 3e3c df69 823b 1f64 833a 4bd9 a7bc
00000040: ded5 cfba 06be 543c f2c3 ba3c d91b 763c
00000050: 91c7 cabc 71d0 11bc 1343 d33b 8ffc de3a
00000060: 1d26 693c 1ca0 44bc 13a9 32bb 4881 d7bb
00000070: 703a e6bb 83f3 c0bb 6d1c dabb 5c06 c13c
0.005435486 0.001966677 -0.005193182 0.02979606 0.014685987 -0.020040337 -0.010357145 -0.002785516
-0.020141918 0.011292056 -0.02862958 0.021807786 0.0116181895 0.003979906 0.0010024345 -0.020489356
-0.0015856584 0.012984758 0.022798512 0.015021288 -0.024753364 -0.008899794 0.006447205 0.0017012524
0.014230278 -0.012001064 -0.002726142 -0.006576691 -0.0070260093 -0.005888404 -0.0066562206 0.023562603

norm_layers.0.weight f4 [8]
00000000: 1354 4e3f 9342 4e3f 0449 4e3f fb55 4e3f
00000010: eb55 4e3f ac4a 4e3f 252e 4e3f 1c55 4e3f
0.8059704 0.80570334 0.80580163 0.80599946 0.8059985 0.8058269 0.8053916 0.80598617

norm_layers.0.bias f4 [8]
00000000: dad9 193d 38c1 c6bd ddea be3d 12f0 b3bb
00000010: 443a fe3b c75b 8b3d 4958 ef3d 2dd3 863c
0.037561275 -0.09704822 0.0932214 -0.005491265 0.0077584106 0.068046145 0.11686761 0.016458118

norm_layers.0.running_mean f4 [8]
00000000: 833b f9bd eea2 e73d 0d20 d5bd 4de4 94bd
00000010: 7a8b 54bd de88 c2bd 2fbf 96bd 6e16 31bb
-0.12169554 0.11310373 -0.10406504 -0.072701074 -0.051890828 -0.094987616 -0.07360684 -0.0027021426

norm_layers.0.running_var f4 [8]
00000000: f44a 5d3e 430d 3f3e 73d5 213e 6804 9e3d
00000010: fc20 213d 18d9 063e f7fc a13d 7d59 2539
0.21610624 0.18657403 0.1580408 0.07715684 0.039338097 0.13168752 0.07909577 0.00015768963

norm_layers.1.weight f4 [8]
00000000: 9143 543f 5b3e 4f3f 9edf 523f b1b3 553f
00000010: 05c5 4e3f 4b8e 503f 0491 533f 85ee 4f3f
0.829156 0.8095452 0.8237246 0.8347731 0.8076938 0.8146712 0.8264315 0.81223327

norm_layers.1.bias f4 [8]
00000000: 30ec 00bd 8f22 193d a566 2b3d 38f9 d4bd
00000010: 44be d23c c2ac 963d 0b0a 57bd 2da0 bf3d
-0.031475246 0.037386473 0.041845936 -0.10399097 0.025725491 0.0735717 -0.052499812 0.09356723

norm_layers.1.running_mean f4 [8]
00000000: 5de7 973b 6100 f539 0e51 baba 5c0c 35bb
00000010: 770f 9338 edfa 2f3a 3cb6 36ba a8bc c9b9
0.004635735 0.00046730324 -0.001421483 -0.0027625775 7.012387e-05 0.0006713111 -0.0006969904 -0.00038478267

norm_layers.1.running_var f4 [8]
00000000: 3e53 7438 f547 7f35 2b99 a836 08e4 1d38
00000010: 1df0 f233 7477 2438 a8e2 af36 fbe3 1837
5.825166e-05 9.5099614e-07 5.0246213e-06 3.7644088e-05 1.13126795e-07 3.9211896e-05 5.2417927e-06 9.112987e-06

norm_layers.2.weight f4 [16]
00000000: acba 4e3f 52a3 4e3f 2685 4e3f d0da 4e3f
00000010: 8bc4 4e3f 21c3 4f3f 9b96 4e3f 53b1 4e3f
00000020: 2b74 4e3f 005a 4e3f 4b8b 4e3f 8e80 4e3f
00000030: b7b0 4e3f abe7 4e3f a3e7 4e3f eeec 4e3f
0.8075359 0.8071796 0.8067192 0.8080263 0.8076865 0.8115712 0.80698556 0.80739325
0.8064601 0.8060608 0.80681294 0.8066491 0.80738395 0.8082225 0.808222 0.80830276

norm_layers.2.bias f4 [16]
00000000: 4cf8 333c d26e 943c 932e b93c 06b7 5839
00000010: e0a7 7dbc d79e 1b3c f35e a43c 8f2c 2bbd
00000020: ae48 0ebc cc8e 2d3c f3d7 95bb 6afa 0d3c
00000030: 8d98 5ebc ab13 153c e2bb 38bb 1261 173c
0.010984492 0.01811925 0.022605216 0.00020667547 -0.015481919 0.00949832 0.020064807 -0.04179054
-0.00868432 0.010593127 -0.0045728623 0.00866566 -0.013586176 0.0090989275 -0.0028188159 0.009239452

norm_layers.2.running_mean f4 [16]
00000000: 27db d0b9 1f8b c438 449e 3e38 1d13 f2b9
00000010: baf6 31b9 8e9b 2dba c4c8 6438 fe62 4cb7
00000020: 0c54 8138 5f09 3e37 0d58 c3b8 06e4 0d39
00000030: 1fb2 4439 e5cb a73a 9097 c838 4e46 bb38
-0.00039836133 9.3719216e-05 4.5446926e-05 -0.00046172077 -0.00016971948 -0.0006622606 5.4546414e-05 -1.2182396e-05
6.166854e-05 1.1327064e-05 -9.314725e-05 0.00013531753 0.00018758372 0.0012801854 9.564974e-05 8.92995e-05

norm_layers.2.running_var f4 [16]
00000000: 65f3 aa34 7ae2 4134 335f 8331 cc86 ef34
00000010: 4d6c d034 235f 0c38 1de1 3834 4d0d 7433
00000020: c39e 2433 fa7a 6d2f 0b23 1834 ba22 3d34
00000030: c904 1134 a893 8f36 18e2 1b34 b005 9934
3.184206e-07 1.8056917e-07 3.8234247e-09 4.4615297e-07 3.8821818e-07 3.3467204e-05 1.7218231e-07 5.6822774e-08
3.832862e-08 2.1598714e-10 1.4168852e-07 1.761463e-07 1.3505918e-07 4.2789216e-06 1.4517752e-07 2.850261e-07

stages.0.0.gamma f4 [8]
00000000: a68d 483c f8b4 dd3a a3a0 7f3b b6cf 283c
00000010: 12d6 0a3a e92e 243c 310f 2a3b be23 de3b
0.012240803 0.0016914895 0.003900566 0.010303428 0.0005296181 0.01002095 0.0025948996 0.006779163

stages.0.0.norm.weight f4 [8]
00000000: a389 503f c264 523f aed0 503f f2f8 523f
00000010: eb10 563f 2acd 513f 5807 543f 2694 4f3f
0.81460017 0.82184994 0.8156842 0.8241111 0.83619565 0.8195368 0.82823706 0.8108543

stages.0.0.norm.bias f4 [8]
00000000: 20e3 203a a057 9b3c dc34 a5bc dc73 7a3c
00000010: ea45 41bd f916 1e3c 3cb4 843d 16ff 2dbd
0.000613736 0.018962681 -0.020166807 0.015286412 -0.047185816 0.009649032 0.064796895 -0.042479597

stages.0.0.norm.running_mean f4 [8]
00000000: 6443 b7bb fd95 dd3c 94c2 413d d28d f7bb
00000010: 62ae 25bc e99e a4bd 47b1 ff3d 0d1d f33c
-0.0055927504 0.027049059 0.047304705 -0.007554748 -0.010112377 -0.08038122 0.12484985 0.029676938

stages.0.0.norm.running_var f4 [8]
00000000: af8e 253f 5140 653e cd15 283f decd 5e3f
00000010: 3b03 923f dd89 ae3f 3b86 863f 60d9 ce3f
0.6467084 0.22387816 0.65658265 0.8703288 1.1407236 1.3635823 1.0509714 1.6160088

stages.0.0.pwconv1.weight f4 [16, 8]
00000000: 1c52 8c3e d3b7 4ebe a9a7 1dbc b38e 313e
00000010: 5d66 a73f c676 34be df43 063f a415 0fbf
00000020: 212d 12be 33f3 493f 1fa4 8bbe 7449 563f
00000030: a692 803d 9207 713c b902 07bf ed92 fdbd
00000040: 94f4 4f3f fe8a 83be b431 2cbc 7bef 1ebf
00000050: 180d bb3e 8da4 afbe f052 143d bf3b c3be
00000060: 859b 07bf e93a 813e 11ec 18be eb49 ecbe
00000070: 663f ae3e a2f6 83be ea05 bfbd dba1 993d
00000080: 6f9b c3bd 6bbc a53a a170 2bbe b45c 393e
00000090: 1e1e 103e 8173 853e afa6 313d 6b7b 95bd
000000a0: e1a7 0e3d e957 65bf 4e76 d4bd 4501 72bd
000000b0: 6e85 6b3d 6467 cebd f463 bb3d 5b0e a73e
000000c0: 2ff7 87be ffb2 bbbe 9248 fa3e 99d3 0fbf
000000d0: b114 c2be 46d6 ae3d 34d8 513d d967 ebbc
000000e0: c0b1 fcbe 7617 c0be 1c79 063e 5a66 3b3c
000000f0: 4efd 13bf 6742 6dbe 3cef 423f 4579 dcbd
00000100: 126e 833d 3d77 3cbe 37f3 e43d cfff fc3c
00000110: 48fe 203f 0d79 b93d 63ca 2c3d 07c2 3c3e
00000120: 9c80 113e ff7c 993d 5572 45bc 1c90 b13e
00000130: bd12 71bf 6e02 13be 963b f83d d035 ffbb
00000140: d7aa 5c3f 4792 5fbe 2b2f 0abe a3ce 8d3e
00000150: f363 b93c f4a7 b5bc 251f 433f f37a bdbe
00000160: 88a9 40bd b130 68be 376b 3bbf c695 eabe
00000170: 5006 8b3d b4eb 713e 2b01 573f 9daf 593f
00000180: 0309 8abc 2a96 a3bb a28d b2be a475 c9be
00000190: 0b6e ed3d d1ea 71be 6a6b 0abc 3019 993e
000001a0: 8042 5a3c 68e1 903e c531 423e 0754 923e
000001b0: 0011 993d f7ea df3e 780a c4be bc6a f53c
000001c0: 4f26 bebd c857 923e ffc2 7b3e da48 08be
000001d0: 709c 713e c023 003f 6b29 40be b79d 54bd
000001e0: aaf9 5bbe 9496 d63e 34de 18be f202 0fbe
000001f0: f4d5 36be 25f3 313f cfc1 cdbb 11f1 c6bc
0.27406394 -0.20187311 -0.009622493 0.17339592 1.3078114 -0.17623433 0.52447313 -0.55892396
-0.14275028 0.7888672 -0.27273652 0.8370583 0.06277971 0.014711278 -0.5273853 -0.123815395
0.8123257 -0.2569198 -0.010509897 -0.6208417 0.36533427 -0.3430523 0.036211908 -0.3813152
-0.5297168 0.25240257 -0.14933802 -0.46150145 0.34032744 -0.25774103 -0.093273 0.075015746
-0.09551131 0.0012644654 -0.16742183 0.1810177 0.14073989 0.26064685 0.043371852 -0.07298931
0.03482807 -0.89587265 -0.10374127 -0.059083242 0.057500295 -0.10078314 0.09149924 0.3262814
-0.26555774 -0.3666 0.48883492 -0.5618225 -0.3790641 0.08536963 0.051231578 -0.028736042
-0.49354362 -0.375179 0.13132137 0.011437977 -0.5780839 -0.23169862 0.7614629 -0.10765318
0.064174786 -0.18404861 0.11179202 0.030883698 0.62888 0.09056292 0.0421852 0.1843339
0.14209217 0.07494544 -0.012051185 0.3468026 -0.9416922 -0.14356396 0.1212074 -0.0077883974
0.8619818 -0.21833144 -0.13494556 0.27696714 0.022630667 -0.022174813 0.762194 -0.37007865
-0.047036678 -0.22674824 -0.7321047 -0.45817393 0.067883134 0.2362507 0.8398616 0.8503359
-0.01685 -0.004992266 -0.34873682 -0.39347565 0.11593255 -0.23624732 -0.008448461 0.2990203
0.013321519 0.2829697 0.18964298 0.28579733 0.074739456 0.4373395 -0.38289237 0.029958121
-0.092846505 0.28582597 0.24586104 -0.1330904 0.23594832 0.5005455 -0.187658 -0.05190822
-0.21481958 0.41911757 -0.14928514 -0.13965967 -0.17855054 0.69511634 -0.0062792073 -0.024284871

stages.0.0.pwconv1.bias f4 [16]
00000000: 4f26 833d 3f11 0ebc 9f0d f7bb d2d5 f1bc
00000010: 1d84 593c ca58 2dbd 7884 c6bc aef9 073d
00000020: de05 31bd 30ce 153d d158 c13c 396f 3a3c
00000030: 772a 7cbb e268 60bd 5d33 873c 5a2b 853d
0.06403791 -0.008671104 -0.0075394656 -0.029520903 0.013276127 -0.042321004 -0.024233088 0.033197097
-0.043218486 0.03657359 0.023601921 0.011379057 -0.003847746 -0.054787524 0.016503984 0.06502409

stages.0.0.pwconv2.weight f4 [8, 16]
00000000: fa3e a93c 591a 2c3e 733e 6b3e b0a5 13bd
00000010: 42a7 3f3e d6c3 3dbd 7748 31be 2906 e83d
00000020: 4719 303f 5653 073f a22f 933e 5d70 81bd
00000030: 8cdd 5dbe 5189 0f3e 18ce 9d3d 4cfd 8fbd
00000040: 22f8 7cbe e6da 2b3e ba53 68bd 8882 153e
00000050: d1f8 9b3e bdc5 803d a788 c4be 9eba e6bc
00000060: 4cee d1ba 8879 953e 34b7 013f 05dd 2a3f
00000070: 1594 053b 677b 7cbd 93fb a53d 51c2 1ebe
00000080: 728d 8d3d 583e cfbe 01eb b7bc 535f a5be
00000090: c806 04bc 854f 4dbe aaec 3fbe 541f 43be
000000a0: da09 67be 0014 acbe 5dc6 25be 2f45 79bd
000000b0: 02c9 513d 68e0 1a3e bee1 c03d a57c b13c
000000c0: 07d7 11bd 185c 683e 9c09 1a3e ed96 02be
000000d0: 0d8b 8dbd 16e8 cdbd 1791 4bbe ae05 52bf
000000e0: 3418 3cbd 6d0e 2fbe 675f 993d 79de a0bd
000000f0: 7183 193e 58c9 93be fc3a 0f3e a95f a3bd
00000100: fe32 af3c 1de0 a53e c065 77bd 3605 62bc
00000110: 34e8 443c 239c 80be bc44 d43e 14bb baba
00000120: ac1d 0dbe 1500 293f eca7 02bf 7744 803e
00000130: 45e8 e53d 1b65 6d3c f147 523e 03fa a0be
00000140: 6537 af3e 6c4b 163e 7462 febd c072 88bc
00000150: 346b 86bb caac afbe 5713 ac3d bec2 90be
00000160: c4fd 3c3e b96f eebc 4cb7 8d3e ea50 453e
00000170: 7d95 4bbd 6e0e e33c 032c 2d3d 6845 4ebf
00000180: 0131 043d 6005 8cbc 0372 2b3f 0372 66bd
00000190: 7326 623e 66dc cabc 80d4 fdbd d035 0b3e
000001a0: 388b b2bc 18d4 5dbe 7f5a 03bf 7b6b 083e
000001b0: 7305 f23d feca 51be ec27 03bf 2615 04bf
000001c0: f7e8 be3c 50d2 83be 5477 e0bd 21b8 043e
000001d0: 4ec2 1bbc 3751 b53e 6ca1 70be 69f9 64be
000001e0: 048f 963d 92d2 1e3e 84e5 bb3d 2f02 7f3e
000001f0: 6fcb 0dbe dd5e d5bd e805 0ebf d02e e03d
0.020659912 0.16806926 0.22973041 -0.036046684 0.18716148 -0.04632934 -0.173128 0.113293
0.6878857 0.52861536 0.28747278 -0.0632026 -0.21666545 0.14017226 0.07705325 -0.070307344
-0.2470403 0.16782722 -0.056720473 0.14600575 0.3046327 0.062877156 -0.38385507 -0.028165158
-0.0016016453 0.29194283 0.5067017 0.667435 0.0020382453 -0.061641123 0.081046246 -0.15503813
0.06911744 -0.40477252 -0.022450926 -0.3229929 -0.008058257 -0.20049866 -0.18742624 -0.1905492
-0.22562352 -0.3360901 -0.16188951 -0.060856994 0.051217087 0.15124667 0.09418057 0.02166588
-0.035605457 0.22691381 0.15042728 -0.12752886 -0.069112875 -0.100540325 -0.19879566 -0.82039917
-0.04592152 -0.17095347 0.074889 -0.07854933 0.14991547 -0.2886455 0.13987345 -0.0797723
0.02138662 0.32397547 -0.06039977 -0.013795188 0.012018252 -0.25119123 0.4145869 -0.0014246427
-0.1378085 0.6601575 -0.5103748 0.25052235 0.112259425 0.014489437 0.20535256 -0.31440744
0.3422195 0.14677209 -0.12421122 -0.01665628 -0.004102135 -0.34311515 0.08402126 -0.28273576
0.18456179 -0.029106008 0.27678907 0.19269148 -0.04970311 0.027716842 0.0422783 -0.80574656
0.032273296 -0.017092407 0.66970843 -0.056261074 0.2208498 -0.024763297 -0.12394047 0.13594747
-0.0217949 -0.21662939 -0.5130996 0.1332225 0.118174456 -0.20487592 -0.5123279 -0.5159477
0.023304446 -0.25746393 -0.1096026 0.12960865 -0.009506775 0.35413525 -0.23499078 -0.22360767
0.07351497 0.15510014 0.09174636 0.24903177 -0.13847135 -0.10418484 -0.5547776 0.10946429

stages.0.0.pwconv2.bias f4 [8]
00000000: c35f 3e37 c3c0 3a36 c5fb 2e37 6450 2237
00000010: 193b 1335 6566 2f37 c7ff 3537 2ceb 2637
1.1347179e-05 2.7828362e-06 1.0429828e-05 9.67467e-06 5.4847766e-07 1.0454653e-05 1.08479935e-05 9.949126e-06

stages.1.0.gamma f4 [16]
00000000: cf3b ff3a 6ce9 cdba 14db 6e39 3374 043b
00000010: 0d53 18bb f844 8e3c cdec a13a 8354 793a
00000020: a1e7 e8b9 0dff 45b8 38ab da3a 71d5 f53a
00000030: 36c5 a23a 9930 163c adea caba 9e73 c23a
0.001947278 -0.0015709824 0.00022779062 0.0020210862 -0.0023242861 0.017366871 0.0012353897 0.00095111894
-0.00044423065 -4.7205995e-05 0.0016683107 0.0018755627 0.0012418393 0.00916686 -0.0015481316 0.0014835482

stages.1.0.norm.weight f4 [16]
00000000: ed21 4f3f f1bf 4f3f 0ee0 4f3f e241 513f
00000010: 923a 523f 3cd2 513f 3a14 4f3f 19af 513f
00000020: 1e7e 4f3f e84d 4f3f 3a64 4f3f 37e8 4e3f
00000030: 657c 503f 82fe 4e3f 36e4 4e3f e749 523f
0.8091114 0.81152254 0.81201255 0.81741154 0.8212062 0.8196142 0.8089024 0.819078
0.81051815 0.8097825 0.8101231 0.8082308 0.8143981 0.808571 0.8081697 0.82144016

stages.1.0.norm.bias f4 [16]
00000000: 097e 2ebc fc6c 0fbc 5382 873b 3f97 503d
00000010: 308e bcbc 5ee1 c7bc d9ae b33c 291a 64bc
00000020: b4b0 363c 8232 6d3d 3620 0e3d 965e 123d
00000030: 8d74 b1bb 0a17 9bbb 068f 27bd b269 183d
-0.010650166 -0.008754011 0.004135409 0.05092549 -0.023017019 -0.024399456 0.02193396 -0.013922253
0.011150528 0.057909496 0.034698687 0.035734735 -0.0054155053 -0.004732971 -0.040907882 0.037210174

stages.1.0.norm.running_mean f4 [16]
00000000: f531 e9bb 0950 343d d19f 21bb 9a77 613b
00000010: 7850 a83b 8aa2 2f3e 5442 babd 5a01 3b3c
00000020: de56 a4bd 9667 f63d d7b5 bd3c c7cb 893c
00000030: 4219 443d c742 f1bb ba14 18bd 27df ad3d
-0.007116551 0.04402164 -0.0024661908 0.0034403563 0.0051365457 0.17151847 -0.09094682 0.011413896
-0.08024381 0.12031476 0.023157997 0.016820801 0.04787565 -0.007362697 -0.03712914 0.084898286

stages.1.0.norm.running_var f4 [16]
00000000: d05a 3f3e 05d4 bd3d 4a6c 833f 5f2f b43e
00000010: fefb b93d 8d5c 413f ab98 a33d 173c 883d
00000020: f1ef 623f f8a8 d33c 5274 643d 8368 1c3e
00000030: 5da9 e43d 2d56 6f3d c4a6 4d3d 8abc 203d
0.18686986 0.09268955 1.0267422 0.3519239 0.09081267 0.75531846 0.079881035 0.06652086
0.8864737 0.025837407 0.055774994 0.15274243 0.11165116 0.058431793 0.05020787 0.039242305

stages.1.0.pwconv1.weight f4 [32, 16]
00000000: 01b4 3fbe ef7e 513d 28eb 333e c06f e03d
00000010: d2df 8fbd 235d 48bd 5d21 d9be f1ce 3fbe
00000020: 8f5c 423c 2da1 76be 009e be3e a356 15bd
00000030: 2378 f6be 1851 0dbe fe12 0dbd a187 a53e
00000040: 6f1d 133d 781f 2fbd 0140 b4bc 0c1f 513e
00000050: c70b cfbe 41b4 f5bc b0e6 943e 0f54 a03e
00000060: c978 883d dd0e 153d bc5a c33d 981e e0be
00000070: b732 abbd 69fa 8fbd 6418 eebc d744 8f3e
00000080: 76ab 66bc c0a6 22bd 2cbb 343e dee0 683e
00000090: 2334 07bc 5913 7f3c a575 4f3e ab6c 563e
000000a0: 3585 75bc f99e 743e 33a9 bc3c b604 1c3e
000000b0: 9f8b dbbd 3310 22bd 3584 d5bd 8df5 7cbe
000000c0: 73c5 053f 1b9f b6bc 2e01 b13e b8ee 2c3d
000000d0: e18a 0b3e bd25 eb3d 3516 f3be e793 003c
000000e0: 52d4 47bd 543b 1e3e 9b26 083f 0951 2bbf
000000f0: 8bda c43e 9dcd 923b 3c24 7d3c f6d6 cbbe
00000100: 35ae a73c 8f00 d63c 018f b8bc 3e3c 16be
00000110: d355 e1bd 1601 57bc 4a8c 30be 2eb1 3a3e
00000120: 554a 99bd 5d66 443e 95fe 5d3c a7c2 963d
00000130: 5880 2e3c aac8 71bc 4b97 57be 0915 4f3d
00000140: 9ed0 a03e 82f3 3abe 6307 0c3f 1cf5 49bd
00000150: 1e95 843e 00e4 793c 5a2e 35bf 6b00 e5bb
00000160: 3787 83bd 51e0 103e d463 c93d 4216 f33e
00000170: dd90 8d3c 7482 823e 969d a6bb 1685 1d3d
00000180: ae2d ecbc 4bd8 abbd ad5f 0cbd 3554 4ebe
00000190: bf89 cfbe 2de6 013d a6ff 073e 926f 043d
000001a0: 82f3 31bd 5fff a9bc 0739 253e 8e06 713d
000001b0: 8024 4dbc 51f1 80be ec17 29be 61f3 e7bc
000001c0: eaae f2bc e9a5 1b3e ddec 243e a475 393e
000001d0: e9c9 87bd 56ff f3bc e8b4 593f e603 db3e
000001e0: 7d9e c03e dcf9 dcbe 74a3 9cbc 1a54 9e3e
000001f0: 3576 013e 3ec6 d7bd 169a 32bc 0cee 013d
00000200: 49b8 913d 9262 1c3d 8912 7e3e 3c62 753c
00000210: 62dd 733c 997a 3fbc 5edc 6d3d edde 473f
00000220: 8339 a8bd 3972 153e 385d f7bb 3748 d23d
00000230: 4bd9 c73d 0841 263e 01fa 71be 284f 713e
00000240: 7242 5cbe f873 5b3d 17a4 96bd 06f7 2ebe
00000250: 36fb 8a3e 16e8 3c3f e3ef 873d ab8d 273e
00000260: fb64 0cbd c7f2 323d f4ad 9d3c 8fdd d03d
00000270: e357 fabd 21ea 2d3c d8d2 783c 680f d7bd
00000280: 23d6 3b3d 2cee 093e eca0 bebd 08cb d33d
00000290: af62 aa3e cfcb fd3e 3be8 7b3e 1e7d 573c
000002a0: 8e36 2f3c 5cad 97be a659 213e 8462 083e
000002b0: b1fc 3fbd 85c9 86bb c01c b43e 08cc 653e
000002c0: 193e 783d 8f15 033d c74b 1bbf 5d98 25ba
000002d0: 76f4 7e3e 850d b7be 0ee0 463d 686b 0f3d
000002e0: 68c7 cbbd 3d32 75be 3f2e 813d 5c92 57bf
000002f0: 6cd2 4f3e 7fe4 74bd 7b71 febc a933 84be
00000300: 9c1a 013c 8613 49bb 937c dfbe 72b6 2cbe
00000310: 79b7 9cbd 6642 bc3e ef65 aebc 94af debb
00000320: f1f2 ffbd 6f2d 383d a5aa ca3e 41a9 a239
00000330: 5414 193c 98df 903e 34c6 2b3c 8f90 eabd
00000340: 27f9 a93e 1554 15be 5d6c 9bbd 9b59 7e3e
00000350: bf8e 613d 595c a4be a998 89bc 7f28 c63d
00000360: e7e4 eb3d 0f0e a3be b14b 3cbc 27d5 4d3d
00000370: b166 a6bc c9a6 8d3e 305f ecbd e96a ac3e
00000380: 2585 b8bc 7a0b 9abe 71fb 98be 485a 7c3d
00000390: 3564 85bd 5f9b f3be a65a 043c d30d e8bd
000003a0: 9733 78be ee7b 08be 9442 0dbe f117 3a3e
000003b0: b1e0 9cbd 1883 463d 0d9c 1d3e f846 143e
000003c0: b03e 493e c296 a6bc cf30 21bd 2aff 183d
000003d0: 9b2d 69bf 6bfb ec3e ff35 9abe 13b4 96ba
000003e0: 13cd 8cbd 2342 8dbe 73bb 0dbe 368e b53c
000003f0: d6c9 753d c09e 913d cdb6 57be 11bc f9bd
-0.1872101 0.051146444 0.17570174 0.109588146 -0.07025112 -0.048916947 -0.42408267 -0.18731286
0.011862888 -0.24084921 0.3722992 -0.036459576 -0.48138532 -0.13800466 -0.03444194 0.3233004
0.035916742 -0.04275462 -0.022003176 0.20422 -0.40438673 -0.029993178 0.2908225 0.31314132
0.06663663 0.036391128 0.095387906 -0.4377334 -0.083592825 -0.07030184 -0.029064365 0.27982208
-0.014078965 -0.039709806 0.17649525 0.2274203 -0.008252176 0.015568578 0.20259722 0.20939891
-0.014985372 0.23888768 0.0230299 0.15236172 -0.1071999 -0.03956623 -0.10425607 -0.24703045
0.5225441 -0.022292664 0.34571213 0.042219847 0.13627197 0.114818074 -0.4747788 0.007847763
-0.04878647 0.1545232 0.5318391 -0.66920525 0.38447985 0.0044800774 0.0154505335 -0.3981244
0.02046881 0.026123313 -0.022529127 -0.14671418 -0.11002698 -0.0131228175 -0.17241016 0.18231651
-0.07484881 0.19179673 0.013549467 0.07361346 0.010650717 -0.014757315 -0.21053807 0.05055717
0.31409162 -0.18256953 0.5469877 -0.04930602 0.25895017 0.015252113 -0.7077385 -0.006988575
-0.064222746 0.1414807 0.09833494 0.4747792 0.01728099 0.25490153 -0.0050847037 0.038457
-0.028830376 -0.08390864 -0.03427093 -0.2014931 -0.4053478 0.031713653 0.13281116 0.032332964
-0.043445118 -0.020751653 0.16135035 0.05884414 -0.012520909 -0.2518411 -0.16513032 -0.028314294
-0.029624421 0.15200008 0.16105981 0.18111283 -0.06630308 -0.02978484 0.85041666 0.42776412
0.37620917 -0.43159378 -0.01912091 0.3092354 0.12642749 -0.105358586 -0.010900995 0.03172116
0.07115228 0.03817994 0.24811758 0.014977034 0.014884325 -0.011686944 0.058071487 0.7807453
-0.082140945 0.14594354 -0.0075489543 0.1026768 0.09758242 0.16235745 -0.23630525 0.23565352
-0.21509722 0.053577393 -0.073555164 -0.1708642 0.27144784 0.73791635 0.06637552 0.16362636
-0.03427599 0.04368856 0.019247986 0.10198509 -0.12223794 0.010614903 0.015186988 -0.105009854
0.045858514 0.13469762 -0.09308037 0.103414595 0.33278415 0.49569556 0.24600308 0.013152389
0.010694159 -0.2962445 0.15756854 0.1331883 -0.046871845 -0.0041133785 0.35178185 0.22441113
0.060606096 0.03200298 -0.606625 -0.00063169544 0.24897942 -0.35752502 0.04855352 0.03501454
-0.09950143 -0.23944946 0.06307649 -0.842077 0.20295113 -0.059788223 -0.031059971 -0.25820664
0.007879879 -0.0030681803 -0.4364973 -0.16866472 -0.07652182 0.36769408 -0.02128884 -0.006795833
-0.12497509 0.044965204 0.39583316 0.00031025152 0.0093432255 0.28295588 0.010484267 -0.114533536
0.331979 -0.14582856 -0.07589028 0.2483887 0.055067774 -0.32101706 -0.016796427 0.09675693
0.11518269 -0.31846663 -0.011492656 0.050252106 -0.020312639 0.2766631 -0.11541593 0.33675316
-0.022524426 -0.3008688 -0.29879335 0.061609536 -0.065132536 -0.47579476 0.008078253 -0.11330762
-0.2423843 -0.13328525 -0.13794929 0.18173195 -0.07660044 0.048464864 0.1539156 0.14480197
0.1965282 -0.020335559 -0.039353188 0.03735272 -0.91085213 0.46285567 -0.3011932 -0.0011497758
-0.06875052 -0.2758952 -0.13841037 0.022162538 0.06000694 0.07110357 -0.21065827 -0.12194074

stages.1.0.pwconv1.bias f4 [32]
00000000: 04ee 933c 09d2 4c3d b271 6f37 b3d9 1e3d
00000010: 3227 1dbc 27ac c93c 7a69 01bd d4bf 71bc
00000020: 28db b53c a057 cf3c 9d79 c73c 7a4a d3bb
00000030: 7dde 923b 4b28 d53c d3a7 313d 6ee0 c93c
00000040: 00c3 1b3d 8bd5 153c 5ad1 043d 9e9a e73c
00000050: 1951 b53c 5c2b 88bc a663 113d a33e 963d
00000060: f4c3 0a3d 008d 773c a75e ae3c cbc6 2a3d
00000070: 6469 663d ee08 dd3c 54b2 113d f8cf ed3c
0.01805783 0.050004993 1.4271982e-05 0.038781833 -0.009591864 0.024618221 -0.03159473 -0.014755208
0.022199228 0.025310338 0.024349982 -0.0064480873 0.004482089 0.02602019 0.04337294 0.02464315
0.038027763 0.009145151 0.032426216 0.02827197 0.022133397 -0.016622238 0.035495423 0.07336166
0.03387828 0.015109301 0.021285368 0.04169349 0.056252852 0.026981797 0.035570458 0.029029831

stages.1.0.pwconv2.weight f4 [16, 32]
00000000: b02c b1be 8121 833d 8307 0e3c c95b fcbd
00000010: 4734 1b3d c8f5 d1bd a4ad af3b 1997 0fbc
00000020: c5b2 a8bc 206f 8a3e 92b8 17be 8260 d2bc
00000030: 280c 1b3b b6a9 d13d 4576 27bd a993 033d
00000040: 1705 01be 9350 183e 78f0 98b7 dd00 2ebd
00000050: 579d d53d b3a0 6b3c d3d1 8f3c 50b1 353e
00000060: a80b f13c fe05 523d b432 633c c10a 2cbd
00000070: c04a 03bf 917e f6bb d71a 54bd 6c69 b73c
00000080: e39c 36be 7b5d a2bc d479 6f3e 694a 1d3c
00000090: 7815 9cba c77c 50bc 203f f0bd 6244 9bbd
000000a0: a73c 7b3e b94b 5d3d 0e9f 3f3e 7340 e9bd
000000b0: 3323 89bd 56dd 82b8 c32e 723c 05be efbd
000000c0: 4ac3 c6bc dc71 95bd daba 03bc c2f4 68bc
000000d0: fb99 7a3d 5b5f 3dbc 76c4 7939 cbfb 1e3c
000000e0: 3142 11be c63e 8a3d 795d 433e 874a 1e3d
000000f0: eb94 bcbe 9923 5439 0294 dfbd 8814 523e
00000100: f378 3cbe 08e1 ed3d ca30 133e d802 733e
00000110: 11fa 0f3e 54fe 18bb 1106 ca3b 0af7 9a3c
00000120: a76b 833b 436f ff3d 341d 27bd 5a89 a33d
00000130: e1cb 07bb 5606 133d c7f1 3abe bbf8 d83d
00000140: 3962 7cbd 2a56 41bd 0b0d 993e afc3 f13d
00000150: d44a d83c b6d5 7abb f22f 41bb ec8c 1fbd
00000160: 067b 48bb 92cf f33c c36c d13d 4284 9bbb
00000170: aec4 f43b 6c75 34be 9bfd 07bc bc90 d33c
00000180: 647e 283d a7fa 9ebd b35a f3ba 4c13 183d
00000190: b4e7 a9bb 3e8d 22bd 57e6 c2bb d300 a63d
000001a0: c89b 64be 9202 9bbd 485b babc e6d5 b53e
000001b0: 9751 2fbd 3602 7cbe 2728 88be d159 a7bd
000001c0: dd6b 99be 6c66 08be d403 1f3d ff97 47be
000001d0: bf26 47bc 5b9c ee3d 9724 b3bd 0ff7 8abd
000001e0: 80a6 023d d63e 163d 8f19 8dbc 7bbd a5bd
000001f0: 4673 2e3d 787f 853b 5868 743d 4880 d03d
00000200: bdfd 3a3c 33db d03c f99e aabc b680 c13b
00000210: 1151 2dbd d7d9 0abd 6678 803d 91c5 f83d
00000220: 8d32 6e3c 088c 02be 97f5 873d e0a4 e6bd
00000230: 1127 973d d434 983b 69cb bd3e d325 033e
00000240: 026b d13b c035 0c3c e012 4e3d 1032 f03c
00000250: 9632 b5bb 3f1e 94bd c153 363c aa4a cebc
00000260: 702e c9bc f45f 91bc 21f8 5fbe d006 a93d
00000270: 6dd7 25bc a46b 3d3c 898e 7cbc 0ba5 c2bd
00000280: d319 8abd e1e0 733e 6aa4 383d 5d7c 993d
00000290: edd4 b63d a5ec 9f3d ed20 9cbd 9b4b 933e
000002a0: 5d4f 84bb 4596 0dbd e403 acbd 6f06 2c3d
000002b0: db0e 33bd e10f f6bd 69c4 42be 8fbe a5bd
000002c0: 7fa8 143e 0994 8ebd f52f db3c b2ca 18be
000002d0: f12e 23be fba2 173d 0767 013e 3310 46be
000002e0: 9095 703d 582a a3bd c251 56be 11cd 8fbe
000002f0: 236e b83b 404b 8fbd 2291 eb3d 189d 463d
00000300: aa82 813c 0a7e 2e3f b2bf 91be 9617 ffbc
00000310: 6686 30b9 5694 e5bd c387 173e 6e7e 373e
00000320: 7ee8 183c dbf8 fc3b bce1 fa3a 7b68 a3bd
00000330: dc40 81bb 68b5 20be 7b3b 143c b2db c4bc
00000340: ce4f 1ebe 33b3 b4bb a259 b83d 904a d2bd
00000350: 4cb1 38be 6ec5 a1bc f490 80bc a488 953c
00000360: 0510 463b 7b2c d13d 2849 4dbd 41cb 54bd
00000370: 94b1 a83c a5c1 55bd 7135 fd3b 823e ad3a
00000380: a01a c3bc f1ff 07be 9c9f 9b3d 8bf6 a3bd
00000390: 046a 4fbc 9999 06be b798 13be bb93 4a3e
000003a0: 4639 20bd 1b26 9b3c 74c7 4f3c 4154 0eba
000003b0: af17 a33b cd4a 1f3b de8e d53c 65d6 82bc
000003c0: 8f0f 643d 5ffd 72bc 4f38 963c aea1 62bc
000003d0: 55c0 203d aeca e7bc 57a7 41bd def8 60bc
000003e0: 2f5e 3abd 27a0 623d 8c29 95bc d128 6cbd
000003f0: f69f afbc 36cd bc3e 2495 303d 6c9d 5ab9
-0.34604406 0.06402875 0.008668783 -0.12322194 0.037891652 -0.10251957 0.0053612757 -0.008764052
-0.020593056 0.27037907 -0.14816502 -0.025680784 0.0023658369 0.10237448 -0.040884275 0.03212324
-0.12599598 0.14874487 -1.8231789e-05 -0.042481292 0.10430401 0.014381575 0.017556107 0.1774342
0.029424503 0.051275246 0.013867069 -0.042002443 -0.51285934 -0.007522412 -0.05178341 0.022389136
-0.17833285 -0.019819966 0.23386317 0.00960026 -0.0011908254 -0.012725062 -0.1173079 -0.07581402
0.24534856 0.054027293 0.18713018 -0.11389246 -0.06696167 -6.24011e-05 0.014781657 -0.11706165
-0.024263043 -0.072971076 -0.008040154 -0.014218511 0.061182003 -0.011558379 0.00023819678 0.009703587
-0.14185406 0.06750254 0.19078626 0.038645294 -0.36832365 0.00020231157 -0.10916902 0.20515645
-0.18405513 0.11615187 0.1437408 0.23731554 0.14060237 -0.002334495 0.006165274 0.018916626
0.004010636 0.12472393 -0.040799335 0.07985182 -0.0020720887 0.035894714 -0.18256293 0.105943166
-0.06161711 -0.047201313 0.29892763 0.11804902 0.026402868 -0.0038274354 -0.002947804 -0.038952753
-0.0030590906 0.029762063 0.10225823 -0.004745991 0.007469735 -0.17622918 -0.00830021 0.02582585
0.04113616 -0.07762652 -0.0018566459 0.037127778 -0.005185092 -0.03968548 -0.005947869 0.08105626
-0.22325051 -0.075688496 -0.022748604 0.35514754 -0.04280242 -0.24610218 -0.26593134 -0.08171428
-0.29965106 -0.13320321 0.03882201 -0.19491576 -0.012155234 0.11650916 -0.08747213 -0.06785404
0.031897068 0.03668102 -0.017224101 -0.08092781 0.042590402 0.0040740333 0.059669822 0.10180718
0.011413035 0.025495147 -0.020827757 0.005905236 -0.04231364 -0.033899155 0.06272964 0.12147058
0.014538419 -0.1274873 0.066386394 -0.11261916 0.07380498 0.0046449695 0.37069252 0.12807398
0.00639093 0.008557737 0.05031097 0.029320747 -0.005529712 -0.072323315 0.011128367 -0.025182087
-0.024558276 -0.01774595 -0.21871997 0.082532525 -0.010122162 0.011561308 -0.015414842 -0.09504136
-0.06743207 0.23816253 0.045078672 0.074944235 0.08927331 0.07808808 -0.076234676 0.2876862
-0.004037781 -0.034567136 -0.083991796 0.041998323 -0.04371534 -0.120147474 -0.19020237 -0.08092987
0.14517401 -0.06961829 0.026756266 -0.14921072 -0.15935875 0.037020665 0.12636958 -0.19342117
0.058736384 -0.07967061 -0.20929626 -0.2808614 0.0056283637 -0.06996775 0.11502291 0.04848966
0.015809376 0.6816107 -0.28466564 -0.031139176 -0.00016834735 -0.112099335 0.14797883 0.17919323
0.009332774 0.0077200956 0.001914076 -0.079789124 -0.0039444994 -0.15694201 0.009047384 -0.02403054
-0.1546013 -0.0055145263 0.09001471 -0.10268128 -0.18036383 -0.019747462 -0.015694119 0.018253632
0.003022195 0.10213562 -0.050118595 -0.05195165 0.020592488 -0.052186627 0.007727318 0.0013217481
-0.023816407 -0.13281228 0.075988024 -0.08006009 -0.012659553 -0.1314453 -0.14413725 0.19782917
-0.03911712 0.018939069 0.012681831 -0.0005429425 0.0049771885 0.002430606 0.026069101 -0.015971372
0.0556789 -0.014830916 0.018337397 -0.013832493 0.039245922 -0.028294887 -0.04727873 -0.01373121
-0.045499977 0.055328514 -0.018208288 -0.057656113 -0.02143858 0.36875314 0.04311098 -0.00020848744

stages.1.0.pwconv2.bias f4 [16]
00000000: f66b a636 31e4 5ab6 64e6 4035 1bd6 8b36
00000010: e26e a8b5 fade ce37 0edb 7d36 c46f 1536
00000020: f408 95b5 3ae1 90b4 2fbb 7036 edaf 0636
00000030: 2e2e 3a36 9c46 a937 99eb 7cb6 1f6c 9736
4.959754e-06 -3.2617356e-06 7.1860836e-07 4.167448e-06 -1.2549247e-06 2.4660945e-05 3.7827444e-06 2.2267786e-06
-1.1103971e-06 -2.6985964e-07 3.5871742e-06 2.0069958e-06 2.774304e-06 2.017925e-05 -3.7688062e-06 4.5127376e-06

stages.2.0.gamma f4 [32]
00000000: 1eff 81bd ef19 113e 2e84 c13d d557 dbbd
00000010: 16ee 183e 689e 8e3d 71a5 933d e3d8 0a3e
00000020: d95e cd3d f15d f8bd 6026 3abd b2ae ff3d
00000030: abc3 9dbd a72d de3d ea9e 1b3e 30d0 d8bd
00000040: 8c7b 203e 3124 a13d d369 043e 7dcb 163e
00000050: c6e5 1e3e 1bf5 da3b b928 1d3e fd53 f6bd
00000060: 2447 04be 731b 45bd 2a17 123e b992 debd
00000070: 4cbe abbd d508 babd 7bff 113e 110d 063e
-0.06347488 0.14170049 0.094490394 -0.10710112 0.14934573 0.06963807 0.0720929 0.13559298
0.100278564 -0.12127293 -0.045446754 0.12484492 -0.07703336 0.10848551 0.1519734 -0.105865836
0.1567213 0.07868231 0.12930994 0.14726062 0.15517339 0.006682051 0.15347566 -0.12027738
-0.12917763 -0.04812188 0.14266649 -0.10867829 -0.083859056 -0.09083716 0.14257614 0.13090922

stages.2.0.norm.weight f4 [32]
00000000: fbff 4d3f 70bf 4e3f 0773 4e3f 5b1c 4f3f
00000010: b771 4e3f 9cab 4e3f aeb2 4e3f e3b7 4e3f
00000020: d4e6 4e3f ab8b 4e3f 5a5d 4e3f ed7e 4e3f
00000030: 9b75 4e3f c2c3 4e3f b957 4e3f e7af 4e3f
00000040: 2db4 4e3f 0c70 4e3f 0a0d 4f3f e151 4f3f
00000050: ff3b 4e3f dd0e 4e3f 14f0 4e3f 7c5e 4e3f
00000060: 8c8d 4e3f 85a5 4e3f fabc 513f 4d55 4f3f
00000070: 905b 4f3f 7d95 4f3f cb43 4f3f b16d 4e3f
0.8046872 0.8076086 0.8064427 0.8090264 0.80642265 0.80730605 0.80741394 0.8074934
0.80820966 0.80681866 0.80611193 0.80662423 0.806482 0.8076745 0.80602604 0.80737156
0.80743676 0.8063972 0.8087927 0.8098431 0.80560297 0.8049143 0.8083508 0.8061292
0.80684733 0.8072131 0.8192898 0.80989534 0.8099909 0.81087476 0.8096282 0.80636126

stages.2.0.norm.bias f4 [32]
00000000: df23 05bc b36a d739 e48f 2b3d 3e1b 293d
00000010: 4814 753b 59c2 fcba a146 edbb d0ea 9dbd
00000020: 370a 913d f57d a53b 3963 54bd 84e7 943c
00000030: 5d76 04bd e0c2 9e3c adc7 d53c ec8b 943c
00000040: 893c 87bd 7cc3 b4ba 0852 95bc f226 5b3d
00000050: 921c adbc 8b79 9cbb 4610 28bd 492d 763c
00000060: cc8b 7ebc b21b 7a3d cce1 95bd 04bf ff3c
00000070: 2f24 943c 95ad 323d 8ab3 d93b 4188 babc
-0.008126228 0.00041087493 0.04188527 0.041285746 0.0037396122 -0.0019283994 -0.0072410856 -0.077108026
0.070820265 0.0050504156 -0.05185244 0.018176802 -0.032339443 0.019380033 0.02609619 0.018133126
-0.06603343 -0.0013791169 -0.018227592 0.053503938 -0.021131787 -0.0047752312 -0.041031145 0.015025445
-0.01553626 0.06106157 -0.07318458 0.031219013 0.01808366 0.043622572 0.006643717 -0.022770049

stages.2.0.norm.running_mean f4 [32]
00000000: 27ce 8e3c 35c5 ee39 5cc8 813b 3ced e9bd
00000010: f5ee e7ba bcea 1cbd 56ed 0fbd 3831 b5ba
00000020: a935 2abc 9a48 d63b 492a 26bb 3be6 fc3b
00000030: 7a46 19bd 4fbe dd3c 917c 253b 5a4b 8d3c
00000040: 0439 793b 483c 02bd dc53 4bbb 87b1 ffbc
00000050: b1c2 1e3c e2c1 3c3c 1d95 0eba 8d35 7a3c
00000060: 1b0a 593c 8060 4a3c bc02 e6bb f027 d8bc
00000070: 82b6 973b 9cde ffbb 8881 833a cd5b 2b3b
0.017432285 0.00045541828 0.0039606523 -0.11422202 -0.0017695116 -0.038309798 -0.03513845 -0.0013823872
-0.01038877 0.0065394165 -0.0025354794 0.0077178753 -0.037420727 0.027068285 0.002525125 0.017247844
0.0038028369 -0.03179577 -0.0031025326 -0.031212581 0.009689973 0.011520835 -0.000543909 0.015271557
0.013247038 0.012352109 -0.007019369 -0.026386231 0.004629911 -0.0078085195 0.001003311 0.0026147247

stages.2.0.norm.running_var f4 [32]
00000000: 8b90 e33c 014c 243b fa65 9c3d dca9 003d
00000010: 4f2d 3f3c ab35 da3b c5c1 273e 6538 1f3d
00000020: 6628 c33c b2bc 473e adb4 963b 6b4c d63c
00000030: ee09 c33c a99c 363c 9292 063e a295 be3b
00000040: ba63 2b3b bb7e 383c 8bb4 6c3b c120 0d3f
00000050: db51 0d3d 5882 563d 792c 8c3c 4ffb 813d
00000060: 02ae 8b3b 0cb4 003c 1bc6 3f3d c92e fd3b
00000070: d75d 393c 13be 473c ec17 873a ccf8 953c
0.027778884 0.0025069716 0.07636638 0.03141199 0.011668517 0.0066592298 0.16382511 0.03887214
0.023822974 0.19505575 0.004599175 0.026159486 0.023808446 0.011145749 0.1314185 0.0058161775
0.002615197 0.011260684 0.0036118354 0.55128103 0.03450189 0.0523704 0.01711105 0.063467614
0.0042626867 0.0078554265 0.046819787 0.0077265245 0.011313877 0.012191313 0.0010306812 0.018307112

stages.2.0.pwconv1.weight f4 [64, 32]
00000000: c606 f93d c853 9cbb 7971 0dbe 6a9c a93e
00000010: d94e c33a beda c9bd 9328 133b c787 db3b
00000020: 56de 613d fec3 8e3d 8dd0 78b9 eede 10bd
00000030: a7bb c4bb bdf4 08bf b3ba 923c 588a 3b3d
00000040: b88c b8ba 666e fcbd d3a5 003b 4b91 be3c
00000050: 2588 eb3e ebd2 06bc 2d4d 41be b6d2 743e
00000060: e5f6 b93a 302a 003c b5eb 9bbc d7bc dc3d
00000070: f83e 233d ecdf 823c 5773 f1bc abcc bbbe
00000080: 3021 303d a6d0 01bc 2d7e fdbc 7fe2 0e3d
00000090: 06ce 0cbc e92d 403c 2500 48bc d5d8 3fba
000000a0: afb4 123e c676 8cbe c0d1 66be a3e4 88bc
000000b0: 2361 d6bd 153c 113c 3052 813d 5cc4 233e
000000c0: 495b 003b d255 e33b 52cf 6cbb ca16 1a3d
000000d0: a8e7 6dbc 67aa 2ebe 1add 17bd 15b5 c1bb
000000e0: 4777 533e 08a3 853c 2cc7 51bd e6f3 4c3d
000000f0: 65a4 593c fea6 d9bc cda0 4ebc 733f b43b
00000100: 1fc9 1bbe 83dd b7bc 7a05 f1bd 7f24 513d
00000110: 0b9c e6bc 9ed5 b63b 95b5 5f3e f1e2 e4be
00000120: dc4f 983e 8c47 823d 8347 533e b576 8bbd
00000130: 0d97 243e 18a7 9e3e 739e 28bc 37a4 5cbd
00000140: 5b5b f13b 6980 653b cc12 e1bd 6066 553b
00000150: c5d8 fc3b 913a 33bc 02a8 31be fc02 94ba
00000160: 7d55 e3b9 0c5d a4bb 73c9 26be 6648 843d
00000170: d9ac c0b8 a853 4bbb 9aae 9cbd 7753 653e
00000180: ec8d b23b e2cb aabe 6d88 013c 8dda 783c
00000190: b4a1 febe bd45 853d 60be 65bd 8bfc 24bb
000001a0: 76b9 e7bd bbcd d4bd f290 6abe a6fb 663c
000001b0: e1b3 58bc d0a6 683c e472 953e 5363 d7bd
000001c0: 3024 783e 6ac4 7d3e 0d26 85bc 69a7 81bd
000001d0: 4072 26bd 541f 6ebc 2673 d43b ef88 653c
000001e0: bce8 cd3b c74e 80bb 0b05 bfbc d5f9 193c
000001f0: d0d8 a63b f556 413d f471 ccbb c813 333b
00000200: 0068 a4bc a412 19bd db1b c53c bc7e 3cbc
00000210: a421 b4bb d573 f63c be0c 66bd c0e9 5a3e
00000220: 5584 6abc 609c babc b649 db3d 9092 de3d
00000230: c01f 2e3c f9eb 763d 2e1e 9d3e 2ae3 01bf
00000240: 0f4c 8ebc d392 44bb 4745 2e3d 8578 9a3d
00000250: 40d1 e7ba 52bf a73d e3f8 483e 1f8d c5bc
00000260: f908 15be 568a 9a3e 1e3b a63a c9b7 c73d
00000270: aa0c a53c f964 6a3e b1e9 90bc b28f 43be
00000280: d699 693b f45a 843c 6b1b 8a3d b950 853e
00000290: dd23 78be b4a7 f13c 754d 843e 1ec5 c1bd
000002a0: 938a 543e c677 b9bc 6e8f a1bb e36a fe3c
000002b0: 9ac2 5fbc bbad f33b cf7a 143c 02ec 733d
000002c0: 7d2e 0e3d 3489 443c 29ce c23d 1fef 873d
000002d0: cd29 f73b 11ac 42bc 9f60 8bb9 4adf d63c
000002e0: 1095 3bbe 30f4 34be fde4 0ebb 2ed6 973b
000002f0: ffed b4bc 7006 13be 24f1 b6bc ef37 e3bd
00000300: dc0a a53c b2c8 a63a 0bcf 863e cc5f 6ebd
00000310: 43c7 23bd 3035 573e 3064 063c 801b b03c
00000320: 1aa8 f13c 94d8 a13b dcdf a9bb 55e0 35bc
00000330: 369c d6bc e6e3 86be a325 7a3c c691 8c3e
00000340: 5f72 55bc 6585 81be ebaa 833e abd5 013d
00000350: 36b7 eb3b 744d c2bc 750d 35be 11a3 5fbc
00000360: 94e7 033c ac68 82bc 71fa 75bc a6b7 173d
00000370: 6032 063e ad95 10be d661 3fbe a2e0 c2bd
00000380: 0d1d 6d3d cdf8 573e ed9b 25bb e687 2f3c
00000390: d9f3 993e 6910 eb3b 2204 1e3e 9211 97bd
000003a0: b5aa 013c 0d88 0fbb cc54 0f3c 1f64 01bb
000003b0: 3ee2 5d3e 9dd5 a2b9 2b3d a33d da71 5d3b
000003c0: 06a2 49bd 0d02 463e 1798 563c ff21 523c
000003d0: b634 113e cb8a 56bc b15f 2aba 7a1a 07be
000003e0: 9b42 1dbe 31b1 183a aa0e 28bc 22ac 353d
000003f0: 5355 1bbe fc71 043d 71e1 febb 95fb 473e
0.12159495 -0.0047707297 -0.13812818 0.33127147 0.0014900818 -0.09856175 0.0022454604 0.0066995355
0.055143677 0.06970976 -0.00023728814 -0.035368852 -0.006003815 -0.5349844 0.01791129 0.04578623
-0.0014080023 -0.12325744 0.001963009 0.02326264 0.46002308 -0.008228998 -0.18877096 0.23908505
0.001418796 0.007822558 -0.019033292 0.10778206 0.039854974 0.015975915 -0.029473944 -0.36679587
0.0430004 -0.007923281 -0.030943954 0.034883972 -0.008594042 0.011729696 -0.012207066 -0.0007318382
0.14326738 -0.27434367 -0.22540951 -0.016710585 -0.10467746 0.008864422 0.06314504 0.15992874
0.001958566 0.006937721 -0.0036134315 0.03761939 -0.014520563 -0.17057191 -0.037076093 -0.0059114792
0.2065097 0.01631309 -0.051215336 0.050037287 0.013283824 -0.026568886 -0.01261158 0.005500728
-0.1521344 -0.022444492 -0.11768623 0.051060196 -0.028150579 0.0055796644 0.21846612 -0.44704393
0.29748428 0.06361303 0.20632748 -0.06809751 0.16073246 0.30986857 -0.0102916835 -0.053867545
0.0073656267 0.0035019165 -0.10989913 0.003256224 0.0077162706 -0.010939256 -0.17349246 -0.0011292393
-0.00043360508 -0.005015975 -0.16287784 0.064591214 -9.187469e-05 -0.0031025205 -0.0765049 0.2239512
0.0054490473 -0.33358675 0.007906062 0.015188825 -0.49732745 0.06507442 -0.05608976 -0.0025174941
-0.11314671 -0.103908025 -0.22906855 0.014098084 -0.01322648 0.014199927 0.29189217 -0.105169915
0.24232554 0.24781957 -0.016253496 -0.06330759 -0.0406363 -0.014533836 0.0064834533 0.014009698
0.0062838476 -0.003915641 -0.023317834 0.0093979435 0.005091764 0.04720207 -0.00623917 0.0027325023
-0.020069122 -0.037371293 0.024061134 -0.011504825 -0.0054971743 0.03008453 -0.056164496 0.21378231
-0.014313777 -0.022779644 0.107074186 0.10867798 0.010627687 0.060283635 0.30687088 -0.5073725
-0.017370252 -0.002999474 0.042546537 0.075425185 -0.0017686263 0.08190788 0.19626193 -0.024115143
-0.14554204 0.30183667 0.0012682413 0.09751851 0.02014764 0.2289008 -0.017689558 -0.19097784
0.0035644672 0.016156651 0.06743511 0.2603815 -0.24232431 0.029498912 0.25840345 -0.09461425
0.20755987 -0.02264012 -0.004930428 0.031056827 -0.0136572365 0.007436482 0.009062483 0.059551246
0.034712303 0.011995602 0.09511978 0.066374056 0.007542825 -0.011881844 -0.00026584134 0.02622952
-0.18318582 -0.17671275 -0.0021803968 0.0046336865 -0.022086142 -0.14357924 -0.022331782 -0.11094653
0.02014678 0.0012724607 0.26329836 -0.058196828 -0.039984953 0.21016383 0.0082025975 0.021497488
0.029499102 0.004939148 -0.005184157 -0.011100848 -0.026197534 -0.26345748 0.015267762 0.27454966
-0.0130277565 -0.25297084 0.25716338 0.03169791 0.0071934713 -0.023718573 -0.17680915 -0.013649718
0.008050818 -0.015919052 -0.015013323 0.037040375 0.13105154 -0.14119597 -0.18689665 -0.095155016
0.057889033 0.21091004 -0.002526994 0.010713553 0.30068853 0.007173587 0.15431264 -0.07376398
0.007914235 -0.002190116 0.0087482445 -0.0019743515 0.21668336 -0.00031058202 0.07970651 0.0033789785
-0.049226783 0.1933672 0.0130977845 0.012825488 0.14180264 -0.013094614 -0.00064992445 -0.13193694
-0.15357439 0.00058247434 -0.010257402 0.04435361 -0.15169267 0.032335266 -0.0077783396 0.19529565

stages.2.0.pwconv1.bias f4 [64]
00000000: 0435 8e3c 0d97 453d 46fb 45bc e681 283c
00000010: 509e fa3c 23c4 4f3c 9d7a 4e3c 75ce bdbb
00000020: ee65 2b3c 1bc5 a83c eb5a 153b 4384 b93c
00000030: 686f c5bb 7ddb e53c ea80 ec3c 9bdf 0abc
00000040: 7e9d c73c 899c e03c 9d5a 77ba dec5 093d
00000050: c869 0e3c b820 a7bb e4e6 b5bc bf28 f33b
00000060: ac7d 663c d64b ad3a 9f88 933c 4188 babc
00000070: 1a4d 5abb 63c4 813a b5cc a6bb 1da9 f53c
00000080: c4d5 a83c 0089 44bc 94b8 853d 90d8 f33c
00000090: 5d26 6b3d f6c6 7abc c0ef e3ba 8dee 07bc
000000a0: 50e6 643d ecb1 d33c ce3d e03c 3b3f 4b3d
000000b0: 1e14 4f3d 437b de3c 72a4 0f3c aa1b fe3c
000000c0: cb42 e1bc d53d 823d fd0b f5bb 0e93 a2bc
000000d0: 4b5b fc3c 35c6 b13c fed8 a93c 21fb fd3b
000000e0: ddc5 e33c 2cb4 20bc 789e 803d 78ae 22bc
000000f0: 7960 5b3d 1c20 1e3d 6049 2cbc b7da e2bb
0.017359264 0.048239756 -0.012083834 0.010284876 0.030593067 0.01268104 0.0126024755 -0.005792434
0.010461314 0.0206018 0.0022789787 0.022646075 -0.0060252436 0.028058762 0.028870065 -0.008476163
0.02436709 0.027418392 -0.00094358047 0.033635966 0.008692212 -0.005100336 -0.022204824 0.007420629
0.014068048 0.0013221453 0.018009482 -0.022770049 -0.0033310116 0.0009900447 -0.005090321 0.029987866
0.020609744 -0.011995554 0.06529346 0.029766351 0.057409633 -0.015306225 -0.0017390177 -0.008296621
0.055883706 0.025841676 0.02737322 0.04962085 0.050556295 0.027158385 0.008767234 0.03101905
-0.02749767 0.0635945 -0.0074782358 -0.019845512 0.03080525 0.021700958 0.020733353 0.007750884
0.02780431 -0.009808581 0.062802255 -0.009929292 0.0535588 0.03860484 -0.010515541 -0.0069230455
