saved_models/94_polygen_myconvnext_2022_01_21_18_35_32.pt (torch, 132644 bytes, 125 tensors)

connection_layers.0.weight f4 [8, 1]
0	0xbfcd255d	-1.6027027
1	0x3fbbf8c6	1.4685295
2	0xbfaa0985	-1.3284155
3	0xbf5755f2	-0.8411552
4	0xbf0536c1	-0.5203667
5	0xbf97f9d1	-1.1873113
6	0xbf5af160	-0.8552456
7	0xbcc0c321	-0.023530545

connection_layers.0.bias f4 [8]
0	0x374cc1e4	1.2204491e-05
1	0x37fc035d	3.0042307e-05
2	0x380b4dbb	3.3212575e-05
3	0x373474ae	1.0756003e-05
4	0x37fee384	3.0385105e-05
5	0x37328bea	1.0642203e-05
6	0x38249db9	3.9247538e-05
7	0x3a389ff9	0.0007042881

connection_layers.1.weight f4 [16, 8]
0	0xbe049eed	-0.1295125
1	0x3b49d04e	0.0030794325
2	0x3d9e4cde	0.07729505
3	0x3e337359	0.1752447
4	0xbdfacaaa	-0.12245686
5	0x3e9bf72f	0.30462024
6	0x3dc3eb1f	0.0956633
7	0x3d9fe68c	0.07807645
8	0x3dd1d3e9	0.10245497
9	0x3de11174	0.10989657
10	0xbc2801c9	-0.010254332
11	0xbe1c4310	-0.15259957
12	0x3add2840	0.0016872957
13	0xbcc67e2f	-0.02423009
14	0x3eac5dcd	0.33665314
15	0x3d3adc4e	0.045620255
16	0xbf39a2a9	-0.72513825
17	0xbddba9b9	-0.107257314
18	0xbe3a3f47	-0.18188201
19	0xbd6843d4	-0.05670531
20	0x3960b2d7	0.00021428928
21	0x3d863d7d	0.06554697
22	0x3ea158ad	0.31512967
23	0x3a0a820a	0.00052836596
24	0x3dd7e93f	0.10542535
25	0x3c878345	0.016542086
26	0xbdde4995	-0.108538784
27	0xbec264ac	-0.37967432
28	0xba6ee47a	-0.0009113025
29	0x3df2fe0a	0.1186486
30	0x3c6f41e7	0.014603115
31	0x3f09163e	0.53549564
32	0xbe7097fb	-0.23495476
33	0xbbe37682	-0.0069416175
34	0xbee2f0c7	-0.44324324
35	0xbdce469e	-0.10072063
36	0x3ec8fddd	0.39256182
37	0xbd1b6ad0	-0.03794366
38	0x3e70b10b	0.23505037
39	0x3d5bee3e	0.053694002
40	0xbf075e79	-0.5287853
41	0xbd11538c	-0.035480067
42	0xbf6de841	-0.92932516
43	0x3f13983b	0.5765416
44	0xb9d2c72a	-0.0004020271
45	0x3d1ad918	0.037804693
46	0x3e20b46c	0.15693825
47	0x3dc2a26a	0.09503634
48	0x3e81df1d	0.25365534
49	0x3d1801f7	0.03711125
50	0xbea848c5	-0.3286802
51	0x3e8534e5	0.26016918
52	0xbb10868f	-0.002205286
53	0xbe2badc8	-0.16765511
54	0x3e9eb0cb	0.30994257
55	0x3d00aca1	0.03141463
56	0xbe269cf4	-0.1627081
57	0x3df52260	0.11969447
58	0xbe9a4f03	-0.30138406
59	0x3ef3a8a5	0.47589603
60	0xbeec67ed	-0.4617304
61	0x3d89b4f1	0.06723965
62	0x3eb045f4	0.3442837
63	0xbe8ba614	-0.27275145
64	0x3e1979a3	0.14987807
65	0xbe095898	-0.13412702
66	0xbdb39c06	-0.087699935
67	0xbe30055a	-0.17189541
68	0xbe25c6e4	-0.16189152
69	0x3ef26045	0.47339073
70	0x3b23f599	0.0025018214
71	0x3f411e4f	0.7543687
72	0xbe7a8c0d	-0.24467488
73	0x3dd3ee0d	0.10348139
74	0x3e25c0fc	0.16186899
75	0xbe4d53d8	-0.20051515
76	0x39890484	0.0002613404
77	0x3e43101a	0.19049111
78	0xbe9c4ca4	-0.30527222
79	0x3c944ae4	0.018102117
80	0xbdb90d48	-0.09035736
81	0xbd954496	-0.07288472
82	0x3e84c1ce	0.2592911
83	0x3cebb518	0.028772876
84	0xbe3c58d0	-0.18393254
85	0xbec1cc37	-0.37851116
86	0x3e1c7952	0.15280655
87	0x3b8d9a23	0.004321353
88	0xbe304d63	-0.1721702
89	0x3d8f781a	0.070053294
90	0x3e9d5c60	0.3073454
91	0x3e90aa58	0.28254962
92	0xb8a069a6	-7.649073e-05
93	0xbe41d926	-0.18930492
94	0x3d33ddb1	0.043912593
95	0x3e4f3e47	0.202386
96	0xbe695958	-0.22787988
97	0x3f1c40b5	0.61036235
98	0x3dd174ca	0.10227354
99	0x3daa51bd	0.083163716
100	0xbeca5e69	-0.39525154
101	0xbd055569	-0.032552157
102	0xbdb8cb74	-0.090231806
103	0x3e6d26ca	0.23159328
104	0xbcc8be09	-0.024504678
105	0xbdd23406	-0.10263829
106	0xbd858cd5	-0.06521002
107	0x3e0db717	0.13839374
108	0xb94aeae7	-0.00019351729
109	0xbde6eaef	-0.11275279
110	0xbe70e856	-0.23526129
111	0xbcc928a0	-0.024555504
112	0x3e6ed1c8	0.23322213
113	0x3c499eb3	0.012305903
114	0xbe53fa30	-0.20700908
115	0x3b8ca172	0.0042917067
116	0x39e8489f	0.00044304595
117	0x3e14b13a	0.14520732
118	0xbca55cac	-0.020185791
119	0x3e8aa31a	0.27077562
120	0xbe0d4835	-0.13797076
121	0xbea0f623	-0.31437787
122	0x3dc944aa	0.0982755
123	0xbe92a333	-0.28640136
124	0x3daff325	0.08591298
125	0x3ed8312c	0.42225015
126	0xbe10a775	-0.1412638
127	0x3dab1f26	0.083555505

connection_layers.1.bias f4 [16]
0	0x3cf11166	0.029427242
1	0x3b6640ae	0.0035133767
2	0x3cff0e1f	0.031134663
3	0x3c9487af	0.018131105
4	0xbd85168a	-0.064984396
5	0x3c678369	0.014130452
6	0x3bd7059c	0.006561948
7	0xbc13093b	-0.008974369
8	0x3b9ec283	0.004844965
9	0x3cdff2ea	0.02733751
10	0x3b6d5dac	0.0036219163
11	0x3ca44236	0.020051103
12	0xbd2b821e	-0.041872136
13	0x3bc5c6c3	0.006035657
14	0xbbd31fbf	-0.0064429934
15	0x3c5d9d66	0.013526296

connection_layers.2.weight f4 [32, 16]
0	0x3de0a2f1	0.109685786
1	0x3e45be1a	0.19310799
2	0x37e66abb	2.7467837e-05
3	0xbaff32a1	-0.0019470045
4	0xbecc8f0f	-0.39952895
5	0xbd13e584	-0.036107555
6	0xba78d2a8	-0.00094918394
7	0x3907f641	0.0001296634
8	0xbcb6dc6c	-0.022321902
9	0xba3f340f	-0.0007293829
10	0xbe85d95d	-0.26142398
11	0x3ad50abd	0.0016253811
12	0xb9021bb8	-0.00012408092
13	0x3b1504d9	0.0022738485
14	0x3cc54274	0.024079539
15	0x3e1c9fef	0.15295385
16	0x3acbb3a3	0.0015541207
17	0xb9b42c88	-0.00034365454
18	0xbda8d2b2	-0.08243312
19	0xbc2b7ab0	-0.010466263
20	0x3e08737c	0.13325304
21	0xbd6731d7	-0.056444015
22	0xbd3bd2c5	-0.045855302
23	0xbb09d1e2	-0.002102964
24	0xbd769d9f	-0.060208913
25	0x3a30f5f4	0.0006750517
26	0x3d095be0	0.033534884
27	0x3d9612c0	0.07327795
28	0xb96a273f	-0.000223306
29	0x3e27767d	0.16353793
30	0x3b5f4aa7	0.0034071596
31	0x3aa2b42a	0.0012413312
32	0x3615df32	2.2332647e-06
33	0x39abaf32	0.00032746192
34	0x39ab7d60	0.00032709073
35	0x39550b7e	0.00020317544
36	0xba18eb06	-0.0005833361
37	0xbe9d84d2	-0.30765396
38	0x3a6d2bd8	0.0009047366
39	0x37c61a3e	2.361566e-05
40	0x3dc11625	0.09428052
41	0xb99362c6	-0.00028111617
42	0x3e1d8568	0.15382922
43	0x3a721c11	0.00092357496
44	0xb9109ff1	-0.00013792493
45	0xbcae8905	-0.02130557
46	0x3e291c55	0.16514714
47	0xbb5d6e2d	-0.0033787594
48	0x3e6231b6	0.22089276
49	0xb9efd8b7	-0.00045747097
50	0x3d867105	0.065645255
51	0x39a6808f	0.0003175777
52	0xb982be7d	-0.00024937457
53	0x3d8f3efd	0.06994436
54	0x3b7944a2	0.0038035293
55	0xbde8209c	-0.11334345
56	0xbb54e8e6	-0.003248745
57	0x3d84bfb8	0.0648188
58	0x3bb027fc	0.0053758603
59	0xbb667eff	-0.003517091
60	0x3cc95a65	0.024579236
61	0x3c87a555	0.016558329
62	0xb97c98a9	-0.00024089463
63	0x3daf5b80	0.08562374
64	0xb8a7c9c9	-8.000766e-05
65	0x3db5c665	0.088757314
66	0x3db92447	0.090401225
67	0xb90f9071	-0.00013691351
68	0xbadf3598	-0.0017029522
69	0xbd36477b	-0.044501763
70	0x39712bda	0.00022999887
71	0xb988c819	-0.00026089026
72	0x3b898be8	0.0041975863
73	0x39482e11	0.00019090647
74	0xbc0002da	-0.00781318
75	0x39ed2de0	0.00045238342
76	0xb9b56980	-0.00034601614
77	0x3b9e8ab5	0.0048383125
78	0x3dcfaed4	0.10140768
79	0x3ad40aea	0.0016177569
80	0xb964f7de	-0.00021836112
81	0xb94bbbf7	-0.00019429611
82	0x3c2f2f66	0.010692453
83	0xbc6d4f15	-0.014484187
84	0xb9d7cf4d	-0.00041162447
85	0xbd015d58	-0.03158316
86	0xbdc20e9b	-0.09475442
87	0x3caa5d2d	0.020796383
88	0x3c6cd604	0.014455322
89	0x3aea0c2d	0.0017856412
90	0xbc9bd8d8	-0.019024298
91	0x3b9432cd	0.0045226575
92	0xb875b2a3	-5.857892e-05
93	0xbc10f024	-0.0088463165
94	0xbb96e8ea	-0.0046054022
95	0xbc30bd78	-0.01078736
96	0x3a210d34	0.000614363
97	0x3e731380	0.23737907
98	0xbaa73393	-0.0012756459
99	0x3df13b94	0.11778942
100	0x3a8a8333	0.0010567665
101	0x3e776b21	0.2416196
102	0xbd88887a	-0.06666656
103	0x3dc89e46	0.09795813
104	0xbb6dae00	-0.0036267042
105	0xba0e8b26	-0.0005437605
106	0x3b87192a	0.004122873
107	0x3d3bd27d	0.045855034
108	0x3ebe0a2e	0.3711714
109	0xbd8fc9cc	-0.070209116
110	0x3b190732	0.0023350236
111	0xb9128b6c	-0.00013975584
112	0xbb22e47c	-0.0024855426
113	0x39d2f7e1	0.00040239005
114	0x3a711e2d	0.0009197917
115	0x3c2810a4	0.010257874
116	0xbaa1e084	-0.0012350236
117	0xbecdce00	-0.40196228
118	0x388b1b8e	6.633169e-05
119	0xbb988006	-0.0046539335
120	0x3b43bf79	0.0029868765
121	0x3a0c149c	0.0005343647
122	0x3dde5cf5	0.10857574
123	0xba96ea55	-0.0011513928
124	0xb5adfdee	-1.2963408e-06
125	0x3aeb46f8	0.0017950227
126	0xb8e93b36	-0.00011121335
127	0x39f96e68	0.0004757524
128	0x3ebed6c2	0.37273222
129	0x3ac51d51	0.0015038644
130	0x3b7fd6a0	0.0039037839
131	0x398163d7	0.00024679184
132	0xbba3f634	-0.005003715
133	0xbbd722f3	-0.0065654456
134	0x3bc36298	0.005962681
135	0xbd183070	-0.03715557
136	0x3cdf1368	0.027230933
137	0xba7631e8	-0.0009391592
138	0xbc92051f	-0.017824708
139	0xbb8887ed	-0.0041665942
140	0xba435210	-0.0007450888
141	0xbd6dc8c3	-0.05805279
142	0xbb90cf38	-0.0044192336
143	0x3b063158	0.0020476189
144	0x39c06ab2	0.00036700588
145	0xb7f1dabe	-2.8831299e-05
146	0x3e1472c7	0.14496909
147	0x38e734ce	0.00011024774
148	0xba10c453	-0.00055224187
149	0x3dc62c4d	0.096764185
150	0x3e060358	0.13087213
151	0x3ee4039c	0.44534004
152	0xbb95a0c2	-0.004566283
153	0xb9f23ab0	-0.00046201563
154	0xbd6d44b0	-0.057926834
155	0xba9f6575	-0.0012160974
156	0xbeb9510f	-0.36194655
157	0x3c6657a7	0.014058984
158	0x3cdf7170	0.02727577
159	0xb9c235f7	-0.0003704277
160	0x3a72365d	0.0009239668
161	0xbeaf5c02	-0.34249884
162	0xbbff0af2	-0.007783287
163	0x3e099a75	0.13437827
164	0x3bb0bddd	0.005393727
165	0x3d1dd0e9	0.03852931
166	0x3afddded	0.0019368507
167	0x3a1e6929	0.0006042892
168	0xbbed89d4	-0.0072490964
169	0x3b84c48f	0.004051752
170	0xbcd16642	-0.025561456
171	0xbab4e98e	-0.0013802515
172	0xb98731ef	-0.0002578641
173	0xbbcad9ae	-0.0061905
174	0x3e6e6425	0.2328039
175	0xbb810794	-0.003937671
176	0x3abfa6aa	0.0014621813
177	0xba6cba5d	-0.0009030456
178	0xbd80b773	-0.0628499
179	0x3a9c7b69	0.0011938635
180	0x3bbdfb4c	0.005797779
181	0x3d81b876	0.06334011
182	0x3b05769a	0.0020364881
183	0xbc5a2735	-0.013315012
184	0xbc0a19d8	-0.008429013
185	0x3a17f8d0	0.0005797269
186	0x3c7bf14e	0.015377356
187	0x3a121f2b	0.00055741024
188	0xbe6a3795	-0.22872765
189	0x3c3c2131	0.011482523
190	0x3ba53d69	0.005042721
191	0x3e2e3c56	0.17015204
192	0x3bc24113	0.0059281676
193	0xb98c4257	-0.00026752308
194	0x3e257054	0.16156131
195	0xba56acfa	-0.00081892277
196	0xbe832cee	-0.25620216
197	0xbd3c2082	-0.04592944
198	0xbb1814f0	-0.002320584
199	0x39b7aa30	0.0003503128
200	0xba43f6c5	-0.0007475431
201	0x399a2c63	0.0002940624
202	0x3a22c030	0.0006208448
203	0x3bde040a	0.006775384
204	0xb9862831	-0.00025588417
205	0xbabf91f4	-0.0014615641
206	0x3b944e51	0.0045259376
207	0xbb810722	-0.003937618
208	0xbb995f79	-0.0046805707
209	0xbc2ebf85	-0.010665779
210	0x3e49db53	0.19712572
211	0xbe2181ff	-0.15772246
212	0xbb022c58	-0.0019862857
213	0xbcf53fd2	-0.029937658
214	0x3c0f9474	0.008763421
215	0xbd0f9156	-0.035050713
216	0xbc12aefb	-0.008952851
217	0x3a24a319	0.0006280407
218	0xbcc8eb24	-0.024526186
219	0xbd2e12a2	-0.04249824
220	0x39fa02d5	0.00047685826
221	0xbcb5c21f	-0.02218729
222	0xbc43c7f7	-0.011949531
223	0xbcd1987d	-0.025585407
224	0x3d020f69	0.031752978
225	0xb9228b0e	-0.00015501326
226	0x3af9cc62	0.0019058103
227	0x3c918b32	0.017766569
228	0xba17502a	-0.0005772138
229	0xbdfdf5a1	-0.124003656
230	0x3b12546b	0.002232815
231	0xb9a709ea	-0.0003186011
232	0x3ba301d8	0.004974585
233	0x3a823a8d	0.0009935662
234	0xbdb69d33	-0.08916702
235	0x3d333ab5	0.04375716
236	0xb9a80317	-0.0003204576
237	0xbb9b4b55	-0.004739205
238	0xbb0a3fe8	-0.002109522
239	0xbbb47926	-0.005507606
240	0x3a0e8ee0	0.000543816
241	0x3e6fab4e	0.23405191
242	0xbe83f0fb	-0.2576979
243	0x391415f9	0.00014122565
244	0xbd1cb978	-0.038262814
245	0x3d1ebbff	0.038753506
246	0x3a82f4f6	0.0009991217
247	0x39a973d4	0.0003232049
248	0x3e95c3b4	0.29250872
249	0xbb01c506	-0.0019801273
250	0x3b973764	0.0046147574
251	0xbd877188	-0.06613451
252	0xb96175b9	-0.00021501527
253	0xbdc5e096	-0.09661977
254	0xbddda84a	-0.10823114
255	0x3ad426a4	0.0016185832

connection_layers.2.bias f4 [32]
0	0x3a43aa05	0.00074639946
1	0xbca93083	-0.020653015
2	0x39233b25	0.00015566924
3	0xbc589615	-0.013219376
4	0x3b84fbe9	0.0040583503
5	0xbbfdfa53	-0.0077507882
6	0x3bb70525	0.00558533
7	0x3aea354e	0.0017868669
8	0xb93feb17	-0.00018302757
9	0x3b5f9d84	0.0034120986
10	0x3bbbc8ef	0.0057307403
11	0x3b19f2e0	0.0023490712
12	0xbb3e44c5	-0.002903269
13	0xbb8002e1	-0.003906593
14	0x3bb1eadf	0.00542961
15	0x3c0c2c48	0.008555479
16	0xbc6a8932	-0.0143149365
17	0xbc427167	-0.011867858
18	0x3ad9a2a2	0.0016604254
19	0xbba53783	-0.005042018
20	0x3c46dc28	0.01213745
21	0x3a3fc15e	0.0007314886
22	0xbc12b65b	-0.00895461
23	0x3c16a1cb	0.009193848
24	0xbb899f61	-0.0041999076
25	0xbc38917d	-0.011265156
26	0x3d07172d	0.032981087
27	0x3aeb8793	0.0017969481
28	0xbc373c93	-0.011183876
29	0xbc9bd7b4	-0.019023754
30	0xba5f788c	-0.0008524738
31	0x3bcf14b8	0.0063196085

norm_layers.0.weight f4 [8]
0	0x3f04597e	0.51699054
1	0x3f04f96d	0.51943094
2	0x3f045a8d	0.5170067
3	0x3f045318	0.5168929
4	0x3f0454f8	0.5169215
5	0x3f048ab3	0.5177414
6	0x3f04d53f	0.5188789
7	0x3f0453b5	0.51690227

norm_layers.0.bias f4 [8]
0	0x3c550b52	0.013003187
1	0xbddf724e	-0.10910474
2	0x3d2007ee	0.039070062
3	0xbcee03e4	-0.02905459
4	0x3d034714	0.032050207
5	0x3dd68239	0.10474057
6	0x3e04a34e	0.12952921
7	0x3c801d2e	0.015638914

norm_layers.0.running_mean f4 [8]
0	0xbdd2e0c1	-0.10296775
1	0x3dc14643	0.094372295
2	0xbdaec8b6	-0.08534376
3	0xbd5d52fb	-0.054034214
4	0xbd08ced6	-0.03340038
5	0xbd9c3281	-0.0762682
6	0xbd60f873	-0.05492444
7	0xba4c90f4	-0.0007803582

norm_layers.0.running_var f4 [8]
0	0x3e1e28fd	0.15445323
1	0x3e04ca03	0.12967686
2	0x3dd95251	0.10611404
3	0x3d2e495e	0.042550437
4	0x3c856ce0	0.016287267
5	0x3dad9c0f	0.084770314
6	0x3d342c76	0.043987714
7	0x380b9084	3.3274773e-05

norm_layers.1.weight f4 [8]
0	0x3f356fb4	0.7087357
1	0x3f180f6e	0.59398544
2	0x3f2f720a	0.68533385
3	0x3f30785a	0.6893364
4	0x3f05aa37	0.5221285
5	0x3f2e3e4b	0.680638
6	0x3f38b6c3	0.7215387
7	0x3f1f3d89	0.6220327

norm_layers.1.bias f4 [8]
0	0xbc833bcb	-0.016019722
1	0xbd075979	-0.033044312
2	0x3c15d62e	0.009145303
3	0xbc8b0104	-0.016968258
4	0xbc25c9cd	-0.010118914
5	0x3c83b894	0.016079225
6	0xbc9f8f20	-0.019477427
7	0x3bec126f	0.007204346

norm_layers.1.running_mean f4 [8]
0	0x3adfcaf5	0.0017074036
1	0x39c28eec	0.0003710905
2	0xbaa2880c	-0.0012400164
3	0xba885a96	-0.0010402973
4	0xb6424311	-2.894729e-06
5	0x39cff188	0.00039662072
6	0xb9b55a8f	-0.00034590482
7	0xb985d849	-0.00025528882

norm_layers.1.running_var f4 [8]
0	0x36edeaed	7.0904994e-06
1	0x35858c19	9.950046e-07
2	0x36355f9e	2.7026758e-06
3	0x36fea89e	7.5894195e-06
4	0x2ffd0f82	4.603145e-10
5	0x36e00adf	6.676986e-06
6	0x359bac3c	1.1598527e-06
7	0x372a2b17	1.0142822e-05

norm_layers.2.weight f4 [16]
0	0x3f0531dc	0.52029204
1	0x3f04ccad	0.5187481
2	0x3f04d452	0.51886475
3	0x3f05e8a5	0.5230811
4	0x3f06ebe1	0.5270367
5	0x3f16e30d	0.589402
6	0x3f04b6a0	0.51841164
7	0x3f04e2db	0.51908654
8	0x3f04a0b6	0.51807725
9	0x3f0458f8	0.51698256
10	0x3f04e071	0.5190497
11	0x3f058c55	0.52167255
12	0x3f05190a	0.5199133
13	0x3f0fb56d	0.5613621
14	0x3f0559c4	0.52090096
15	0x3f081533	0.5315735

norm_layers.2.bias f4 [16]
0	0x3c15d0ca	0.0091440175
1	0x3b9fc83f	0.004876166
2	0x3c6b6cc0	0.01436919
3	0x3c3d080e	0.011537565
4	0xbc3952c7	-0.01131124
5	0x3a299363	0.0006468801
6	0x3c3e0ed2	0.011600213
7	0xb9bba6bf	-0.00035791655
8	0x3bbf8a78	0.005845364
9	0xba8fea54	-0.0010979869
10	0x3bc29281	0.005937875
11	0xba0ea4f8	-0.00054414524
12	0x3b113aaf	0.0022160222
13	0xbcdaec8d	-0.026724124
14	0x38c14cdc	9.217273e-05
15	0xbb54b21f	-0.0032454801

norm_layers.2.running_mean f4 [16]
0	0x38263579	3.9627284e-05
1	0xb7b02e2c	-2.1002335e-05
2	0x38041388	3.1489442e-05
3	0xb6a10039	-4.7982e-06
4	0xb80ad45c	-3.309954e-05
5	0x3a485221	0.00076416327
6	0x38b5cddc	8.669097e-05
7	0xb6c97b18	-6.004597e-06
8	0x38064d6f	3.2020205e-05
9	0xb7c6444c	-2.3635243e-05
10	0xb905dae9	-0.00012765419
11	0x382c17e1	4.1030235e-05
12	0xb68ffffa	-4.2915317e-06
13	0x3b3c98de	0.002877764
14	0x37cbebf3	2.4309358e-05
15	0x376a5c14	1.39689255e-05

norm_layers.2.running_var f4 [16]
0	0x30bdb85f	1.3803961e-09
1	0x30152e52	5.427171e-10
2	0x31d7837a	6.2722707e-09
3	0x30ec33cd	1.7185983e-09
4	0x318f79fc	4.1757158e-09
5	0x3632447d	2.6563932e-06
6	0x31f87e39	7.2321e-09
7	0x2f32c91d	1.6260455e-10
8	0x3343a0f1	4.554835e-08
9	0x30eb0c07	1.7101919e-09
10	0x33508a51	4.8554572e-08
11	0x323c2ffc	1.0953951e-08
12	0x2f7bc16d	2.2897036e-10
13	0x367a16a1	3.7266075e-06
14	0x31e8b983	6.773179e-09
15	0x32ca5c8f	2.3557986e-08

stages.0.0.gamma f4 [8]
0	0x3c2166ca	0.009851167
1	0x3b9244fd	0.0044637905
2	0x3bc7269b	0.0060776
3	0x3c1f04fa	0.009705776
4	0xb8b19d54	-8.469322e-05
5	0x3c0b2222	0.008492025
6	0x3b2bd9b1	0.0026222283
7	0x3c6f3658	0.014600359

stages.0.0.norm.weight f4 [8]
0	0x3f2c4fdb	0.6730935
1	0x3f2e5dd7	0.6811194
2	0x3f20196c	0.6253879
3	0x3f2aa98f	0.66664976
4	0x3f299b65	0.6625274
5	0x3f30ee94	0.6911404
6	0x3f2428d0	0.64124775
7	0x3f263eaa	0.6493937

stages.0.0.norm.bias f4 [8]
0	0x3bfd4a7c	0.0077298265
1	0x3d06a374	0.032870725
2	0xbc9c80f1	-0.019104453
3	0xbadaacfd	-0.0016683635
4	0x3c830f35	0.015998462
5	0x3d45e8ed	0.04831784
6	0x3d52f9a8	0.051507622
7	0xbd3f7259	-0.04673991

stages.0.0.norm.running_mean f4 [8]
0	0xbb2127c1	-0.0024590346
1	0x3cc4be94	0.024016656
2	0x3c491eca	0.012275407
3	0xbcacec03	-0.021108633
4	0x3d004ebe	0.031325094
5	0xbddfb5d2	-0.10923351
6	0x3de382e4	0.1110895
7	0x3cbc1791	0.022960456

stages.0.0.norm.running_var f4 [8]
0	0x3e2728d3	0.16324167
1	0x3d8485ec	0.06470856
2	0x3e16463b	0.14675228
3	0x3e3eb60a	0.1862413
4	0x3e9236d9	0.2855747
5	0x3eadfb0c	0.33980596
6	0x3e791630	0.2432487
7	0x3e964013	0.2934576

stages.0.0.pwconv1.weight f4 [16, 8]
0	0x3e14eb7e	0.14542958
1	0xbdfe83fb	-0.12427517
2	0xbb819e55	-0.003955642
3	0x3daf12d0	0.0854851
4	0x3f837d74	1.027266
5	0xbdd96225	-0.10614423
6	0x3e9d3588	0.30704904
7	0xbebd4090	-0.3696332
8	0xbdb4a606	-0.08820729
9	0x3f1238fd	0.5711821
10	0xbe42e65b	-0.19033186
11	0x3f1ef21d	0.62088186
12	0x3d896158	0.0670802
13	0x3d28ae7f	0.041182037
14	0xbebfb596	-0.37443227
15	0xbcbe7b48	-0.023252144
16	0x3f280709	0.65635735
17	0xbe35e18c	-0.1776182
18	0xbd1c7e42	-0.038206346
19	0xbef4749e	-0.47745222
20	0x3e7752b8	0.24152648
21	0xbe78205f	-0.24231099
22	0x3ca3ad15	0.019979993
23	0xbe8862d6	-0.26637906
24	0xbebe314d	-0.3714699
25	0x3e3f4347	0.18678008
26	0xbda6275f	-0.08112978
27	0xbeabf013	-0.335816
28	0x3e4ec2a7	0.20191441
29	0xbe3c9d90	-0.1841948
30	0xbd3513fe	-0.04420852
31	0x3d63e46f	0.055637773
32	0xbd7623ce	-0.06009274
33	0xbc2a12b8	-0.010380439
34	0xbd95f564	-0.07322195
35	0x3d84f624	0.0649226
36	0x3d80e97a	0.06294532
37	0x3e14009e	0.1445336
38	0xbb6935a6	-0.0035584955
39	0xbc9c7df9	-0.019103037
40	0x3c322229	0.010872402
41	0xbf3bce44	-0.7336161
42	0xbcb0b456	-0.021570366
43	0xbd0ebd5d	-0.03484856
44	0x3cfb3215	0.03066353
45	0xbd9baa14	-0.07600799
46	0x3cf6ecf8	0.030142292
47	0x3e794295	0.24341805
48	0xbe38f296	-0.18061289
49	0xbe78c83b	-0.24295132
50	0x3ea3e86e	0.32013267
51	0xbee571a1	-0.44813254
52	0xbe901f37	-0.28148815
53	0x3d97b137	0.07406848
54	0x3d50e568	0.05100003
55	0xbc9ce400	-0.019151688
56	0xbec19fe4	-0.378173
57	0xbea0809e	-0.31348127
58	0x3dee457e	0.11634348
59	0x3cd6a6ec	0.026202641
60	0xbed6e1b5	-0.41969076
61	0xbe0a88fe	-0.13528821
62	0x3f0cca86	0.54996526
63	0xbdafd147	-0.08584838
64	0x3d0970e8	0.03355494
65	0xbde1f290	-0.11032593
66	0x3daa5332	0.083166495
67	0x3d24e735	0.04025956
68	0x3ee73acf	0.45162055
69	0x3d9149b2	0.070941344
70	0x3ca62da2	0.020285431
71	0x3e10b2ab	0.14130656
72	0x3df6dbec	0.120536655
73	0x3d7a03b6	0.061038695
74	0xbcf1dd10	-0.029524356
75	0x3e863409	0.26211575
76	0xbf3c8727	-0.73643726
77	0xbe02a3ad	-0.1275775
78	0x3dea1c71	0.11431206
79	0x3d2d1eab	0.042265575
80	0x3f2460da	0.64210284
81	0xbe15302b	-0.14569156
82	0xbd9dad9d	-0.0769913
83	0x3e332934	0.17496186
84	0xbb757aa6	-0.0037457137
85	0xbcb10239	-0.021607505
86	0x3f003a4d	0.5008896
87	0xbe749eee	-0.23888752
88	0x3b8081b9	0.003921714
89	0xbe15e646	-0.14638624
90	0xbf0d326e	-0.55155075
91	0xbea46e03	-0.32115182
92	0x3dc504bb	0.09620043
93	0x3e21e85d	0.15811296
94	0x3f205e42	0.62643826
95	0x3f2379db	0.6385781
96	0xbaf5361e	-0.0018708145
97	0xbca017b3	-0.01954255
98	0xbe51e279	-0.20496549
99	0xbe78fe59	-0.24315776
100	0x3cda1d93	0.02662543
101	0xbda0a2f7	-0.07843583
102	0xbb488b3c	-0.0030600568
103	0x3dfa3e4d	0.12218914
104	0xbc21d53d	-0.0098775
105	0x3e2f2495	0.17103799
106	0x3e11391b	0.1418194
107	0x3e3894fc	0.18025583
108	0x3d8658a8	0.065598786
109	0x3eb237aa	0.34808093
110	0xbe929b0b	-0.28633913
111	0xba8423b8	-0.0010081446
112	0xbd7afa5b	-0.061273914
113	0x3e6a51ab	0.22882716
114	0x3e24d93a	0.1609849
115	0xbdc88c40	-0.097923756
116	0x3e31464a	0.1731197
117	0x3ec7d82a	0.39032108
118	0xbe1be9bf	-0.15225886
119	0xbd202752	-0.0391
120	0xbe35ee69	-0.17766728
121	0x3ea4d250	0.32191706
122	0xbdbd9de2	-0.092586294
123	0xbdabf6b5	-0.08396665
124	0xbe201d14	-0.15636092
125	0x3f0277ea	0.50964224
126	0x3c194b83	0.009356382
127	0x3c9938a4	0.018703766

stages.0.0.pwconv1.bias f4 [16]
0	0x3d4b3e14	0.04961975
1	0xbc2fab70	-0.010722026
2	0xbb23f171	-0.0025015736
3	0xbba130f3	-0.0049191653
4	0x3c0a53f0	0.008442864
5	0xbccda2d4	-0.025102057
6	0xbd2145b6	-0.039373122
7	0x3c35d909	0.0110991085
8	0xbc6ef7e7	-0.014585472
9	0xbc3db28f	-0.011578216
10	0x3d0adb0a	0.0339003
11	0xbbb12c3d	-0.005406885
12	0xbbd982e0	-0.006637916
13	0xbd8c86a9	-0.06861622
14	0x3d2eeef0	0.042708337
15	0x3de99dad	0.114070274

stages.0.0.pwconv2.weight f4 [8, 16]
0	0xba36f7a8	-0.00069796527
1	0x3e0acb6e	0.13554165
2	0x3e4e023d	0.20118041
3	0xbbf242f7	-0.0073932367
4	0x3dab88c5	0.08375696
5	0xbd4019f9	-0.04689977
6	0xbe2d00a5	-0.16894777
7	0x3db5d25a	0.08878012
8	0x3eef89bf	0.4678478
9	0x3ed84e99	0.42247465
10	0x3e566864	0.2093826
11	0xbd5132bf	-0.051073786
12	0xbe0cbfbe	-0.13745019
13	0x3dc28474	0.0949792
14	0x3d98cde5	0.07461146
15	0xbd41776d	-0.047233034
16	0xbe38c59f	-0.18044136
17	0x3da38b25	0.07985524
18	0xbca9f087	-0.020744575
19	0x3dbccaa5	0.09218339
20	0x3dac9163	0.08426168
21	0x3d0b02dd	0.033938278
22	0xbe8f88c8	-0.28034043
23	0xbca4cda8	-0.020117596
24	0xbcee2932	-0.029072378
25	0x3e39b694	0.18136054
26	0x3eb35522	0.3502589
27	0x3edf2334	0.43581545
28	0x3afaad13	0.0019125066
29	0xbd2bf5fc	-0.041982636
30	0x3cff2d6e	0.031149592
31	0xbdcbfe63	-0.0996063
32	0xbc48cc74	-0.012255777
33	0xbeb0930d	-0.3448719
34	0xbcbac2da	-0.02279799
35	0xbe894b15	-0.26815096
36	0xbcb8fcba	-0.022581447
37	0xbe33365d	-0.17501207
38	0xbe2c40b2	-0.16821554
39	0xbe20a5dc	-0.1568827
40	0xbdf3f841	-0.11912585
41	0xbe873ffb	-0.26416
42	0xbe063ca0	-0.13109064
43	0xbd488059	-0.048950527
44	0x3d32e488	0.043674976
45	0x3dbc46e5	0.091932096
46	0x3d733399	0.05937538
47	0x3c087de1	0.008330793
48	0xbc96e64e	-0.018420365
49	0x3e2c552c	0.16829365
50	0x3e0fd78b	0.14047067
51	0xbdb36242	-0.087589756
52	0xbd1718f7	-0.036889043
53	0xbd921771	-0.07133377
54	0xbe275633	-0.16341476
55	0xbf229d64	-0.6352141
56	0xbd3d8f6c	-0.046279356
57	0xbe14688f	-0.14493011
58	0x3d99b1cc	0.07504615
59	0xbd9bb180	-0.07602215
60	0x3dbf5120	0.09341645
61	0xbe8b21cb	-0.2717422
62	0x3dab89a3	0.083758615
63	0xbdaccd9f	-0.084376566
64	0x3bb25d5e	0.005443259
65	0x3db93daa	0.090449646
66	0xbbf116d7	-0.007357459
67	0xb969656e	-0.00022258397
68	0xb96d85b4	-0.0002265189
69	0xbd473b35	-0.04864045
70	0x3e44f738	0.19234931
71	0xbabdabed	-0.0014470794
72	0x39b953a0	0.00035348255
73	0x3ec0e508	0.37674737
74	0xbe725292	-0.2366431
75	0x3d0a6cca	0.033795156
76	0x398b6251	0.00026585397
77	0x3b3a4ece	0.002842832
78	0x3cbf5ece	0.023360636
79	0xbdcb91e1	-0.099399336
80	0x3e89c280	0.26906204
81	0x3ddedf23	0.10882404
82	0xbdd46b9d	-0.10372088
83	0xbc8be584	-0.017077215
84	0x3ba5d55b	0.0050608343
85	0xbe77dbb1	-0.242049
86	0x3db4c473	0.08826532
87	0xbe339ffa	-0.17541495
88	0x3dd78d36	0.10524981
89	0xbc78f9bd	-0.015196261
90	0x3e73697d	0.2377071
91	0x3e1ec8f5	0.15506347
92	0xbd5f71ae	-0.054551773
93	0x3d34d075	0.044144113
94	0x3d7414fc	0.059590325
95	0xbf235cf9	-0.6381374
96	0x3cd2386f	0.025661675
97	0x39b25d2f	0.00034020233
98	0x3f04b7bf	0.51842874
99	0x3be1adb7	0.0068871635
100	0x3d8128a6	0.06306581
101	0xbd17c279	-0.037050698
102	0xbdae868c	-0.085217565
103	0x3d6bf8c8	0.057610303
104	0x3b7e107d	0.0038767152
105	0xbe0c6eb1	-0.137141
106	0xbebab083	-0.36462793
107	0x3d9641fe	0.07336806
108	0x3d07a6ae	0.033117943
109	0xbe0a53ad	-0.13508482
110	0xbeb4343b	-0.351961
111	0xbecd85d7	-0.40141174
112	0x3ce433b8	0.027856693
113	0xbe5a1091	-0.21295382
114	0xbde50c22	-0.11183955
115	0x3ddf37e6	0.10899334
116	0x3abf18c1	0.0014579521
117	0x3e933c89	0.28757122
118	0xbe430919	-0.19046439
119	0xbe31402a	-0.17309633
120	0x3d2d0b40	0.042247057
121	0x3e036859	0.12832774
122	0x3d9da696	0.07697789
123	0x3e5f3f20	0.21801424
124	0xbddff249	-0.10934884
125	0xbda994c2	-0.082803264
126	0xbed07852	-0.40716797
127	0x3dc0a315	0.094061054

stages.0.0.pwconv2.bias f4 [8]
0	0x372acbff	1.0180286e-05
1	0x37a1948c	1.9261868e-05
2	0xb81ee22a	-3.7880767e-05
3	0x3814dd03	3.5491783e-05
4	0xb3010066	-3.0035515e-08
5	0x37a06355	1.9119741e-05
6	0xb7a2c8d1	-1.9405417e-05
7	0x389d5058	7.5013086e-05

stages.1.0.gamma f4 [16]
0	0xba5b9926	-0.0008377008
1	0x3aa7a51a	0.0012790293
2	0x3b2f8901	0.0026784542
3	0x3a52a402	0.00080353033
4	0xba959c60	-0.0011414401
5	0x3c8e698b	0.017384311
6	0x3b067a3e	0.002051964
7	0xb9e1808f	-0.00043011128
8	0xbb6b6079	-0.0035915656
9	0x3a46d8ac	0.0007585387
10	0x3be056e2	0.0068462947
11	0x3b46f3fa	0.0030357824
12	0xb990ba57	-0.00027604654
13	0x3d060038	0.032715052
14	0xbb1aa556	-0.0023597083
15	0x3b115776	0.0022177375

stages.1.0.norm.weight f4 [16]
0	0x3f2031ac	0.62575793
1	0x3f17e1b2	0.5932876
2	0x3f25c470	0.64752865
3	0x3f25e7d3	0.6480686
4	0x3f2cccf4	0.67500234
5	0x3f28d982	0.6595689
6	0x3f1763ca	0.5913664
7	0x3f13c7dd	0.5772684
8	0x3f254d3b	0.6457097
9	0x3f2b0c80	0.6681595
10	0x3f135624	0.57553315
11	0x3f27cb76	0.6554483
12	0x3f228e97	0.63498825
13	0x3f1281f2	0.5722953
14	0x3f176d3a	0.5915104
15	0x3f2ce0a9	0.67530304

stages.1.0.norm.bias f4 [16]
0	0xbbb864a1	-0.0056272303
1	0x3c90f604	0.017695434
2	0x3c49ee94	0.012324948
3	0x3cb08689	0.021548526
4	0xbcfbd17c	-0.030739538
5	0x3c2e6be3	0.010645839
6	0xbaebdff6	-0.0017995823
7	0xbcbf252e	-0.023333158
8	0xbc25ad2a	-0.010112086
9	0x3d124da0	0.03571856
10	0x3cfc8fb7	0.030830247
11	0x3cb8a30d	0.022538686
12	0x3c3a8c18	0.01138594
13	0x3b0f431a	0.0021860064
14	0xbd83cbac	-0.06435332
15	0x3d0aa657	0.03385004

stages.1.0.norm.running_mean f4 [16]
0	0x3ac53861	0.001504671
1	0xba3bab0b	-0.0007158971
2	0x3d1f41e5	0.0388812
3	0x3a995266	0.001169753
4	0xbd573a84	-0.05254604
5	0xbb605d40	-0.0034235269
6	0xbbb42948	-0.005498085
7	0x3a99018f	0.0011673438
8	0xbbc4c9dc	-0.006005509
9	0x3cfac7b1	0.030612798
10	0x39ea19bd	0.00044651135
11	0xbbb293b2	-0.0054497356
12	0xbc914026	-0.017730784
13	0x3b3f2598	0.0029166695
14	0x3a14fd62	0.0005683509
15	0x3c9cbaf3	0.019132113

stages.1.0.norm.running_var f4 [16]
0	0x3c67d9ce	0.01415105
1	0x3bf3879b	0.007431937
2	0x3d8e2dc5	0.069423236
3	0x3ccf07ca	0.025272269
4	0x3c17a5f8	0.009255879
5	0x3d9d7bcb	0.07689627
6	0x3c006d7c	0.007838603
7	0x3b97a01c	0.004627241
8	0x3dad2b41	0.08455516
9	0x3b9d331f	0.004797354
10	0x3b7629d4	0.0037561553
11	0x3c9ca5a2	0.019121949
12	0x3c4f8c63	0.012667748
13	0x3ae3296a	0.0017331068
14	0x3b880544	0.0041510183
15	0x3bb9b071	0.0056667854

stages.1.0.pwconv1.weight f4 [32, 16]
0	0xbd9131d4	-0.07089582
1	0x3d2513f3	0.04030223
2	0x3da8d2e8	0.08243352
3	0x3d84e2db	0.06488582
4	0xbcce7cc5	-0.02520598
5	0xbd365758	-0.04451689
6	0xbe82f243	-0.25575456
7	0xbda42a2c	-0.08015856
8	0x3b735fee	0.0037136036
9	0xbdc90144	-0.098146945
10	0x3e6b6bb1	0.229903
11	0xbcc310cb	-0.023811718
12	0xbe93ec6c	-0.28891313
13	0xbdb600d1	-0.088868745
14	0xbc9187d9	-0.017764973
15	0x3e261b58	0.16221368
16	0x3d548d66	0.05189266
17	0xbc86b286	-0.016442548
18	0x3bf2d2a0	0.0074103624
19	0x3dac72c6	0.08420329
20	0xbe57662f	-0.21035074
21	0xbcb3e0ad	-0.02195772
22	0x3e086c9d	0.13322683
23	0x3e29287d	0.16519351
24	0x3cf49d87	0.029860271
25	0x3d305aa5	0.043055195
26	0x3d5cc422	0.053897984
27	0xbe3fc50d	-0.18727513
28	0xbc6a5708	-0.014302976
29	0xbd3c2b1e	-0.045939557
30	0xbd5e8ddd	-0.05433451
31	0x3dea58cf	0.1144272
32	0xbc4e4089	-0.012588629
33	0xbd0c9cd2	-0.034329243
34	0x3c978a2b	0.0184985
35	0x3dd0a396	0.101874515
36	0xba3fd378	-0.0007317583
37	0x3c9740b3	0.018463468
38	0x3da4ed8a	0.080531195
39	0x3d95c7e3	0.07313516
40	0xbc12424f	-0.008926942
41	0x3ddc018a	0.10742481
42	0x3c045bb1	0.008078502
43	0x3db5ebe9	0.08882887
44	0xbda50afd	-0.080587365
45	0xbcbd8c84	-0.023138292
46	0xbcaf9ecd	-0.021438027
47	0xbe12657d	-0.14296527
48	0x3e8b4cb5	0.2720696
49	0xbd30eae7	-0.04319277
50	0x3e25b4ac	0.16182202
51	0x3d13c883	0.036079895
52	0x3d507529	0.050892983
53	0x3ca57f6c	0.020202361
54	0xbe7cb12a	-0.24676958
55	0x3c13b455	0.0090151625
56	0xbcb64ca8	-0.02225335
57	0x3d531882	0.051537044
58	0x3e91e3fd	0.28494254
59	0xbec7d367	-0.39028475
60	0x3e35c3a8	0.17750418
61	0x3bdb5aa0	0.006694153
62	0x3bf0c456	0.007347624
63	0xbe43feb5	-0.19140132
64	0x3d092871	0.033485834
65	0x3cd61763	0.026134199
66	0xbc271dd6	-0.010199985
67	0xbd803dd5	-0.062617935
68	0xbce6e56b	-0.028185567
69	0xbceef883	-0.029171234
70	0xbd99c672	-0.075085536
71	0x3d8f89ce	0.07008706
72	0xbce17c74	-0.027525164
73	0x3d93fff8	0.072265565
74	0x3cd9f4d4	0.026606001
75	0x3c25c0a4	0.01011673
76	0x3cb2c024	0.021820135
77	0xbcafb701	-0.021449568
78	0xbde99f5b	-0.11407348
79	0x3d8b326d	0.06796727
80	0x3e396ed5	0.18108685
81	0xbde20a59	-0.1103713
82	0x3ea9b3a4	0.33144867
83	0xbd52b398	-0.051440805
84	0x3e33e8ba	0.17569247
85	0x3cc1db20	0.023664057
86	0xbee82e24	-0.45347703
87	0xbbb60a41	-0.0055554216
88	0xbc44158d	-0.011968029
89	0x3db5d925	0.08879308
90	0x3dd53cf4	0.104120165
91	0x3e8b9b39	0.27266863
92	0xb93c8860	-0.00017979881
93	0x3e07b196	0.13251337
94	0xbd34b067	-0.044113543
95	0x3d1f7af5	0.03893562
96	0xbc4a1e47	-0.01233632
97	0xbd4289c9	-0.047494683
98	0xbcf58718	-0.029971644
99	0xbe113ab2	-0.14182547
100	0xbe5fd7c0	-0.21859646
101	0x3d8be433	0.06830635
102	0x3dba7b7f	0.09105586
103	0x3d905187	0.070468
104	0xbcbf7562	-0.023371402
105	0xbcdd43db	-0.027009895
106	0x3d6e3b62	0.0581621
107	0x3dda9298	0.10672492
108	0xbc2a9f0e	-0.010413898
109	0xbe34ea4b	-0.176675
110	0xbdb9d82b	-0.09074434
111	0xbd2a9d70	-0.04165405
112	0xbc8c0267	-0.01709099
113	0x3d41191b	0.047143083
114	0x3db06ffc	0.08615109
115	0x3d970e94	0.073758274
116	0xbc4e52b0	-0.012592956
117	0xbd54073a	-0.051764704
118	0x3f1d5393	0.6145565
119	0x3e689ece	0.22716829
120	0x3e29e367	0.16590653
121	0xbea5d2d4	-0.32387412
122	0xbd116bcc	-0.035503194
123	0x3e453092	0.1925681
124	0x3d7fa046	0.062408708
125	0xbd9416a1	-0.072308786
126	0xbd3b1995	-0.045678694
127	0xbc9e3424	-0.019311972
128	0x3ce70586	0.028200876
129	0x3ce53147	0.027977599
130	0x3db2845a	0.0871665
131	0x3ca1548e	0.01969364
132	0x3c930ca3	0.017950362
133	0xbca44359	-0.020051645
134	0xbbd262f0	-0.0064204857
135	0x3f05c9ae	0.52260864
136	0xbd1b187c	-0.037865147
137	0x3d0d8399	0.03454933
138	0xbd1737bf	-0.036918398
139	0x3d6559ad	0.055993725
140	0x3d5cc786	0.053901218
141	0x3dd35042	0.10318042
142	0xbd9c454c	-0.07630405
143	0x3dd4eea6	0.10397081
144	0xbe0fb3dc	-0.14033455
145	0x3db5c87a	0.088761285
146	0xbd7649bc	-0.060128912
147	0xbde706f4	-0.11280623
148	0x3e4f5a87	0.20249377
149	0x3f0291c4	0.5100367
150	0xbc9bb299	-0.01900606
151	0x3ddf4c69	0.10903246
152	0xbcaf4b0a	-0.021398086
153	0x3ce04942	0.027378682
154	0x3c0bccc8	0.00853271
155	0x3d9386f5	0.072034754
156	0xbd695fad	-0.05697601
157	0x3c7d5421	0.015461952
158	0x3c9ff1ea	0.019524533
159	0xbd682895	-0.056679327
160	0xbcc95ce5	-0.024580428
161	0x3d4044df	0.04694068
162	0xbd103742	-0.035208948
163	0x3d91a3ba	0.071113065
164	0x3e499b9e	0.1968827
165	0x3eb553a4	0.35415375
166	0x3e196f60	0.14983892
167	0x3c966b82	0.01836181
168	0xbcfd5aae	-0.030927029
169	0xbe6a7dc7	-0.22899543
170	0x3db162d8	0.08661431
171	0x3d0b17d0	0.033958256
172	0xbd5e64cc	-0.054295346
173	0xbcb0f4d7	-0.021601124
174	0x3e571acb	0.21006314
175	0x3e17bf5a	0.14819089
176	0xbc51f5ab	-0.012814919
177	0xbc4edeb8	-0.0126263425
178	0xbef3ec73	-0.47641334
179	0x3bb6888f	0.0055704783
180	0x3e3edb2d	0.18638296
181	0xbe94ccd4	-0.2906252
182	0x3d301e36	0.04299756
183	0x3c807189	0.015679138
184	0xbdd21bcd	-0.10259209
185	0xbe4258f2	-0.18979242
186	0x3cf736b0	0.030177444
187	0xbf29e4ec	-0.6636493
188	0x3df086f4	0.1174449
189	0xbd380f7c	-0.044936642
190	0xbc6e153a	-0.014531428
191	0xbe5b8779	-0.21438397
192	0xbb4137b2	-0.002948266
193	0xbc87b3a3	-0.01656515
194	0xbe5384cc	-0.20656127
195	0xbb97c2b2	-0.004631364
196	0xbc9b7128	-0.018974856
197	0x3e2208e6	0.15823707
198	0x3c5c5b4f	0.013449504
199	0x3c2c7536	0.010525992
200	0xbc5d9aa7	-0.0135256415
201	0x3cad1e9a	0.021132756
202	0x3e25b3c2	0.16181853
203	0xbbd8eace	-0.006619788
204	0xbca253c0	-0.019815326
205	0x3dc3e049	0.095642634
206	0x386acb0b	5.5979046e-05
207	0xbc653912	-0.013990657
208	0x3e0f9678	0.14022243
209	0xbd2d6bc9	-0.04233912
210	0xbbc4d74f	-0.006007112
211	0x3ddbd448	0.10733849
212	0xbc0729bd	-0.008249697
213	0xbdf4f744	-0.11961225
214	0xbba0001b	-0.004882825
215	0x3c36160b	0.011113654
216	0x3c6da408	0.01450444
217	0xbe17798e	-0.14792463
218	0xbd13ebe8	-0.03611365
219	0x3c325030	0.010883376
220	0xbbd90d06	-0.006623867
221	0x3de7d4cf	0.11319887
222	0xbbb27e2e	-0.0054471707
223	0x3e191494	0.14949256
224	0xbd1952d6	-0.037432514
225	0xbe483a23	-0.19553427
226	0xbe1f467f	-0.15554236
227	0x3cd5001b	0.026001027
228	0xbd9acf3d	-0.07559059
229	0xbeae8ea1	-0.34093192
230	0x3b4f0d69	0.0031593686
231	0xbdaacc13	-0.08339705
232	0xbe282163	-0.16418986
233	0xbddd0001	-0.10791016
234	0xbd8f2872	-0.06990136
235	0x3e0589b1	0.13040806
236	0xbd222756	-0.039588295
237	0x3cd4a210	0.025956184
238	0x3dcdbeac	0.100461334
239	0x3dfb15ff	0.12260055
240	0x3df39c59	0.11895055
241	0x3bee95a2	0.007281021
242	0xbcd31fcb	-0.025771996
243	0x3cc64437	0.02420245
244	0xbf2a4723	-0.66514796
245	0x3e952865	0.2913238
246	0xbe417e39	-0.18895806
247	0xbab3f51c	-0.0013729664
248	0xbd5c26d0	-0.053747952
249	0xbe48e6d1	-0.196193
250	0xbda58675	-0.08082286
251	0x3cb35041	0.021888854
252	0x3d481d85	0.048856277
253	0x3cb38827	0.021915508
254	0xbe1e7bd8	-0.1547693
255	0xbd661418	-0.056171507

stages.1.0.pwconv1.bias f4 [32]
0	0xbc3e5f01	-0.01161933
1	0x3c8d65e5	0.017260501
2	0xbc8e62fd	-0.017381186
3	0x3d13087c	0.035896763
4	0xbbc0174f	-0.0058621536
5	0x3c68bfbf	0.014205872
6	0xbccd3af7	-0.02505253
7	0xbc035211	-0.008015172
8	0xbbe2291c	-0.0069018733
9	0x3cb2caf2	0.021825287
10	0x3c917dd5	0.017760197
11	0xbb0d7f5f	-0.0021590812
12	0x3c3cb162	0.011516901
13	0xbb415f6f	-0.0029506346
14	0x3cacbf80	0.021087408
15	0x3d2d9961	0.0423826
16	0x3d0b9ad1	0.03408319
17	0xbb944fb8	-0.004526105
18	0x3cdf4088	0.02725245
19	0x3b7eb79a	0.003886676
20	0x3c1b1ad3	0.009466845
21	0xbb90fefe	-0.0044249287
22	0x3d3c3d66	0.04595699
23	0x3d138511	0.036015574
24	0x3d21b884	0.03948261
25	0x3c8491ac	0.016182743
26	0x3cc20085	0.023681888
27	0x3d6ad54a	0.057332315
28	0x3d3d9dc3	0.04629303
29	0x3cc56699	0.024096774
30	0x3c77b96a	0.01511989
31	0x3ce62b6f	0.028096883

stages.1.0.pwconv2.weight f4 [16, 32]
0	0xbda2c214	-0.07947174
1	0x39b44e64	0.0003439068
2	0x3b33d54d	0.002744037
3	0x3ae99af0	0.0017822664
4	0x3ad196c8	0.0015990371
5	0x3af8fc9c	0.0018996182
6	0x3a743aae	0.0009316605
7	0xbb9fd80b	-0.0048780493
8	0x3ab1098c	0.0013506874
9	0x3d8ac6e3	0.06776216
10	0xbc13f1b8	-0.009029798
11	0xba941078	-0.0011296412
12	0x3adce9c7	0.0016854339
13	0xbb685433	-0.0035450577
14	0xbbc26b34	-0.0059331898
15	0x3a97614d	0.0011549384
16	0xb9ddaa1f	-0.00042279155
17	0x3c2e6946	0.010645216
18	0xbb89fda1	-0.004211143
19	0xbb0d1759	-0.002152881
20	0x3a4aec8b	0.0007740936
21	0x3a1b04d6	0.00059135014
22	0xbb4dba0c	-0.003139141
23	0x3ad5fcde	0.0016325971
24	0x3ad96050	0.001658449
25	0x3b84928b	0.0040457896
26	0x3b847554	0.004042307
27	0xbb860f6b	-0.0040911934
28	0xbe7c1470	-0.24617171
29	0x3a992a46	0.0011685572
30	0xbb27d769	-0.0025610572
31	0xbb484929	-0.0030561185
32	0x394d1fc8	0.00019562163
33	0xba273df9	-0.0006379779
34	0x3b8580b2	0.0040741796
35	0xbac83e3a	-0.0015277334
36	0x39f85c52	0.0004737103
37	0xba009fe6	-0.0004906639
38	0x3a159f6f	0.00057076564
39	0xbb59dcd8	-0.0033243205
40	0x3ca3c8cb	0.019993206
41	0xbacb24ea	-0.0015498672
42	0x3bb60921	0.0055552875
43	0x3ae059bc	0.0017116587
44	0xb95412c3	-0.00020224885
45	0x3b2bf48e	0.0026238295
46	0x3b4e1472	0.0031445292
47	0x3b748bf8	0.0037314873
48	0x3a88c653	0.0010435082
49	0xb9dfece7	-0.0004271038
50	0x3b9f783f	0.0048666294
51	0x3b71ad81	0.0036877098
52	0xbb2d10ec	-0.0026407791
53	0x3a4ddead	0.00078533107
54	0x38afcc60	8.382718e-05
55	0xbab0d3cf	-0.0013490858
56	0xbaa7f445	-0.0012813887
57	0xbb8cbbec	-0.004294863
58	0x3b3d0577	0.0028842369
59	0x3ac6f94e	0.00151805
60	0xbdd2e658	-0.10297841
61	0x3a5136e8	0.0007980899
62	0x3733aa0c	1.07088235e-05
63	0x3b13862b	0.002251039
64	0xbcce3fea	-0.025176961
65	0x3c83d11e	0.016090926
66	0xbb3cdf1f	-0.0028819514
67	0x3d5930f4	0.0530252
68	0x3abdc184	0.0014477228
69	0xbc826380	-0.015916586
70	0xbcab75e3	-0.020930236
71	0x3c87928a	0.016549367
72	0x3caed9f6	0.021344166
73	0x3d13cb3b	0.036082488
74	0xbc913d93	-0.017729556
75	0x3cc21f88	0.023696676
76	0xbc77431a	-0.015091682
77	0x3c918a76	0.017766219
78	0xbd062cf6	-0.03275772
79	0xbabe4d9b	-0.0014518978
80	0xbcb7d0a9	-0.022438364
81	0xbcb55548	-0.022135392
82	0x3de127bf	0.10993909
83	0x3cb9ab47	0.02266468
84	0xbcb282a3	-0.021790808
85	0xbc73ee79	-0.014888399
86	0xbb9b9683	-0.004748167
87	0xbb895ab1	-0.0041917195
88	0xbbdcdb0b	-0.006739979
89	0xbc93cc46	-0.018041741
90	0x3cbac7ab	0.022800287
91	0x3aae17bb	0.0013282219
92	0xbbbf726d	-0.005842498
93	0xbd0d9325	-0.034564156
94	0xbbaf47b2	-0.005349123
95	0xbc731a32	-0.014837788
96	0x3c22acbe	0.00992888
97	0xbb20481e	-0.0024457048
98	0x3be23db4	0.0069043282
99	0x3bcd78c2	0.006270499
100	0xba9ea7f6	-0.00121045
101	0x3b983738	0.0046452545
102	0x3bd34660	0.0064475983
103	0x3d20ba56	0.039240204
104	0xbdad1067	-0.08450394
105	0xbcbaf4d9	-0.02282183
106	0xbbf206c0	-0.0073860586
107	0x3e0622e3	0.13099246
108	0x3a672386	0.0008817244
109	0xbd2c5978	-0.04207751
110	0xbd891925	-0.06694249
111	0xbc97ee9b	-0.018546393
112	0xbde1a473	-0.11017694
113	0xbd040e4b	-0.032240193
114	0x3a86ca17	0.0010283616
115	0xbccae1e7	-0.024765922
116	0x3a05f8fd	0.00051106495
117	0x3bde812a	0.0067903
118	0x3a84b381	0.0010124297
119	0xbc5590b1	-0.013034985
120	0x3bfec581	0.007775009
121	0x3c949d48	0.018141404
122	0xbc367f98	-0.011138819
123	0xbcd74394	-0.026277341
124	0x3c6cc395	0.014450927
125	0xbb197531	-0.0023415799
126	0x3ca3e630	0.020007223
127	0x3cf56035	0.029953102
128	0xbbb5b4d9	-0.0055452404
129	0x3c0e6b37	0.008692554
130	0x39856ac5	0.00025447286
131	0x3bedaad0	0.0072530285
132	0x3b30c089	0.0026970229
133	0xbb9950b9	-0.0046788123
134	0x3be78863	0.007065819
135	0x3d709a7e	0.058741085
136	0x3c336c47	0.010951108
137	0xbd2073aa	-0.039172806
138	0x3cd18b58	0.02557914
139	0xbc86545b	-0.016397646
140	0x3ca909cb	0.020634552
141	0x3b552498	0.0032523032
142	0x3e187a3e	0.14890382
143	0x3d07f86c	0.033195898
144	0x3b89d1a3	0.004205899
145	0xbc11af2a	-0.00889186
146	0x3c4f1335	0.012638857
147	0x3c1ab015	0.009441395
148	0x3b0a1006	0.002106668
149	0xbb03a355	-0.0020086367
150	0xbb957ab6	-0.0045617474
151	0x3bc922ae	0.0061381673
152	0xbbc1ad4b	-0.0059105507
153	0xbae6cde1	-0.0017608964
154	0xbd54d0e3	-0.051957022
155	0x3d2d64cf	0.042332467
156	0xbaaaf92b	-0.0013044229
157	0x3bede434	0.00725987
158	0x3b77afdc	0.003779403
159	0xbcf45baf	-0.029828874
160	0x3ce772a6	0.02825291
161	0x3de1255c	0.10993454
162	0x3cff05a7	0.031130625
163	0x3daeae8d	0.08529387
164	0x3d9c1f14	0.07623115
165	0x3dd59e21	0.10430551
166	0xbca79e95	-0.02046136
167	0x3e6ea73b	0.23305981
168	0xbd0a565c	-0.033773765
169	0xbc95370c	-0.018214725
170	0xbd9b2b4f	-0.0757662
171	0x3d550f32	0.052016445
172	0xbcaef315	-0.021356145
173	0xbd8c15e7	-0.06840115
174	0xbdf509d6	-0.11964767
175	0xbd124f85	-0.035720367
176	0x3e070f5b	0.13189451
177	0xbd65ad32	-0.056073375
178	0x3b92044b	0.004456078
179	0xbe1323c3	-0.14369111
180	0xbdb33fb5	-0.087523855
181	0x3d1c7da1	0.038205747
182	0x3df60c0b	0.12014016
183	0xbe21f647	-0.15816604
184	0x3db18a6a	0.086689785
185	0xbb8f6199	-0.004375648
186	0xbe18de44	-0.14928538
187	0xbe515af1	-0.20444848
188	0x3d010401	0.03149796
189	0xbd7ec090	-0.06219536
190	0x3ddda926	0.10823278
191	0x3d769711	0.060202662
192	0xbbecda45	-0.007228168
193	0x3eca07c0	0.39459038
194	0xbd39a757	-0.045325603
195	0x3b250f33	0.0025186061
196	0x3b00f6f2	0.001967844
197	0x3b8a6896	0.0042238934
198	0xbc476b39	-0.01217156
199	0x3d1427d5	0.0361708
200	0x3c2937da	0.010328257
201	0xba44a44a	-0.00075012876
202	0xbab11342	-0.0013509768
203	0xbc3d9bbd	-0.011572775
204	0xbc462813	-0.012094515
205	0x3a3da3cd	0.0007234186
206	0xbc40c5f1	-0.011765943
207	0xbb0764f8	-0.0020659547
208	0xbc143bcc	-0.00904746
209	0xbb4d62b2	-0.0031339345
210	0x3c2c38e8	0.010511614
211	0x3bf1a638	0.007374551
212	0xbbf79354	-0.0075554047
213	0x3b5bdbc2	0.0033547734
214	0xbb918f19	-0.0044421074
215	0x3a9acc1b	0.0011810096
216	0x3add0c4d	0.0016864628
217	0x3b12c4a5	0.0022395041
218	0x3b75c80b	0.0037503268
219	0x3b70853a	0.0036700503
220	0x3b8bfd8d	0.004272169
221	0xbbaedba8	-0.0053362437
222	0x3bdafc0f	0.0066828798
223	0x3a05d082	0.00051046174
224	0xba1b1a26	-0.0005916677
225	0x39bd1f2c	0.00036072114
226	0x3a8a098e	0.0010531412
227	0x3a1581a1	0.0005703215
228	0xb903a99d	-0.0001255632
229	0xba5ef3b5	-0.0008504943
230	0xba8e1db3	-0.0010842591
231	0x3d344431	0.044010345
232	0x3b518941	0.003197268
233	0xb9acd585	-0.0003296548
234	0xbb0644b5	-0.002048773
235	0xb9eb1c57	-0.00044843808
236	0x38c8e5be	9.579536e-05
237	0xba121d57	-0.000557383
238	0xbaf257af	-0.0018489267
239	0xb99b8ce2	-0.0002966887
240	0x3b9f1b63	0.0048555597
241	0xbb09db65	-0.002103531
242	0x3a95014c	0.0011368184
243	0xb9ad0b5c	-0.00033005595
244	0x3a9429a7	0.0011303917
245	0xbaff509d	-0.0019478981
246	0xba87c07a	-0.0010357045
247	0xba9a07e3	-0.0011751618
248	0xba535517	-0.00080616906
249	0xbacf8cc8	-0.0015834803
250	0xbac5a3ae	-0.0015078688
251	0xbb8c993a	-0.004290727
252	0x38c7575f	9.5053336e-05
253	0x3de55fc8	0.111999094
254	0x3b2a6566	0.002600038
255	0x38ba635a	8.887677e-05

stages.1.0.pwconv2.bias f4 [16]
0	0xb5e0ec53	-1.675808e-06
1	0x36369864	2.7208816e-06
2	0x3716553a	8.96054e-06
3	0xb5ef6b04	-1.7838033e-06
4	0xb56651b4	-8.580057e-07
5	0x3814fc6a	3.552103e-05
6	0x362de16c	2.5910222e-06
7	0x3526f59a	6.2197216e-07
8	0x3680642c	3.826359e-06
9	0xb638b5ee	-2.7524034e-06
10	0x375d5654	1.3192726e-05
11	0x37094f84	8.18435e-06
12	0xb5bbe250	-1.3998451e-06
13	0x381c8f11	3.732654e-05
14	0xb3adc481	-8.091684e-08
15	0xb6c9e81b	-6.0172874e-06

stages.2.0.gamma f4 [32]
0	0xbe70b1ed	-0.23505373
1	0x3e5d01c8	0.2158271
2	0x3e7a184d	0.24423333
3	0xbe648157	-0.22314964
4	0x3ea33aba	0.31880742
5	0x3e8b563a	0.27214223
6	0x3e60994b	0.21933477
7	0x3e68ac2a	0.22721925
8	0x3e954b14	0.29158843
9	0xbe57b9bb	-0.21066944
10	0xbe4ffcdb	-0.203113
11	0x3e5be075	0.21472342
12	0xbe9706d9	-0.29497412
13	0x3e9a3878	0.30121207
14	0x3e80a19c	0.25123298
15	0xbe59c1b6	-0.21265301
16	0x3e9e3863	0.30902395
17	0x3e467b34	0.19382936
18	0x3e8d1cad	0.2756094
19	0x3e641148	0.22272217
20	0x3e786d71	0.24260499
21	0x1f55dbff	4.528648e-20
22	0x3e517f26	0.2045866
23	0xbe53cb34	-0.20682985
24	0xbe5c86d3	-0.21535806
25	0xbe88457c	-0.26615512
26	0x3e714f42	0.2356539
27	0xbe740612	-0.2383044
28	0xbe79bf67	-0.2438942
29	0xbe56ff79	-0.20995893
30	0x3e895634	0.2682358
31	0x3e5461e5	0.20740469

stages.2.0.norm.weight f4 [32]
0	0x3f040510	0.51570225
1	0x3f0c155a	0.5472008
2	0x3f057eef	0.5214681
3	0x3f07648b	0.5288779
4	0x3f047622	0.51742756
5	0x3f061038	0.523685
6	0x3f0596ce	0.52183235
7	0x3f056544	0.52107644
8	0x3f05081e	0.5196551
9	0x3f04a9e1	0.51821715
10	0x3f04e4a5	0.51911384
11	0x3f04d442	0.5188638
12	0x3f0531c8	0.52029085
13	0x3f066a4e	0.5250596
14	0x3f04e842	0.519169
15	0x3f05f89e	0.52332485
16	0x3f052061	0.5200253
17	0x3f062a6e	0.5240849
18	0x3f06a916	0.52601755
19	0x3f06afaa	0.5261179
20	0x3f056db7	0.52120537
21	0x3f056b12	0.521165
22	0x3f04f54b	0.5193679
23	0x3f05224c	0.5200546
24	0x3f04964a	0.5179182
25	0x3f0a0d3b	0.5392644
26	0x3f0cba20	0.54971504
27	0x3f072058	0.5278373
28	0x3f09faae	0.5389813
29	0x3f08993a	0.53358805
30	0x3f073e96	0.52829874
31	0x3f050227	0.5195641

stages.2.0.norm.bias f4 [32]
0	0xbc07ebf4	-0.008296002
1	0xbc90f3fe	-0.01769447
2	0x3d08e363	0.033419978
3	0xbbc0b2ca	-0.0058806883
4	0x3c4445b2	0.011979507
5	0xbd0cc454	-0.03436692
6	0x3cb10b49	0.021611826
7	0xbcdffb14	-0.027341403
8	0x3c763eff	0.015029668
9	0x3ccb5c17	0.024824185
10	0xbd0ae602	-0.03391076
11	0xb9ecc737	-0.00045161854
12	0x3c1ca6d1	0.0095612565
13	0x3c178092	0.009246962
14	0xbbb6c61b	-0.005577815
15	0xbc96cd9e	-0.018408593
16	0xbcfe549c	-0.031046204
17	0xbb986543	-0.004650743
18	0xbab7bd53	-0.0014018215
19	0x3b9a4268	0.0047076233
20	0xbcd7db5a	-0.026349712
21	0x3c6ac020	0.014328033
22	0xbb801636	-0.0039088978
23	0x3cc97683	0.024592644
24	0xbcbb2bd8	-0.022848055
25	0x3bef9dc2	0.0073125074
26	0xbcee69a3	-0.029103106
27	0xbc5ee25d	-0.013603774
28	0x3a2b20af	0.00065280026
29	0x3bbea1bc	0.00581762
30	0x3d202f04	0.039107338
31	0x3c5dbb67	0.01353345

stages.2.0.norm.running_mean f4 [32]
0	0x3a6b4613	0.00089749804
1	0xbc18a811	-0.009317414
2	0xb9939729	-0.00028150648
3	0x3bd6c703	0.0065544858
4	0xbacc012b	-0.0015564313
5	0xbbce6c8a	-0.00629956
6	0x3bd2aa80	0.0064290166
7	0xb96d79d8	-0.00022647472
8	0x3b780819	0.0037846623
9	0x3af48be6	0.0018657416
10	0xbb213858	-0.0024600234
11	0x39074094	0.0001289866
12	0xbb03b76e	-0.0020098346
13	0xbb02a064	-0.0019932026
14	0x3b9476e4	0.0045307744
15	0xbba42f04	-0.0050104875
16	0xbb706f2f	-0.0036687364
17	0x3bd2b0c5	0.006429764
18	0xbb0bcef2	-0.0021333066
19	0x3bc0503a	0.0058689388
20	0xbbceaf9f	-0.0063075568
21	0xbb510629	-0.003189454
22	0xbae87103	-0.0017733875
23	0xbbbb58b0	-0.0057173595
24	0xb962bc7b	-0.00021623254
25	0x3be5ea2b	0.0070164404
26	0xbd0a04e0	-0.033696055
27	0x3bcec6c0	0.006310314
28	0x3bf1ff5e	0.0073851785
29	0x3c126385	0.00893486
30	0xbb9a1da9	-0.004703243
31	0x3ba5d69b	0.0050609834

stages.2.0.norm.running_var f4 [32]
0	0x37c81b73	2.385464e-05
1	0x377d3060	1.5091238e-05
2	0x39da27a1	0.00041609726
3	0x39031fb7	0.00012504948
4	0x371258d7	8.722963e-06
5	0x3827d2eb	4.0012335e-05
6	0x3a9f6657	0.0012161237
7	0x3a25f151	0.00063302094
8	0x39022f12	0.00012415301
9	0x39f8112e	0.00047315046
10	0x37d1d68d	2.501465e-05
11	0x3862e4ad	5.409557e-05
12	0x391a9c44	0.00014744798
13	0x38c6eae9	9.485131e-05
14	0x3a2cb824	0.00065887184
15	0x37d86483	2.5796011e-05
16	0x37901abb	1.7178585e-05
17	0x3890349d	6.876255e-05
18	0x375a00fa	1.299404e-05
19	0x3b8a2908	0.004216317
20	0x38b6bcda	8.7136126e-05
21	0x39827d38	0.00024888827
22	0x381e9be3	3.7815316e-05
23	0x39d39ff9	0.00040364245
24	0x37107039	8.609198e-06
25	0x37e3f532	2.7174687e-05
26	0x3a8c0190	0.0010681618
27	0x38b4b239	8.6162654e-05
28	0x3841018a	4.601622e-05
29	0x38488520	4.7807698e-05
30	0x37abbb68	2.0472056e-05
31	0x393e990f	0.00018176831
