saved_models/95_polygen_myconvnext_2022_01_19_21_01_54.pt (torch, 132644 bytes, 125 tensors)

connection_layers.0.weight f4 [8, 1]
0	0xbf46e83a	-0.776981
1	0xbcb21dcc	-0.021742724
2	0xbfbe61da	-1.4873612
3	0x3cbd5658	0.023112461
4	0x3cb63f73	0.022247052
5	0x401207b8	2.281721
6	0x3f985413	1.1900657
7	0x3c3c7a79	0.011503809

connection_layers.0.bias f4 [8]
0	0x385066a4	4.9686656e-05
1	0x3a145c7f	0.0005659535
2	0x37413946	1.1517031e-05
3	0x39f4c5e9	0.0004668676
4	0x3a39ce75	0.00070879544
5	0x3792e04a	1.7508999e-05
6	0x37e25332	2.698004e-05
7	0x3a69178f	0.0008891755

connection_layers.1.weight f4 [16, 8]
0	0x3d76502f	0.060135063
1	0xbe6ac94e	-0.22928354
2	0x3e45d3be	0.19319054
3	0x3cae194a	0.021252293
4	0xbda1bab1	-0.07896937
5	0x3e6c4b27	0.23075543
6	0xbd3be370	-0.0458712
7	0xbc68c7e2	-0.014207812
8	0xbd3754d5	-0.044758637
9	0xbe20fc46	-0.15721235
10	0x3a28c56f	0.00064381113
11	0xbdd9edae	-0.10641037
12	0x3cc20f58	0.023688957
13	0x3dafb5d0	0.085796
14	0xbef10a0b	-0.47077975
15	0x3e2c7f2d	0.16845389
16	0xbef8ef73	-0.48620185
17	0xbe8d4988	-0.27595162
18	0x3ab0af68	0.001348001
19	0x3cd5df57	0.026107473
20	0x3dd81828	0.105514824
21	0xbe8c79f1	-0.27436784
22	0x3ca82f61	0.020530405
23	0xbe5ca855	-0.21548589
24	0x3ec398b8	0.38202453
25	0x3e68534a	0.22688022
26	0x3aac2a27	0.0013135121
27	0xbea46ed5	-0.32115808
28	0xbb927196	-0.004469107
29	0xbe8995eb	-0.2687219
30	0xbd51c111	-0.051209513
31	0xbe89fb93	-0.26949748
32	0x3e37d020	0.17950487
33	0xbe5a3616	-0.21309695
34	0xbdbb20d2	-0.09137119
35	0xbcd83153	-0.026390707
36	0xbe98d5c3	-0.29850587
37	0x3dfdb0ac	0.12387213
38	0xbc9a261f	-0.018817006
39	0x3d0cc481	0.03436709
40	0xbbd76233	-0.0065729856
41	0xbba73dad	-0.005103788
42	0x3d50d771	0.05098671
43	0x3c65292f	0.01398687
44	0x3b90f78e	0.004424042
45	0x3d7df738	0.062003344
46	0xbcb4e5b0	-0.02208218
47	0xbf3a9881	-0.7288895
48	0x3d8d463f	0.06898164
49	0x3dbbf873	0.09178247
50	0xb917078c	-0.00014403294
51	0xbe80ec8c	-0.2518047
52	0xbc170327	-0.00921706
53	0x3e34496e	0.17606136
54	0xbe0b8b37	-0.13627325
55	0xbe8ff35a	-0.2811535
56	0x3d21f16c	0.03953688
57	0x3efb56ea	0.49089748
58	0x3e0d89fa	0.13822165
59	0x3cccb474	0.02498839
60	0xbc46dff9	-0.01213836
61	0x3b5db897	0.0033831948
62	0x3cc7edb3	0.024405336
63	0xbf5d72ff	-0.86503595
64	0x3e20ed6c	0.1571557
65	0xbe3b46f8	-0.18288791
66	0x3c0e1641	0.008672298
67	0xbdd1d500	-0.10245705
68	0x3e9cf5de	0.30656332
69	0x3d38f543	0.045155775
70	0x3e54a202	0.20764926
71	0xbdadce30	-0.08486593
72	0x3eac41a8	0.33643842
73	0x3ebe41e9	0.3715966
74	0x3be81525	0.0070825987
75	0x3d6d6dc2	0.057966
76	0xbec559a2	-0.38544947
77	0xbdb7a139	-0.08966298
78	0xbe5d37cf	-0.2160332
79	0x3d4b7f75	0.0496821
80	0xbe221d59	-0.15831508
81	0x3c852e72	0.016257498
82	0xb9b2dc74	-0.00034115056
83	0xbe02be0c	-0.1276781
84	0xbcefa653	-0.029254114
85	0x3d25b7c6	0.040458463
86	0x3ebccd5c	0.36875427
87	0xbd183187	-0.037156608
88	0x3ddffc50	0.10936797
89	0x3d8f02a3	0.06982925
90	0x3a0f07b8	0.0005456167
91	0x3c4c6ca2	0.012477072
92	0x3ce5578f	0.027995853
93	0x3dc463d6	0.09589355
94	0xbbfad871	-0.0076551964
95	0x3e73b439	0.23799218
96	0x3d2557b9	0.040366862
97	0x3f318f7e	0.69359577
98	0x3e06b216	0.13153872
99	0x3cba6c9c	0.022756867
100	0xbe020370	-0.12696624
101	0xbca8799a	-0.020565797
102	0xbe9061e2	-0.2819968
103	0xbd657aa2	-0.056025155
104	0x3d596260	0.053072333
105	0x3d97b2b2	0.0740713
106	0xbab3b2e6	-0.0013709932
107	0x3e26a01a	0.16272011
108	0x3ebd8f39	0.37023333
109	0xbe7d9b9d	-0.24766393
110	0xbe0358d5	-0.12826855
111	0xbb8dbc01	-0.0043253903
112	0xbe77cd06	-0.24199304
113	0x3e3db34d	0.18525429
114	0x39b622ef	0.00034739773
115	0xbc9369f5	-0.01799486
116	0x3e95b5af	0.29240176
117	0x3e7dee21	0.2479787
118	0x3c208ec4	0.009799663
119	0x3e1e2345	0.15443142
120	0x3d139244	0.03602816
121	0x3b119c0c	0.0022218255
122	0x3ead18f0	0.33808088
123	0xbe235151	-0.15948988
124	0x3c61d717	0.013784192
125	0xbce4dc8b	-0.027937194
126	0x3e58d86d	0.2117631
127	0xbea066a1	-0.313283

connection_layers.1.bias f4 [16]
0	0xbb8ed306	-0.004358652
1	0xbaef6651	-0.0018264746
2	0xbca0eaf6	-0.019643288
3	0xbc485fd0	-0.012229875
4	0xbc3dcd3d	-0.011584577
5	0xbc38c44e	-0.011277271
6	0xbc1a947d	-0.009434816
7	0xbbd2118c	-0.006410783
8	0xbd469639	-0.048483107
9	0xbcd4dfb9	-0.025985586
10	0xbb0f48e8	-0.0021863524
11	0x3bf09f5b	0.0073432154
12	0x3a89e2aa	0.0010519822
13	0x3cba919e	0.022774514
14	0xbd0121c3	-0.03152634
15	0x3d1149b7	0.03547069

connection_layers.2.weight f4 [32, 16]
0	0x38da47a5	0.00010408395
1	0x3aee074b	0.0018160132
2	0xbb6101ea	-0.0034333416
3	0x3d1f269a	0.038855173
4	0xba4df54d	-0.0007856682
5	0x3e0975e1	0.13423873
6	0xbd91490f	-0.07094013
7	0xba8f45b3	-0.0010930806
8	0xbe98cf7b	-0.29845795
9	0xba8ba7ef	-0.0010654907
10	0xbafcf49d	-0.0019298975
11	0xb9a29c49	-0.0003101549
12	0x38bbb509	8.950575e-05
13	0xbc5cfc3d	-0.013487873
14	0xbaa6ea8b	-0.0012734694
15	0x3b27c5d6	0.0025600097
16	0x3a3b55d4	0.0007146273
17	0x3ccdb779	0.0251119
18	0x3a468bf5	0.0007573956
19	0x3a74359f	0.00093158515
20	0xbb1a7de2	-0.0023573567
21	0x3c3b9892	0.01144995
22	0xbd96385d	-0.07334969
23	0x3ba0c2d1	0.0049060364
24	0xba4f789b	-0.0007914395
25	0x3bbf4ea0	0.0058382303
26	0x3e29e716	0.16592059
27	0xb9b77afb	-0.00034996108
28	0xba8a4ab0	-0.0010550823
29	0x3ba7ce7d	0.005121051
30	0xbd1f3af6	-0.03887459
31	0x3c04f30e	0.008114589
32	0x3802b499	3.116261e-05
33	0x3b01c96f	0.0019803902
34	0xbafa3594	-0.0019089454
35	0x3a9c64f7	0.0011931945
36	0xbabd9282	-0.0014463218
37	0x3ec469cc	0.38361967
38	0xbaae99ae	-0.0013320947
39	0xb90d7716	-0.00013491171
40	0xb7da5437	-2.602684e-05
41	0xb9aaecde	-0.00032601407
42	0xbd3aead1	-0.045634095
43	0xb8cabf76	-9.667773e-05
44	0xb8a06658	-7.6484575e-05
45	0x3c081241	0.008305133
46	0x3e615e24	0.22008568
47	0x3b3a228b	0.0028401937
48	0xbeec8ca8	-0.46201062
49	0x3cff2ca2	0.031149212
50	0xbbd44cb5	-0.0064788708
51	0x3ad06f02	0.0015902224
52	0x399c54fd	0.0002981796
53	0x3cb87c4b	0.022520205
54	0xb9436e31	-0.00018637699
55	0xb92b98b8	-0.00016364723
56	0xbe52c459	-0.20582713
57	0xba656add	-0.00087515806
58	0x3b8404e7	0.0040289047
59	0x39e56506	0.00043753552
60	0x3940e57b	0.00018396035
61	0x39eba907	0.00044948628
62	0xbd8acb40	-0.06777048
63	0xbc25bbdd	-0.010115591
64	0x3e7a0f33	0.2441986
65	0xbdbb71e1	-0.0915258
66	0x3b2db36b	0.0026504647
67	0xbab3ed74	-0.0013727383
68	0xbab98297	-0.0014153299
69	0x3d342dcd	0.04398899
70	0xbb034ddf	-0.0020035428
71	0xbabbcd3d	-0.0014328134
72	0x3af1b589	0.0018440943
73	0xba78b792	-0.00094878033
74	0xbbe39b7f	-0.006946027
75	0xba97e491	-0.0011588504
76	0x3a447e5b	0.0007495635
77	0x3bb05ba0	0.0053820163
78	0x3c2fbb71	0.010725842
79	0x3ca9ca43	0.020726329
80	0xba2df94d	-0.0006636575
81	0x3d5cc004	0.053894058
82	0xbbc059d8	-0.005870085
83	0x3a27a303	0.0006394835
84	0xbaa9fffb	-0.0012969965
85	0xbd06f1d0	-0.032945454
86	0x3d85d0f7	0.065339975
87	0x3a9705ef	0.0011522154
88	0xba323db5	-0.0006799356
89	0x382a1532	4.0550898e-05
90	0x3dadab96	0.08479993
91	0x3a776e22	0.00094387133
92	0x3a08001a	0.00051880034
93	0xbec6c1aa	-0.3881963
94	0xbcb4fc1d	-0.022092873
95	0x3c37c801	0.011217118
96	0x3ae45151	0.0017419254
97	0xbd8fc560	-0.07020068
98	0xbab99123	-0.0014157634
99	0xbba0a3b0	-0.0049023256
100	0xbabff62e	-0.0014645511
101	0x3d05e8bc	0.032692656
102	0x3cfc0ae3	0.03076691
103	0x3e9fd835	0.3121964
104	0xbadd14db	-0.0016867177
105	0xbb8b564f	-0.004252232
106	0x3d8b74ea	0.06809409
107	0xba1dc0f5	-0.00060178275
108	0x3a2abd0c	0.00065131555
109	0x3c28d5ad	0.0103048505
110	0x3cf0d2b9	0.029397355
111	0xbd068142	-0.032838114
112	0xb9ec3849	-0.00045055363
113	0x3d18e510	0.037327826
114	0x3b799073	0.0038080483
115	0xbaac01c3	-0.0013123084
116	0x3cb02316	0.021501105
117	0xbd8f3ccf	-0.0699402
118	0xbde2944a	-0.1106344
119	0x3a99f8d2	0.0011747128
120	0x3a130bca	0.00056093617
121	0x3a9eb5ae	0.0012108588
122	0x3ada1f8b	0.0016641481
123	0x35812732	9.622656e-07
124	0x39c2db6f	0.00037166054
125	0xbb3ec1b6	-0.002910716
126	0xbd254c4e	-0.040355973
127	0x3d003e36	0.03130933
128	0xb921d913	-0.00015435023
129	0xbbcd566e	-0.0062664067
130	0x3db45503	0.08805277
131	0xbbdf670d	-0.0068177045
132	0xbb8f9f72	-0.004383021
133	0xbcf16fe7	-0.029472305
134	0x39b4b675	0.00034468216
135	0x3b734006	0.0037117018
136	0x39f5ddb2	0.00046895217
137	0x3ebf134b	0.37319407
138	0xbabfec08	-0.0014642486
139	0x39a40285	0.00031282395
140	0xb9ffbc15	-0.00048777522
141	0x3b8b8099	0.0042572734
142	0x3ab92d54	0.0014127889
143	0x39e3264e	0.00043325353
144	0x39f6a00c	0.0004704002
145	0x3d8f018e	0.069827184
146	0xbe838a8c	-0.2569164
147	0x3c6c01a6	0.01440469
148	0x3cc1263b	0.0235778
149	0x3ceec662	0.02914733
150	0x3d0bfddd	0.03417765
151	0xbb299d2c	-0.0025881035
152	0xbba97456	-0.005171339
153	0xba5541c6	-0.0008135106
154	0x3b313ff2	0.002704617
155	0x3d932f21	0.071867235
156	0xbc817ff8	-0.01580809
157	0x3dd85375	0.10562793
158	0xbe38959d	-0.18025823
159	0xbdbbb6ab	-0.091657005
160	0xb9fb2b4c	-0.0004790671
161	0xbdd839b2	-0.105578795
162	0x3c5a4f23	0.013324532
163	0x3be88efc	0.007097123
164	0xbabf53f9	-0.0014597169
165	0x3cd31afe	0.025769707
166	0x3d80a10e	0.06280719
167	0xbe64996d	-0.22324152
168	0x3e00d73c	0.12582105
169	0xbe47d231	-0.19513775
170	0xbbdf0c6a	-0.0068069
171	0xbe9d4c0f	-0.3072209
172	0x388236df	6.2091036e-05
173	0x3be7098f	0.0070507
174	0xbc07d544	-0.008290593
175	0xbd5f8461	-0.054569606
176	0x3d2bc9a8	0.04194036
177	0x3d0f8aa6	0.035044335
178	0x3b15ca58	0.0022856202
179	0x3a870d4c	0.0010303645
180	0x3b255bd4	0.0025231736
181	0x3d29160b	0.041280787
182	0x3b17d25b	0.0023166153
183	0x3988cc44	0.0002609213
184	0xbdf36075	-0.11883632
185	0x396f5fd3	0.00022828513
186	0xb919684e	-0.00014630074
187	0x3883bfc4	6.282286e-05
188	0x39f3e129	0.0004651633
189	0xba0acba8	-0.00052946294
190	0x3bcaa79a	0.0061845304
191	0xbbec0dcc	-0.007203793
192	0x3e1a980b	0.15097062
193	0xbadfa732	-0.0017063378
194	0x3e496b8e	0.19669935
195	0x3b7d6445	0.0038664502
196	0xbb8fb453	-0.00438551
197	0x3daa9be3	0.08330514
198	0xbb16a7d9	-0.0022988229
199	0xbb08c0e3	-0.0020866923
200	0x37e9ec46	2.7885788e-05
201	0xbb1db43c	-0.0024063727
202	0xbb10a8fa	-0.0022073374
203	0x371b6713	9.262719e-06
204	0xbd23d6d6	-0.039999805
205	0x3ddb347f	0.10703372
206	0x3b915072	0.0044346387
207	0x3bff840b	0.007797723
208	0xbd8ed698	-0.06974524
209	0x3d84834e	0.06470357
210	0x3b728d7d	0.0037010603
211	0x3de2f277	0.11081403
212	0xbada2404	-0.0016642814
213	0xbd643fb7	-0.055724826
214	0x3ae95a4c	0.00178034
215	0x3b2f1f6e	0.0026721614
216	0xb9ea6d56	-0.0004471342
217	0x3b121acc	0.0022293804
218	0x3b8b36a9	0.0042484594
219	0xb922b9fc	-0.00015518809
220	0x383dad30	4.5222405e-05
221	0xba6d5856	-0.00090539956
222	0xbd0631eb	-0.03276245
223	0x3baca1ca	0.00526831
224	0x3a5179c7	0.00079908635
225	0xbb1617e6	-0.0022902428
226	0xbbd8c7b7	-0.0066156047
227	0x39dc4eba	0.00042020326
228	0xbb079c05	-0.002069236
229	0x3d981f00	0.07427788
230	0xb9ed11c3	-0.00045217396
231	0xba0e3978	-0.00054254336
232	0x3b95660a	0.004559283
233	0xbb08a108	-0.0020847935
234	0xba81a6f2	-0.0009891673
235	0xb9d18512	-0.00039962732
236	0x3d0078d8	0.031365246
237	0x3b1613de	0.0022900025
238	0x3c62b2b6	0.013836553
239	0x3befa413	0.0073132603
240	0xb8e2579d	-0.00010792839
241	0xbe56dd25	-0.20982797
242	0xb9b6a797	-0.0003483861
243	0xb99eea27	-0.00030310565
244	0x3ab815d9	0.0014044597
245	0xb9360aaf	-0.00017360853
246	0x3dbaa981	0.091143616
247	0xbdc38af2	-0.09547986
248	0x391a881d	0.0001473729
249	0xb9e3b384	-0.00043430564
250	0xba6a0718	-0.00089274487
251	0x3d55c71e	0.052191846
252	0x3998aafb	0.0002911909
253	0xb8967035	-7.1734576e-05
254	0x3c00cb0f	0.007860913
255	0xbb11b01e	-0.0022230218

connection_layers.2.bias f4 [32]
0	0x3adc7ee1	0.0016822481
1	0x3ad99d35	0.0016602637
2	0x3aa35d94	0.0012463802
3	0x3c7cc30c	0.015427362
4	0xbb9b108c	-0.004732197
5	0x3be4b73e	0.006979852
6	0xbc236358	-0.009972416
7	0x3bbe9c67	0.0058169845
8	0x3b3ca0a5	0.0028782275
9	0x3c1ae2b5	0.009453465
10	0xbb71716d	-0.0036841289
11	0x3bf3a48f	0.0074353884
12	0x3b18548b	0.002324375
13	0x3bb91054	0.0056476984
14	0x3bdb365b	0.0066898293
15	0xba3ec22d	-0.0007276859
16	0x3922d46d	0.00015528659
17	0xbb6e34fc	-0.00363475
18	0x3a16c2fd	0.00057511014
19	0xbc148d6d	-0.009066922
20	0x3c1dcddb	0.009631599
21	0xbb236295	-0.0024930586
22	0x3b2e009b	0.0026550654
23	0xbb240ba5	-0.0025031355
24	0x3c34a527	0.0110257035
25	0x3bad3f91	0.0052871187
26	0xbbd23697	-0.006415199
27	0xbc1cf833	-0.00958066
28	0xbbc47237	-0.005995061
29	0x3b499ca1	0.0030763524
30	0xbbc815f7	-0.006106134
31	0xbac50a97	-0.0015033063

norm_layers.0.weight f4 [8]
0	0x3ee2bff0	0.44287062
1	0x3ee2b870	0.4428134
2	0x3ee3e336	0.44509286
3	0x3ee2b940	0.4428196
4	0x3ee2bd92	0.44285256
5	0x3ee82afc	0.45345294
6	0x3ee2bee7	0.44286272
7	0x3ee3461d	0.4438943

norm_layers.0.bias f4 [8]
0	0x3c9d6989	0.019215362
1	0xbbae4ed6	-0.0053194566
2	0x3ddd03e0	0.10791755
3	0xbc577951	-0.013151483
4	0xbc72ca10	-0.014818683
5	0xbe1078c7	-0.14108573
6	0xbd2b3428	-0.041797787
7	0xbd765e34	-0.060148433

norm_layers.0.running_mean f4 [8]
0	0xbd4c4bc6	-0.04987695
1	0xba51c000	-0.00080013275
2	0xbdc39247	-0.095493846
3	0x3b015af6	0.0019738055
4	0x3b0a3149	0.0021086505
5	0x3e160aee	0.14652607
6	0x3d9c8a14	0.07643524
7	0x3ad67a43	0.0016363341

norm_layers.0.running_var f4 [8]
0	0x3d14a77f	0.03629255
1	0x37efcb1d	2.8585602e-05
2	0x3e08272e	0.13296196
3	0x3806105d	3.196333e-05
4	0x37f9c359	2.9774079e-05
5	0x3ea031f7	0.3128812
6	0x3dae56c2	0.085126415
7	0x3706c4a6	8.032808e-06

norm_layers.1.weight f4 [8]
0	0x3f271c15	0.65277225
1	0x3f19b7eb	0.6004626
2	0x3ee8bcfa	0.45456678
3	0x3f0b6ee8	0.54466105
4	0x3f1a26d8	0.6021552
5	0x3f156b82	0.5836717
6	0x3f1a56b7	0.60288566
7	0x3f10e6dc	0.56602263

norm_layers.1.bias f4 [8]
0	0xbccf403f	-0.02529919
1	0xbcc6e1fa	-0.024277676
2	0x3bd81149	0.0065938574
3	0x3adec89f	0.0016997046
4	0x3cad71f4	0.021172501
5	0xbc2e4c27	-0.010638273
6	0x3c447c32	0.011992501
7	0xbc121ba1	-0.00891772

norm_layers.1.running_mean f4 [8]
0	0xba6fdf53	-0.00091504044
1	0xb89ab0aa	-7.3761985e-05
2	0x35d6c899	1.6002624e-06
3	0x38697929	5.5664368e-05
4	0xb8f47be7	-0.00011657905
5	0xb9941ea6	-0.00028251595
6	0x39266e76	0.00015872144
7	0x3a43f1a8	0.0007474669

norm_layers.1.running_var f4 [8]
0	0x35168b12	5.608173e-07
1	0x34524486	1.9582703e-07
2	0x2cf94c7d	7.0854976e-12
3	0x350fd91f	5.3587604e-07
4	0x3529e6f7	6.3293504e-07
5	0x35869b41	1.0028963e-06
6	0x3529ec03	6.330085e-07
7	0x36168c9f	2.2433594e-06

norm_layers.2.weight f4 [16]
0	0x3ee3801d	0.4443368
1	0x3f1c7778	0.61119795
2	0x3ee7d110	0.4527669
3	0x3ee3326c	0.44374406
4	0x3ee389a8	0.4444096
5	0x3f02ab0d	0.5104225
6	0x3ee53950	0.44770288
7	0x3ee2ce68	0.442981
8	0x3ee4fcee	0.4472422
9	0x3ee8e174	0.45484507
10	0x3ee3fa3b	0.44526848
11	0x3ee3b62b	0.4447492
12	0x3ee2c345	0.44289604
13	0x3ee3d221	0.44496253
14	0x3f129ea2	0.57273304
15	0x3ee71989	0.4513667

norm_layers.2.bias f4 [16]
0	0xbbcd50d2	-0.006265738
1	0xbb69717d	-0.0035620623
2	0xbba09fa4	-0.004901843
3	0x3adabe12	0.0016688725
4	0xbb99722c	-0.0046828
5	0xbb347e62	-0.002754115
6	0x3a41ec16	0.0007397545
7	0xb9633482	-0.00021667968
8	0xbbc44a70	-0.005990319
9	0x3b9b2e37	0.004735734
10	0x39c0318f	0.00036658018
11	0x3b9ed786	0.0048474697
12	0x3a3b0a22	0.0007134994
13	0xbbe03231	-0.006841921
14	0xbb977e1a	-0.004623187
15	0xbac6c8ae	-0.0015166008

norm_layers.2.running_mean f4 [16]
0	0x3607a31a	2.0211505e-06
1	0x3a8c11cf	0.001068646
2	0x38c5fff3	9.441366e-05
3	0x37dc1a86	2.6238395e-05
4	0x3872543a	5.777574e-05
5	0xbaa409d4	-0.0012515136
6	0xb8a25d1b	-7.742104e-05
7	0x37c69968	2.3674875e-05
8	0xb864b657	-5.4529253e-05
9	0x381330c0	3.5092933e-05
10	0x390f6169	0.00013673831
11	0x36cde93d	6.1366286e-06
12	0x3750f580	1.2454926e-05
13	0x37f8a56e	2.9640938e-05
14	0xba0ee8cd	-0.000545156
15	0xb9661828	-0.00021943508

norm_layers.2.running_var f4 [16]
0	0x303062b1	6.4168676e-10
1	0x3535e87e	6.7766075e-07
2	0x32c266d8	2.263134e-08
3	0x325450dc	1.2358409e-08
4	0x32b2a032	2.0794776e-08
5	0x35ef895c	1.7846864e-06
6	0x327a6a8e	1.4576143e-08
7	0x31680e46	3.3768557e-09
8	0x30ded481	1.6213023e-09
9	0x30fb29d5	1.8274543e-09
10	0x32950cc3	1.7351686e-08
11	0x302332f8	5.9371486e-10
12	0x301ef180	5.782326e-10
13	0x322653e0	9.681543e-09
14	0x340b0b8d	1.2949586e-07
15	0x3428d3c6	1.5723262e-07

stages.0.0.gamma f4 [8]
0	0x3b4ddf98	0.003141379
1	0x3b21b3f7	0.0024673918
2	0xb87ca8eb	-6.02388e-05
3	0xbbffe4da	-0.0078092637
4	0x3b850774	0.0040597264
5	0x3bc1d49a	0.0059152367
6	0x3bcfeb2b	0.006345173
7	0x3bebdb5a	0.0071977796

stages.0.0.norm.weight f4 [8]
0	0x3f23e476	0.6402048
1	0x3f1a169b	0.60190743
2	0x3f2f651d	0.6851366
3	0x3f0f4ac4	0.5597346
4	0x3f1d15a3	0.6136114
5	0x3f1c2647	0.60995907
6	0x3f2c7c65	0.6737731
7	0x3f17fc8c	0.5936973

stages.0.0.norm.bias f4 [8]
0	0xbac6f124	-0.0015178067
1	0x3d746920	0.059670568
2	0x3d177ead	0.03698604
3	0x3cd7b0c0	0.026329398
4	0x3c2455c7	0.010030217
5	0xbc13f4f3	-0.009030568
6	0xbc62c8a6	-0.013841784
7	0xbc8eacf2	-0.017416451

stages.0.0.norm.running_mean f4 [8]
0	0xbc04503b	-0.008075769
1	0x3751800d	1.2487185e-05
2	0x3d051714	0.032492712
3	0x3abf0654	0.001457403
4	0x3b607f3e	0.003425553
5	0xbe49c48c	-0.19703883
6	0x3bf67c9c	0.007522179
7	0x3ca1f3cd	0.019769574

stages.0.0.norm.running_var f4 [8]
0	0x3db7e441	0.08979083
1	0x3dcc8a13	0.09987273
2	0x3d4ddafd	0.05025767
3	0x3d21c6b6	0.039496146
4	0x3c9cf4c8	0.01915969
5	0x3e339c9b	0.17540209
6	0x3d5d92f4	0.054095224
7	0x3d814fff	0.06314086

stages.0.0.pwconv1.weight f4 [16, 8]
0	0xbe2a8cfd	-0.16655345
1	0xbdbf9c67	-0.09356003
2	0x3e023225	0.12714441
3	0x3da2dd3b	0.079523526
4	0x3e7c4900	0.24637222
5	0x3ef6129e	0.4806108
6	0xbd728cb3	-0.059216212
7	0x3e452cc2	0.19255355
8	0xbe1a9bd8	-0.15098512
9	0xbd9fcca2	-0.078027025
10	0xbdc43e87	-0.09582239
11	0x3e5d2934	0.21597749
12	0x3e71ab8e	0.23600599
13	0xbe7d4e16	-0.24736819
14	0xbe960e3b	-0.29307732
15	0x3cf6e51d	0.030138547
16	0xbd88687b	-0.06660553
17	0xbdbc9689	-0.092084
18	0x3e3c15c8	0.18367684
19	0xbd4a17b4	-0.04933901
20	0x3e4411c6	0.19147405
21	0x3e1af38b	0.15131967
22	0x3d51e7b0	0.051246345
23	0x3d89eb2b	0.06734308
24	0x3c23d919	0.010000491
25	0xbbe0c8c4	-0.0068598706
26	0xbdf4651f	-0.1193335
27	0xbd30cd08	-0.043164283
28	0x3d63777f	0.055533882
29	0xbe56cb16	-0.20975909
30	0x3c8e6b0b	0.017385026
31	0xbe5bfe56	-0.2148374
32	0xbe490846	-0.19632062
33	0x3e2c4325	0.16822489
34	0x3e9fefa5	0.31237522
35	0xbda29b34	-0.07939759
36	0x3ee3ca45	0.44490257
37	0xbd250611	-0.04028899
38	0xbf1bb442	-0.60821927
39	0x3f33f45f	0.70294756
40	0x3d946319	0.07245464
41	0x3dc6dd98	0.097102344
42	0x3d0b237b	0.033969384
43	0xbcda77d5	-0.026668468
44	0x3f46b459	0.7761894
45	0xbd0d881d	-0.034553636
46	0x3e5b1b60	0.21397161
47	0xbd0ad8e7	-0.03389826
48	0xbd542ccd	-0.051800538
49	0x3eaa36ac	0.33244836
50	0x3f383fa0	0.71972084
51	0x3e4a668d	0.19765683
52	0xbcedf2b2	-0.02904639
53	0x3dc1bc79	0.094597764
54	0x3db15143	0.086580776
55	0x3e865e99	0.26244047
56	0x3e6f80ad	0.2338893
57	0x3e0ca68d	0.13735409
58	0xbd939414	-0.07205978
59	0x3f095127	0.53639454
60	0xbe14b269	-0.14521183
61	0x3d9671d4	0.0734593
62	0x3e896b6f	0.26839778
63	0xbe35f7f1	-0.17770363
64	0x3e553179	0.20819654
65	0x3e95b67e	0.29240793
66	0xbdbb5da5	-0.09148721
67	0xbe9473d6	-0.28994626
68	0xbe645b02	-0.22300342
69	0xbdec47fd	-0.11537168
70	0x3d9dd446	0.077065036
71	0xbe573cc7	-0.21019278
72	0xbb8da1d6	-0.004322271
73	0xbe326d7b	-0.17424576
74	0x3e61ccb7	0.22050749
75	0x3d32e3bb	0.043674212
76	0xbc9824ca	-0.01857223
77	0xbc402e19	-0.011729741
78	0xbcd4ccb6	-0.02597652
79	0xbb9c94a6	-0.0047784625
80	0xbebcca1d	-0.3687295
81	0xbdfcd8f4	-0.12346068
82	0x3c694030	0.014236495
83	0x3c173b44	0.009230439
84	0xbd395522	-0.045247205
85	0x3c71e798	0.014764689
86	0x3d06e2c5	0.032931108
87	0xbd3c30a4	-0.045944825
88	0x3d8e9842	0.069626346
89	0x3e94f05f	0.2908964
90	0x3dc05d52	0.093927994
91	0x3cf969c8	0.030445948
92	0x3ea4710b	0.32117495
93	0xbe4a1465	-0.19734342
94	0x3e8d78f0	0.2763133
95	0xbd2ac9c9	-0.041696344
96	0x3cb6d0ee	0.022316422
97	0xbd21a4d2	-0.039463826
98	0x3c014a8f	0.007891311
99	0x3c9df35b	0.01928108
100	0x3b2acdf2	0.0026062694
101	0x3f46f022	0.77710164
102	0x3a28812c	0.00064279395
103	0xba77297f	-0.00094284856
104	0xbd9a7af3	-0.07542982
105	0xbf064476	-0.52448213
106	0x3dd65647	0.10465675
107	0x3edbe25c	0.42946136
108	0xbdd6b430	-0.10483587
109	0xbeb26130	-0.34839773
110	0x3e823d85	0.2543756
111	0xbeac8581	-0.33695605
112	0xbdf2248a	-0.118233755
113	0x3ed16b12	0.40902
114	0xbde15ec9	-0.11004407
115	0xbe1516ed	-0.14559527
116	0xbd7808a1	-0.060555104
117	0xbf06133b	-0.52373093
118	0xbef5961a	-0.4796608
119	0xbeb37fcc	-0.3505844
120	0x3d823cd4	0.06359258
121	0xbdc1fee4	-0.09472445
122	0xbe76271d	-0.24038358
123	0xbdbeaf7a	-0.09310813
124	0xbd84e2d7	-0.06488579
125	0xbd078931	-0.03308982
126	0xbe23b709	-0.15987791
127	0x3e2a33a7	0.16621266

stages.0.0.pwconv1.bias f4 [16]
0	0x3d12a6a8	0.035803467
1	0x3bfa5446	0.0076394407
2	0x3d635e07	0.055509593
3	0xbc6a21ad	-0.0142902555
4	0x3c74237a	0.014901036
5	0xbc47168d	-0.012151373
6	0x3cdca51d	0.0269342
7	0x3d740551	0.059575383
8	0x3d1f7d7e	0.038938038
9	0x3ca2d349	0.01987614
10	0x3c4b7c6d	0.012419802
11	0x3cf8954c	0.030344628
12	0x3c3717b6	0.011175087
13	0xbc33f398	-0.01098337
14	0x3d84e60a	0.06489189
15	0xbad78238	-0.0016442006

stages.0.0.pwconv2.weight f4 [8, 16]
0	0x3c3749c1	0.011187018
1	0xbee707de	-0.4512319
2	0x3e5a74b6	0.21333584
3	0x3c8b9f1c	0.017043643
4	0xbd764c2e	-0.060131244
5	0xbd656b78	-0.056010693
6	0xbeffc988	-0.49958444
7	0x3dcb36ff	0.09922599
8	0x3ea7124b	0.32631144
9	0xbcda64a2	-0.026659314
10	0xbd881536	-0.06644671
11	0x3c2b5e8e	0.010459555
12	0x3d1bed3e	0.03806805
13	0xbec15f11	-0.37767842
14	0xbf0152e2	-0.50517094
15	0x3cc8a54a	0.024492878
16	0xbebbfde9	-0.36717156
17	0x3d34a36f	0.044101175
18	0x3da2e7f8	0.07954401
19	0xbe01fd18	-0.12694204
20	0xbdc70001	-0.097167976
21	0xbc15222c	-0.0091023855
22	0xbd37484b	-0.04474668
23	0x3d8b48dd	0.06801007
24	0xbe9a03a9	-0.30080917
25	0x39b69491	0.00034824436
26	0xbd388cb9	-0.04505608
27	0xbd9001cb	-0.07031592
28	0xbda1ede9	-0.07906706
29	0x3e4ce40c	0.20008868
30	0x3e3fbfd4	0.1872552
31	0x3dca2d79	0.098719545
32	0xbb1f4d2b	-0.002430747
33	0xba9d9fad	-0.0012025737
34	0x3a8d1a5b	0.0010765301
35	0x3aadb30c	0.0013252213
36	0xbcfe21b3	-0.031021928
37	0xbe664839	-0.22488488
38	0xbc72147d	-0.014775393
39	0xbb85add1	-0.0040795584
40	0x3cc8abea	0.024496038
41	0x39e82c85	0.00044283658
42	0x3b29ba8e	0.0025898549
43	0x3d472ff1	0.048629705
44	0x3c8b91cf	0.0170373
45	0xb5f830a8	-1.8491601e-06
46	0x3d3183b7	0.043338504
47	0x3b12459c	0.0022319322
48	0x3db1b11e	0.086763605
49	0xbc0b7cc9	-0.008513638
50	0x3e9cd2ae	0.30629486
51	0xbc82a99c	-0.015950017
52	0x3c2525bf	0.0100798
53	0x3db43dbb	0.08800837
54	0xbe7220d8	-0.23645341
55	0x3baf7373	0.005354339
56	0xbce96cfa	-0.028494347
57	0xbbeb0436	-0.007172133
58	0x3e486cfc	0.19572824
59	0xbe6d0109	-0.23144926
60	0x3e245cac	0.16050977
61	0x3c2fed2d	0.010737699
62	0xbd1d0d3f	-0.03834271
63	0x3c69f969	0.014280655
64	0x3d191d8c	0.037381694
65	0x3e2bd159	0.16779079
66	0xbccb6e0e	-0.024832752
67	0x3e2f2f39	0.17107858
68	0xbeb1d5ca	-0.3473342
69	0x3ddac111	0.10681356
70	0x3d7b9089	0.061417136
71	0x3e73f760	0.23824835
72	0x3e906e44	0.28209126
73	0xbae7cfd4	-0.0017685839
74	0x3d645990	0.055749476
75	0xbe14d4ca	-0.14534298
76	0xbda1ec8f	-0.07906448
77	0x3e201f13	0.15636854
78	0xbe679c25	-0.22618158
79	0xbc75b467	-0.014996625
80	0x3d6af922	0.057366498
81	0xbd501360	-0.050799727
82	0xbcb545fe	-0.022128101
83	0x3d64ce50	0.055860817
84	0x3d9ee222	0.07757975
85	0xbdcdcc0a	-0.10048683
86	0xbe99b7eb	-0.3002313
87	0x3e875502	0.26432043
88	0x3eaed9b8	0.3415048
89	0xbe2057e8	-0.15658534
90	0xbd43983b	-0.0477526
91	0xbd8eed3b	-0.06978842
92	0xbe1bf532	-0.15230253
93	0x3d988108	0.07446486
94	0xbd20ed3a	-0.039288737
95	0xbd66f61d	-0.056387056
96	0x3ca6de8d	0.020369792
97	0x3e1f757d	0.15572162
98	0x3d79a7aa	0.060950913
99	0xbe0bdadf	-0.13657711
100	0x3e2f2c6c	0.1710679
101	0x3e048146	0.12939939
102	0x3db40381	0.08789731
103	0xbdcf7a66	-0.101307675
104	0xbd43a074	-0.047760442
105	0x3b127b16	0.0022351197
106	0x3d3a97dc	0.04555498
107	0x3d981eb2	0.0742773
108	0xbd10bb58	-0.035334915
109	0xbddce2d2	-0.1078545
110	0xbe4004d9	-0.18751849
111	0xbd474b59	-0.04865584
112	0xbc32d955	-0.010916074
113	0xbcbf3baf	-0.023343889
114	0x3eb49054	0.35266364
115	0xbcb08c52	-0.021551285
116	0x3e47fb36	0.19529423
117	0x3a8329f0	0.0010007005
118	0x3dc2ef42	0.09518291
119	0x3e86f7fb	0.2636107
120	0x3e036146	0.12830076
121	0x3d686a75	0.05674215
122	0x3dc9fd53	0.09862771
123	0xbdc03ef6	-0.09387009
124	0x3dc39658	0.0955016
125	0x3e3a94fd	0.18220897
126	0xbe9036f0	-0.28166914
127	0xbc401858	-0.011724554

stages.0.0.pwconv2.bias f4 [8]
0	0xb807be6a	-3.2363845e-05
1	0xb7bd989e	-2.2601624e-05
2	0x338065fb	5.9790146e-08
3	0xb6fda18e	-7.558795e-06
4	0x38851849	6.346458e-05
5	0x38cc5dfd	9.744985e-05
6	0x35d1ad49	1.5622146e-06
7	0x375d3e27	1.31870975e-05

stages.1.0.gamma f4 [16]
0	0xbab199aa	-0.0013549824
1	0xbcb0cfac	-0.0215834
2	0x3b8dbd35	0.0043255338
3	0x3c440497	0.011963985
4	0xbc24191c	-0.010015752
5	0x3c9b4d89	0.01895787
6	0x3b72ccaf	0.003704827
7	0xba36b498	-0.00069696596
8	0x3b676b43	0.0035311736
9	0x3b1138c2	0.0022159074
10	0x3c16ec3e	0.009211598
11	0x3a8ab4ac	0.0010582409
12	0x3ab86906	0.0014069385
13	0xbc0cde8d	-0.008597982
14	0x3c124ae0	0.008928984
15	0x3c3a4e8a	0.011371264

stages.1.0.norm.weight f4 [16]
0	0x3f0c3a23	0.5477621
1	0x3f0bcdf7	0.5461115
2	0x3f0ac416	0.54205453
3	0x3f06ed3f	0.5270576
4	0x3f0dbbf2	0.55364907
5	0x3f0cc5af	0.5498914
6	0x3f08497c	0.5323713
7	0x3f16cdd2	0.58907807
8	0x3f1539a9	0.5829111
9	0x3f152eae	0.5827435
10	0x3f1db5bb	0.61605424
11	0x3f02d049	0.5109907
12	0x3f0a24a4	0.5396216
13	0x3f148fd8	0.5803199
14	0x3f0c045b	0.54694146
15	0x3f086118	0.53273153

stages.1.0.norm.bias f4 [16]
0	0x3b4ee140	0.0031567365
1	0x3c3078ba	0.010770971
2	0xbcac2cbd	-0.021017427
3	0xbd038c0c	-0.03211598
4	0x3cf01206	0.02930547
5	0x3c830bd5	0.015996853
6	0xbbbb1f83	-0.0057105436
7	0x3cebe627	0.028796269
8	0xbd72c082	-0.05926562
9	0xb9c29382	-0.00037112465
10	0x3c45ce7f	0.012073158
11	0xbaf93507	-0.0019012996
12	0x3c305f3e	0.010764895
13	0x3c8e97fd	0.017406458
14	0x3c7620a3	0.01502243
15	0xbce9c2a0	-0.028535187

stages.1.0.norm.running_mean f4 [16]
0	0x3a751972	0.00093498
1	0x3aefe1da	0.0018301562
2	0x3bfbc1b4	0.0076830033
3	0xbbb92c76	-0.005651052
4	0x3c145fcc	0.009056043
5	0xba5cc0a5	-0.000842104
6	0x3b6422b6	0.0034810728
7	0x3b7cd877	0.0038581172
8	0x3d5ef729	0.05443493
9	0x3c045412	0.008076685
10	0xbb8dd792	-0.0043286765
11	0x390d8813	0.000134975
12	0x3c964d78	0.018347487
13	0x3c4d1ed2	0.012519555
14	0x3cbb0e5e	0.022834
15	0xbd058dee	-0.032606058

stages.1.0.norm.running_var f4 [16]
0	0x399db18e	0.00030077662
1	0x3b8902c7	0.0041812393
2	0x3b1e72bc	0.0024177274
3	0x39fd8e6e	0.0004836204
4	0x39d7f2d7	0.00041188925
5	0x3c790832	0.015199708
6	0x3a66d4d7	0.00088055193
7	0x3cb5219b	0.02211075
8	0x3af7552f	0.0018869991
9	0x39b8c5ed	0.0003524268
10	0x3bc77b45	0.006087693
11	0x3aa8164f	0.0012824031
12	0x3b0bb33c	0.0021316549
13	0x3a3b3665	0.00071415893
14	0x3b9a63bb	0.004711596
15	0x3b010109	0.0019684455

stages.1.0.pwconv1.weight f4 [32, 16]
0	0x3d1e77e5	0.03868856
1	0x3d9cb69c	0.076520175
2	0x3c5d2be4	0.013499234
3	0xbb7ce831	-0.0038590545
4	0xba442705	-0.0007482621
5	0xbc236f7e	-0.009975312
6	0xbc572b11	-0.013132826
7	0x3b4386d5	0.0029835005
8	0x3c9a3a0e	0.01882651
9	0x3c3212ba	0.010868723
10	0xbcbf6155	-0.023361841
11	0x3c77e4e3	0.015130254
12	0xbc12a0ef	-0.008949502
13	0x3b48bb61	0.0030629265
14	0xbd1ef768	-0.038810164
15	0x3cc086b1	0.023501726
16	0x3caabff7	0.02084349
17	0xbe078aa3	-0.1323648
18	0xbc7fd19b	-0.015613939
19	0xbc57f3db	-0.013180698
20	0xbd0c5f62	-0.03427065
21	0xbd2a810c	-0.041626975
22	0x3d01496d	0.031564165
23	0xbc08ac6d	-0.008341891
24	0xbcbb5286	-0.022866499
25	0xbbd403b7	-0.0064701694
26	0x3cc25179	0.02372049
27	0xbcfd14e6	-0.030893754
28	0x3e7f4ed6	0.24932417
29	0x3b80dbe9	0.0039324653
30	0x3c0bd035	0.008533527
31	0x3b8b6b25	0.004254716
32	0x3d8a28ee	0.06746088
33	0x3e329031	0.17437817
34	0x3d68e117	0.056855287
35	0x3d869996	0.06572263
36	0xbc3e1ab8	-0.01160305
37	0xbc930a41	-0.017949225
38	0xbd3304e9	-0.043705855
39	0xbb9dc8e9	-0.00481521
40	0xbe302750	-0.17202497
41	0x3e84e9d9	0.25959662
42	0x3cbbab5e	0.022908863
43	0xbdae6385	-0.085150756
44	0xbc8a280b	-0.016864797
45	0xbc2a32ee	-0.010388119
46	0x3d45ec24	0.048320904
47	0x3e07698a	0.13223854
48	0x3c0a3426	0.008435285
49	0x3b288371	0.002571311
50	0x3c9233d3	0.017846977
51	0xbe0d4230	-0.1379478
52	0xbbf73172	-0.007543736
53	0x3c718316	0.014740726
54	0x3c9823ec	0.018571816
55	0xbba2300b	-0.004949575
56	0x3e54bf58	0.20776117
57	0x3d4f3aff	0.050593372
58	0xbd490b50	-0.049083054
59	0x3c8e5022	0.017372195
60	0xbc3cd29f	-0.011524825
61	0x3c7ed3a3	0.015553388
62	0xbc8fe5c5	-0.017565617
63	0xbe45eeff	-0.19329451
64	0xbbc68a01	-0.006058932
65	0x3cab4988	0.020909086
66	0x3e8c9943	0.2746068
67	0x3a4c8d44	0.00078030326
68	0x3c1df8d6	0.009641847
69	0x3da82b0d	0.08211336
70	0x3cb0d858	0.021587536
71	0xbe2b9efe	-0.1675987
72	0x3da7169e	0.08158611
73	0x3d564f83	0.052321922
74	0x3ce3e9a6	0.027821373
75	0xbc90b814	-0.0176659
76	0xbd8c1824	-0.06840542
77	0x3c09a6c7	0.008401579
78	0xbd36df74	-0.044646695
79	0x3e4c903b	0.19976895
80	0xbd9ccfe2	-0.07656838
81	0xbc10023b	-0.008789594
82	0xbe688f93	-0.22711019
83	0xbd06d8ad	-0.032921482
84	0x3d7306ab	0.05933253
85	0xbd4912e9	-0.0490903
86	0xbd2b47ed	-0.04181664
87	0x3bd25728	0.0064190812
88	0xbe8f2412	-0.27957207
89	0xbe346777	-0.17617594
90	0xbcef9305	-0.029244909
91	0xbd81a8bd	-0.063310124
92	0xbb284abd	-0.0025679313
93	0xbe534c91	-0.20634677
94	0x3bcb2a03	0.0062000765
95	0xbe90b612	-0.2826391
96	0xbc093c53	-0.008376199
97	0xbc1ca10a	-0.009559879
98	0x3d238fbc	0.039931998
99	0xbcd54167	-0.026032163
100	0x3eb776f1	0.35832933
101	0x3d593497	0.05302867
102	0xbea5127b	-0.32240662
103	0xbdcd7cc3	-0.10033562
104	0xbf0190a8	-0.5061135
105	0x3d87f7ae	0.06639038
106	0xbc8e7278	-0.017388567
107	0x3d944c4b	0.07241114
108	0xbe380e55	-0.17974217
109	0x3d4f5c72	0.050625272
110	0xbe68bc91	-0.22728182
111	0xbd99a16c	-0.07501492
112	0x3d84b908	0.064806044
113	0xbe545ff6	-0.20739731
114	0xb92310ea	-0.00015551192
115	0xbd1fbb35	-0.038996894
116	0x3c7776d4	0.015104014
117	0xbd2ecd07	-0.042675998
118	0x3d5a3d87	0.053281333
119	0xbeef910b	-0.46790347
120	0x3bf6d425	0.007532614
121	0xbdaf7492	-0.08567156
122	0xbe5e4726	-0.21706828
123	0xbad34f86	-0.0016121722
124	0x3dcdcea6	0.10049181
125	0xbafe1e04	-0.0019387607
126	0xbe10b62a	-0.1413199
127	0xbd14c510	-0.036320746
128	0xbd8da969	-0.06917078
129	0x3c3a4100	0.011368036
130	0x3e94fc8f	0.29098937
131	0xbe660606	-0.22463235
132	0x3bdfe063	0.006832169
133	0x3da23c44	0.07921651
134	0x3cfb8905	0.030704984
135	0xbca50409	-0.020143526
136	0x3d884353	0.06653466
137	0xbc74f489	-0.01495088
138	0xbe358eac	-0.17730206
139	0x3d53e6ca	0.05173377
140	0x3d40d387	0.04707673
141	0x3d48465c	0.048895225
142	0xbbd84ddc	-0.0066010784
143	0x3c75cdba	0.015002662
144	0x3f0bb8b7	0.5457873
145	0xbe06e56e	-0.13173458
146	0xbb6848e1	-0.003544383
147	0x3c120df8	0.008914463
148	0x3d91fdba	0.071284726
149	0xbc090858	-0.008363806
150	0xbe417988	-0.18894017
151	0xbc98cdbf	-0.018652795
152	0xbe8db806	-0.2767946
153	0xbcdca3ed	-0.026933635
154	0xbce17219	-0.027520226
155	0x3e486f5e	0.19573733
156	0xbd2a239c	-0.041537866
157	0xbd54c38e	-0.051944308
158	0xbc71e1c8	-0.014763303
159	0xbc2528f3	-0.010080564
160	0x3e911369	0.2833512
161	0x3d895da4	0.06707314
162	0x3da64287	0.08118158
163	0xbb3974d2	-0.002829839
164	0xbda8118f	-0.08206474
165	0xbdc13222	-0.0943339
166	0xbce5ae6a	-0.028037269
167	0x3dc5f700	0.09666252
168	0x3affbde4	0.0019511548
169	0xbcf33cd3	-0.02969209
170	0xbdab6a57	-0.08369892
171	0xbdab33a2	-0.083594576
172	0xbd4954a8	-0.049153
173	0x3d6c082b	0.057624977
174	0x3d03b284	0.032152668
175	0x3d977cf1	0.073968776
176	0x3d9e6de7	0.07735806
177	0xbdf645e2	-0.12025048
178	0xba9a9c01	-0.001179576
179	0x3c7d8b09	0.015475043
180	0xb95b5184	-0.00020915834
181	0x3d1f9b26	0.03896632
182	0x3d66c5d5	0.05634101
183	0xbe8f54dc	-0.2799443
184	0x3b8746c9	0.0041283113
185	0xbb0feece	-0.0021962407
186	0xba9a4150	-0.0011768732
187	0x3e16a205	0.14710243
188	0xba5cc411	-0.000842155
189	0x3c88661d	0.016650254
190	0x3c37450a	0.011185894
191	0xbd477081	-0.048691276
192	0xbbf33a71	-0.0074227382
193	0xbcef364f	-0.029200701
194	0x3d1e9437	0.038715567
195	0xbd57f7db	-0.052726608
196	0x3d0486ce	0.032355122
197	0xbd9009ff	-0.070331566
198	0xbd191ae7	-0.03737917
199	0x3d5e1757	0.054221477
200	0x3f146714	0.57969785
201	0x3e32e58b	0.17470376
202	0xbc606cab	-0.013697783
203	0xbdaf9d2c	-0.085749
204	0xbe4b14a7	-0.19832097
205	0xbcea15fb	-0.028574934
206	0x3c062951	0.008188562
207	0xbd0b615a	-0.03402839
208	0xbe0e4a1f	-0.13895462
209	0xbd19057f	-0.037358757
210	0x3ceb1014	0.02869419
211	0xbcc7dbbc	-0.02439677
212	0xbb22e64a	-0.0024856501
213	0x3c8cfc11	0.017210038
214	0x3b057968	0.0020366553
215	0x3d0c6857	0.034279194
216	0x3e9e0961	0.3086653
217	0x3c829ef8	0.015944943
218	0x3c7637ee	0.015027983
219	0x3c90957f	0.01764941
220	0x3d6e61a2	0.05819858
221	0x3d516555	0.05112203
222	0x3c7d676d	0.015466553
223	0xbcd985c1	-0.026553037
224	0xbc14a641	-0.009072841
225	0x3d3cc094	0.046082094
226	0x3c5b4115	0.013382216
227	0xbe82a462	-0.2551604
228	0xbdcda560	-0.100413084
229	0xbd216e07	-0.03941157
230	0x3adca524	0.0016833884
231	0x3e51dea6	0.2049509
232	0x3d7ca40c	0.061679885
233	0xbd229c38	-0.039699763
234	0x3d92ab80	0.07161617
235	0x3e46ed2e	0.19426414
236	0x3d449c05	0.048000354
237	0xbbdc9dae	-0.006732664
238	0x3c494493	0.012284416
239	0x3d68a698	0.0567995
240	0xbe014e84	-0.12627608
241	0x3d303fad	0.043029476
242	0x3e980085	0.29687896
243	0xbce74437	-0.02823077
244	0x3ea47f45	0.3212835
245	0xb8d1e905	-0.000100093
246	0xbcba8c4f	-0.022771982
247	0x3c906804	0.017627724
248	0xbebdff8e	-0.37109035
249	0xbdf45d03	-0.11931803
250	0xbc9d3311	-0.01918939
251	0xbbcc7066	-0.006238985
252	0x3e1a471e	0.15066192
253	0xbc85782f	-0.01629266
254	0xbe60413e	-0.21899888
255	0x3e860495	0.2617537

stages.1.0.pwconv1.bias f4 [32]
0	0x3b62a0e0	0.0034580752
1	0x3c06e7be	0.008233963
2	0x3abcac36	0.0014394585
3	0x3ba5eb77	0.00506347
4	0xbca7bf62	-0.020477
5	0x3d5210af	0.051285442
6	0xbceccd23	-0.02890641
7	0x3cad4b4d	0.02115407
8	0xbc79eab0	-0.015253708
9	0x3d5131ad	0.051072765
10	0xbb5ab7c3	-0.003337369
11	0x3afd9992	0.0019348136
12	0xbd2272ba	-0.039660193
13	0x3cf9fae0	0.030515134
14	0x3a3b4c71	0.00071448745
15	0x3ab5d68c	0.0013873144
16	0x3c18286f	0.009286984
17	0x3c0adb6f	0.008475169
18	0xbc5fdc0c	-0.013663303
19	0xbd93aad2	-0.07210316
20	0x3c92fc07	0.017942442
21	0x3d88e993	0.06685176
22	0xbc90f16c	-0.017693244
23	0xbc3d65a5	-0.0115598785
24	0xbd43e32a	-0.047824062
25	0x3d879c01	0.06621552
26	0x3d19f2ee	0.03758519
27	0x3c1dee3d	0.00963932
28	0x3c08eaa5	0.008356725
29	0x3c9b9d12	0.018995795
30	0x3c251cd5	0.010077675
31	0xbcb61bb3	-0.022230005

stages.1.0.pwconv2.weight f4 [16, 32]
0	0xbb01571a	-0.0019735754
1	0xba33d6aa	-0.00068602955
2	0x3aef15dd	0.0018240769
3	0xb9e89eb8	-0.00044368743
4	0xbaeccb6f	-0.0018065999
5	0xbd03b213	-0.032152247
6	0x393f40b5	0.00018239285
7	0xba18c2a6	-0.0005827345
8	0xbb1e269c	-0.00241319
9	0x3850d78c	4.9791808e-05
10	0xbb384758	-0.0028118696
11	0x3b309ea6	0.002695003
12	0x3c1e4c88	0.009661801
13	0xb7b5feee	-2.1695592e-05
14	0x38df6a37	0.00010653253
15	0xb9a18825	-0.0003080975
16	0x3b4ca0b1	0.003122371
17	0x3c3bdc81	0.011466146
18	0x3b86ba01	0.004111529
19	0xbd9b504e	-0.07583676
20	0xb9e09a8a	-0.0004283975
21	0x3bcf3711	0.006323703
22	0x3aab4f21	0.0013069847
23	0x3b8514e9	0.0040613306
24	0x3b867e39	0.0041044024
25	0x3a86fd0d	0.0010298804
26	0x3ce1f19c	0.027581029
27	0xbb6576cf	-0.0035013442
28	0x3991a91a	0.00027782546
29	0xb99dbb9d	-0.00030085156
30	0x3b070ccf	0.0020607
31	0x3bb588ed	0.0055400045
32	0x3d686ac6	0.056742452
33	0x3d5c26cd	0.05374794
34	0xbd37d4ef	-0.044880804
35	0x3dadd272	0.08487405
36	0x3dbd494a	0.092424944
37	0xbe193749	-0.14962496
38	0xbd05e4da	-0.032688953
39	0xbd780513	-0.060551714
40	0xbde19b65	-0.11015967
41	0x3cbcad42	0.023031835
42	0x3d9f825e	0.077885374
43	0xbd625ace	-0.05526238
44	0xbd5d7615	-0.05406769
45	0xbc8d9025	-0.017280648
46	0xbe014e47	-0.12627517
47	0x3d6147ac	0.054999992
48	0xbddb65b3	-0.10712757
49	0xbdcb89f1	-0.099384196
50	0x3bc96aaa	0.0061467486
51	0xbce3de86	-0.027816068
52	0x3c93f779	0.01806234
53	0x3e5aad43	0.21355157
54	0x3990aacd	0.00027593077
55	0xbe8accaa	-0.2710927
56	0x3d8fa305	0.070135154
57	0xbdd5bf5c	-0.104368895
58	0xbdf17e0d	-0.117916204
59	0x3dd3697d	0.10322855
60	0x3e402171	0.18762757
61	0x3cfc874b	0.030826231
62	0x3de7c4b1	0.11316813
63	0xbdbdf176	-0.09274571
64	0x3c481529	0.012212076
65	0x3cc1c39e	0.023652848
66	0xbdbd25d6	-0.09235732
67	0xbc45ac19	-0.012064957
68	0x3c3f42e3	0.011673662
69	0x3ba32499	0.004978728
70	0x3c18ec91	0.009333746
71	0x3cbecc05	0.023290643
72	0xbc2e5f5c	-0.010642853
73	0xbbef50d8	-0.0073033385
74	0x3ce6ebc4	0.028188594
75	0xb9181a40	-0.00014505628
76	0xbc29a1ee	-0.010353548
77	0x3c18bef9	0.009322875
78	0x3c065833	0.008199739
79	0x3ca13a4f	0.019681124
80	0xbbabce22	-0.005243079
81	0x3e06cc5b	0.13163893
82	0x3b61f33f	0.0034477261
83	0xbc0aba7c	-0.008467313
84	0x3c7afbce	0.015318824
85	0x39cf28ff	0.0003951266
86	0x3cdb6050	0.026779324
87	0x3a95afa4	0.0011420143
88	0xbb55a5d4	-0.0032600062
89	0xbc0dd7b8	-0.008657388
90	0x3987c3f3	0.000258952
91	0x3cfcb917	0.030849976
92	0xbc06fdd5	-0.008239229
93	0x3c30b2bc	0.010784801
94	0x3cbf3080	0.023338556
95	0x3bbc5256	0.00574712
96	0xbaf4ee26	-0.0018686696
97	0xbc047e16	-0.008086702
98	0x3c1f48ce	0.009721948
99	0x3a81d657	0.0009905797
100	0xbc55a29b	-0.013039256
101	0xbb33e512	-0.002744977
102	0xba9b1420	-0.0011831559
103	0xbbc483e6	-0.005997169
104	0x3c913f85	0.017730484
105	0x3c9009a6	0.017582726
106	0xbc5d0247	-0.0134893125
107	0x3c0513f9	0.008122438
108	0x3bc666a4	0.006054716
109	0x39e439b9	0.00043530556
110	0xba8efc7f	-0.001090899
111	0xbc4b7559	-0.012418115
112	0x3a2e850a	0.00066573976
113	0x3c4751bf	0.012165486
114	0x3be155f2	0.0068767006
115	0x3bb08f85	0.0053882026
116	0xbbbc19de	-0.0057403883
117	0x3b9cf8df	0.00479041
118	0x3c8e81ab	0.017395815
119	0xbc6d6655	-0.01448973
120	0xba0f850b	-0.0005474842
121	0x3af03de9	0.0018328998
122	0x3bf81208	0.007570509
123	0xbc8959e9	-0.016766505
124	0xbce3f8f1	-0.027828665
125	0xbc0141ca	-0.0078892205
126	0x3b2100e3	0.002456718
127	0xbc639721	-0.013891012
128	0xbb9bdd79	-0.004756626
129	0xbbb060ef	-0.005382649
130	0xbb39cdb3	-0.0028351366
131	0x3b1659e6	0.0022941767
132	0xbc5109e0	-0.012758702
133	0xbc0db432	-0.008648919
134	0xbc33b06a	-0.010967353
135	0xbb360b82	-0.0027777855
136	0x3cdce512	0.026964698
137	0xbc4f8df6	-0.0126681235
138	0x3c0d4c04	0.008624081
139	0x3ba9a455	0.0051770606
140	0xbba382df	-0.0049899663
141	0xbc38a92b	-0.011270802
142	0xbb757f5d	-0.0037459948
143	0xbc426698	-0.011865281
144	0x3b446751	0.0029968808
145	0xbc61a14b	-0.013771365
146	0xb93b3113	-0.00017851991
147	0xbbb531d6	-0.0055296225
148	0xbba0295b	-0.0048877425
149	0x3b15ca7b	0.0022856283
150	0x3c240bbd	0.010012564
151	0xbc058edd	-0.008151737
152	0xbc17bbae	-0.009261055
153	0x3c201f8f	0.009773149
154	0x3c46a486	0.012124186
155	0x3d31a60a	0.043371238
156	0x39e9709d	0.00044525127
157	0xbb47e4b9	-0.003050132
158	0xbc40f5e3	-0.011777374
159	0xbbbf6da1	-0.005841926
160	0x3b90e247	0.0044215056
161	0xbc510d93	-0.012759584
162	0xbd262bea	-0.040569223
163	0x3d467a87	0.048456695
164	0xbd6d11b5	-0.057878215
165	0x3a9e2e96	0.0012068327
166	0xbe204f1a	-0.15655175
167	0xbdb6d4ec	-0.089273304
168	0xbdb04c28	-0.08608276
169	0x3ddc8b13	0.10768714
170	0xbe1fc0ab	-0.15600841
171	0x3c29560f	0.010335459
172	0xbdd53a44	-0.10411504
173	0x3d93f22c	0.07223925
174	0xbd3e9371	-0.04652733
175	0xbc39351a	-0.011304164
176	0xbbd1027a	-0.006378469
177	0xbd8f206d	-0.069886066
178	0xbcd503c0	-0.026002765
179	0xbe44adf0	-0.19206977
180	0xbd46db15	-0.048548777
181	0x3dcc4307	0.09973722
182	0x3d2c61b4	0.042085364
183	0x3d8299b5	0.063769735
184	0xbe094d1b	-0.1340832
185	0xbd18f035	-0.037338454
186	0xbdc0fba4	-0.09422997
187	0x3d2853b6	0.041095458
188	0xbc2290a4	-0.00992218
189	0xbdbcf64a	-0.092266634
190	0x3c5ce27f	0.013481735
191	0xbd95e84a	-0.07319696
192	0xba0a1b60	-0.00052683614
193	0xbc22e019	-0.009941124
194	0x3a16ff63	0.00057601015
195	0xbc631028	-0.013858832
196	0xbcadacc5	-0.021200547
197	0x3c3166e1	0.010827751
198	0x3c8cba72	0.017178748
199	0xbc73f0cb	-0.0148889525
200	0x3ceb00ed	0.028686965
201	0x3a84bee4	0.0010127691
202	0xbbbf7bd1	-0.0058436175
203	0xbbe38363	-0.0069431528
204	0xbe0bb218	-0.13642156
205	0x3ade91f9	0.0016980759
206	0x3b23d4cf	0.002499867
207	0x3d00f869	0.031486902
208	0xbc357692	-0.011075633
209	0x3ba20806	0.004944804
210	0xbba7242c	-0.0051007476
211	0xbc25044c	-0.010071825
212	0x3ab7845e	0.001400124
213	0xbb55cdcd	-0.0032623888
214	0x3b8a3eca	0.004218911
215	0xbca8e013	-0.02061466
216	0xbbc14c0d	-0.0058989585
217	0xbaf2ac10	-0.0018514413
218	0xbdb99ebf	-0.090634815
219	0xbb912122	-0.0044289986
220	0xbc0772b0	-0.00826709
221	0x3a5397f2	0.0008071653
222	0x3796979a	1.7951988e-05
223	0xbb662676	-0.003511814
224	0xb95bf9fb	-0.00020978593
225	0xbabc00db	-0.0014343517
226	0xbac26238	-0.0014830297
227	0xb9fda22e	-0.00048376754
228	0xba1fb5d8	-0.00060924655
229	0xbb1a8c85	-0.0023582291
230	0xbb4975e2	-0.003074043
231	0xba6aba85	-0.0008954185
232	0x3a59d728	0.0008309954
233	0xbb82689b	-0.003979755
234	0x3a0170f6	0.0004937792
235	0xbbfb954f	-0.007677711
236	0xbb13ff7e	-0.0022582705
237	0xba7b6f6a	-0.0009591492
238	0xba9a73d8	-0.0011783792
239	0xbb959a83	-0.0045655384
240	0x3a493c5b	0.0007676535
241	0xb98e4623	-0.00027136607
242	0xbb2f4733	-0.002674532
243	0xbadbe3d2	-0.001677627
244	0xbad25659	-0.0016047462
245	0xbb17a3b7	-0.0023138353
246	0xbec60297	-0.3867385
247	0xbad53385	-0.0016265964
248	0x3a59deb1	0.00083110767
249	0x3b5094a9	0.003182689
250	0x3b74a0cf	0.0037327295
251	0xbac3cfb9	-0.0014939226
252	0xba41d838	-0.0007394585
253	0xb95152c9	-0.00019962633
254	0xbbcb9fc4	-0.006214114
255	0xbaa94982	-0.0012915584

stages.1.0.pwconv2.bias f4 [16]
0	0xb5ce350a	-1.5363632e-06
1	0xb80c2e63	-3.3421802e-05
2	0x3669c9c2	3.4837144e-06
3	0xb690ce18	-4.315527e-06
4	0xb7c3ce47	-2.3341867e-05
5	0x3848ffbc	4.7921887e-05
6	0x358d110a	1.0510278e-06
7	0xb66276ba	-3.3745732e-06
8	0x3758e1f9	1.2927217e-05
9	0x372320a6	9.723159e-06
10	0xb6132aba	-2.1929577e-06
11	0x368942b3	4.090683e-06
12	0x3531a5d1	6.6178933e-07
13	0xb7a8af8e	-2.010891e-05
14	0x3868d085	5.550731e-05
15	0xb380a01c	-5.989588e-08

stages.2.0.gamma f4 [32]
0	0x8e1f5c6a	-1.9642759e-30
1	0x3e630acc	0.22172087
2	0x3e542f81	0.20721246
3	0x3e5f0c59	0.21782054
4	0x3e9eb649	0.30998448
5	0xbe518e91	-0.20464541
6	0xbe58dd7f	-0.21178244
7	0x3ea711c4	0.32630742
8	0x3ea611b5	0.32435384
9	0x3e6af156	0.22943625
10	0x3e425106	0.1897622
11	0x3e51dabd	0.20493598
12	0xbe5b5d5b	-0.21422331
13	0x3e53eae1	0.20695068
14	0xbe5bc1a9	-0.21460594
15	0x3e57d3f2	0.21076944
16	0x3eaed84b	0.34149393
17	0x3e91fcbb	0.2851313
18	0x3e7eaa6a	0.24869695
19	0x3e52b014	0.20574981
20	0xbe930452	-0.28714234
21	0x3e8442c2	0.25832182
22	0xbe660e2c	-0.22466344
23	0xbe7c8437	-0.24659811
24	0x3e83560d	0.2565159
25	0x3e85134f	0.25991294
26	0x3e57cd29	0.21074356
27	0xbe95d5e8	-0.2926476
28	0xbe6b3cc0	-0.22972393
29	0x3e9f9c3d	0.31173888
30	0xbe4d0d69	-0.20024647
31	0x3e5d39c6	0.2160407

stages.2.0.norm.weight f4 [32]
0	0x3ee45399	0.4459503
1	0x3ee498c2	0.44647795
2	0x3ee33b83	0.4438134
3	0x3ee5d7ff	0.44891354
4	0x3ef3437b	0.4751242
5	0x3ee966b5	0.45586172
6	0x3eeb6489	0.4597514
7	0x3ee87306	0.45400256
8	0x3ee37a98	0.4442947
9	0x3f01d503	0.50715655
10	0x3f03ac13	0.5143444
11	0x3ee6296b	0.44953474
12	0x3ee36c8d	0.44418755
13	0x3ee662af	0.44997165
14	0x3ee6b097	0.45056602
15	0x3ee5a56d	0.44852772
16	0x3ef9fd9d	0.48826304
17	0x3ee66d39	0.45005205
18	0x3ee5ab2d	0.4485716
19	0x3eed34d7	0.46329376
20	0x3ef587cf	0.47955176
21	0x3ee33c21	0.44381812
22	0x3ee68bfd	0.45028678
23	0x3ee6d036	0.45080727
24	0x3eeb1624	0.4591533
25	0x3ee79652	0.45231873
26	0x3ee9d917	0.4567344
27	0x3eeb4398	0.45950007
28	0x3ee67e71	0.45018342
29	0x3ee644b1	0.44974282
30	0x3ee8b676	0.45451707
31	0x3ee7504f	0.45178458

stages.2.0.norm.bias f4 [32]
0	0xbc67adec	-0.014140587
1	0xbbfafa92	-0.007659265
2	0xbcc13bea	-0.02358814
3	0xbca2558e	-0.019816186
4	0xbd30681d	-0.04306804
5	0xbcacba0b	-0.021084806
6	0x3b9a904e	0.0047169095
7	0xbc1f8606	-0.0097365435
8	0x3cd8f79d	0.026485259
9	0xbc29b09d	-0.010357049
10	0xbcbdc028	-0.023162916
11	0xbb0b1892	-0.0021224362
12	0x3c87fd07	0.016600145
13	0x3ae68eca	0.0017590162
14	0xbd16e8f6	-0.036843263
15	0x3c40ca1a	0.011766935
16	0xbbdfbd40	-0.0068279803
17	0x3b521de0	0.0032061264
18	0xbccb665f	-0.024829088
19	0xbcd8d435	-0.026468376
20	0x3c864532	0.016390417
21	0xba14a9a8	-0.00056710327
22	0xbcbb17d6	-0.022838514
23	0xbd06cc95	-0.03290995
24	0xbbe2e663	-0.006924437
25	0x3cf895bb	0.030344835
26	0xbcd85dc1	-0.026411893
27	0x3c310790	0.010805026
28	0x3cd8918e	0.026436593
29	0xbd27ed9c	-0.040998086
30	0xbc418acb	-0.011812876
31	0x3c5f9713	0.013646859

stages.2.0.norm.running_mean f4 [32]
0	0xbac6352a	-0.0015122045
1	0xbab3c1ef	-0.0013714413
2	0x3a88bcd9	0.0010432258
3	0xbb376247	-0.0027982162
4	0x3b5f4d75	0.0034073268
5	0x3b8b9ec1	0.0042608683
6	0xbb4f7f9c	-0.0031661754
7	0xbc0c1d7d	-0.008551952
8	0xba8865a8	-0.0010406272
9	0xbbd4aab1	-0.0064900746
10	0xbba67359	-0.0050796685
11	0x3a37cebc	0.0007011702
12	0xb993557e	-0.00028101722
13	0xbb96cbab	-0.004601916
14	0xbadd9440	-0.0016905144
15	0xb8cfab37	-9.9024204e-05
16	0x39a232d0	0.00030936906
17	0xbb03cf20	-0.002011247
18	0xb9cbfc07	-0.00038906952
19	0x3b78e2c7	0.0037976967
20	0xbc07f710	-0.00829865
21	0xba22b479	-0.0006206702
22	0x3b6f948b	0.0036557044
23	0x3974f14b	0.00023359542
24	0x3bc03964	0.0058662165
25	0xba236fab	-0.00062345964
26	0x3b2021ec	0.0024434282
27	0x3c254799	0.010087871
28	0xbbb8e69e	-0.005642726
29	0x3ac596ae	0.0015074813
30	0x3aa3cf7c	0.0012497748
31	0x39d4a07a	0.00040555355

stages.2.0.norm.running_var f4 [32]
0	0x38f27004	0.00011560324
1	0x372d0702	1.0313235e-05
2	0x3b6d942a	0.0036251643
3	0x35f87037	1.8510099e-06
4	0x3890394c	6.8771275e-05
5	0x3724d787	9.825343e-06
6	0x36cf661f	6.180969e-06
7	0x3a1643ab	0.0005732129
8	0x37639a61	1.35661985e-05
9	0x371dd16e	9.406691e-06
10	0x39149500	0.00014169887
11	0x3787b39a	1.6176888e-05
12	0x3832b1ae	4.2603984e-05
13	0x38ed0197	0.00011301337
14	0x373e843a	1.1355669e-05
15	0x3876a764	5.8806865e-05
16	0x3823e952	3.9079525e-05
17	0x38eea39c	0.00011379199
18	0x3792f448	1.7518309e-05
19	0x36d3e36f	6.314767e-06
20	0x3b21b42c	0.0024674041
21	0x3a1bb34a	0.0005939497
22	0x38fc84fe	0.00012041068
23	0x37866cd8	1.602473e-05
24	0x37228279	9.6863305e-06
25	0x370fbd03	8.567472e-06
26	0x38225af2	3.870851e-05
27	0x395add2c	0.00020872493
28	0x39a70e93	0.0003186358
29	0x373f1a2a	1.1390579e-05
30	0x3713c560	8.807838e-06
31	0x370f1a4c	8.529587e-06
