saved_models/96_polygen_myconvnext_2022_01_21_19_08_20.pt (torch, 132644 bytes, 125 tensors)

connection_layers.0.weight f4 [8, 1]
00000000: 18b1 c6bf 9a85 b53f b897 a3bf 6683 4abf
00000010: 6a02 f1be c689 91bf 151e 4ebf 3f00 bfbc
-1.5522795 1.4181397 -1.2780676 -0.7910675 -0.47072154 -1.137017 -0.8051465 -0.023315547

connection_layers.0.bias f4 [8]
00000000: 5978 e337 7517 ca37 96c0 a337 934a d137
00000010: 9a1f 0238 afbc a237 8d9c 8637 422c 183a
2.711655e-05 2.40912e-05 1.9520794e-05 2.4949468e-05 3.1023847e-05 1.9399768e-05 1.6046944e-05 0.0005804935

connection_layers.1.weight f4 [16, 8]
00000000: 8e57 ffbd b421 313b 5f39 8d3d 1a94 2c3e
00000010: d129 9fbd c685 903e 84aa bf3d 67d9 a13d
00000020: ce84 ca3d 77f4 d43d 2cc3 e0bb 637e 18be
00000030: 23e2 a03a 13c2 dbbc 781e a83e 3cbe 333d
00000040: c1ce 2dbf 8c96 c8bd 9bd5 2cbe c1fb 55bd
00000050: 5360 e03a 19f1 7f3d b945 943e 355b a9ba
00000060: 48e8 d53d 3cd8 8b3c 7a6d d3bd 937a babe
00000070: 83ea 05bb 287b e23d 14f8 593c b667 ff3e
00000080: 0c1a 6dbe 55aa e5bb 5fcb ddbe fe13 c9bd
00000090: 23cc af3e 3d30 16bd 3a34 693e 195f 5b3d
000000a0: acbb 03bf 51b0 09bd 1838 66bf 03a7 0e3f
000000b0: e2d7 1b3b 0c17 163d d436 183e fdc3 c23d
000000c0: f123 7a3e 343f 163d b716 a0be 5bd8 813e
000000d0: e121 5c39 eb47 24be d070 953e adf4 f43c
000000e0: 7172 1fbe 0cd4 e03d 4d27 94be b85c e93e
000000f0: 6a33 d3be 2763 843d 4557 a73e 73ac 88be
00000100: bc38 0e3e af27 e8bd ec6c 97bd 6e8c 26be
00000110: aec7 ebbd 3241 e33e d3e9 443b a1c4 353f
00000120: 3f78 74be 0999 d03d 4c84 213e d2e8 47be
00000130: da16 bd3a 891c 403e 0a48 99be fc44 8d3c
00000140: d0b0 b0bd 3255 91bd 67f4 753e a88d ea3c
00000150: 5f5a 0cbe 388a b3be 8ede 133e 953f 763b
00000160: 7779 2bbe 5c98 873d 8c67 963e ea39 8a3e
00000170: 00f5 1bbb dfd8 3bbe 8b02 2b3d e725 4c3e
00000180: ccc1 65be 565b 133f 4b8e c73d a2f1 a83d
00000190: 772c b1be d0d7 00bd 59d6 b1bd 2979 623e
000001a0: a29d babc a6e0 c2bd e7b2 72bd 5efa 0b3e
000001b0: 4b54 953b 310d dabd 7438 5fbe c6fc cbbc
000001c0: c865 623e ed69 743c 7dcd 47be 3dec 9d3b
000001d0: e5e3 353b d96e 0c3e dd0a 9abc cd72 843e
000001e0: b358 09be 145f 98be 9482 c53d 5817 8fbe
000001f0: 2d5d 433d 0a2a d33e 193b 10be d9cf a23d
-0.124678716 0.0027028145 0.06895708 0.16853371 -0.07771648 0.2822706 0.09358695 0.07902794
0.09888612 0.103981905 -0.006859204 -0.14891963 0.0012274425 -0.02682594 0.32835746 0.043882594
-0.67893606 -0.097943395 -0.16878359 -0.052242044 0.0017118551 0.062485788 0.28959444 -0.0012920859
0.10444695 0.017070882 -0.10323615 -0.36421642 -0.002043397 0.110586464 0.013303775 0.49883813
-0.23154467 -0.0070088306 -0.43319222 -0.09818266 0.3433543 -0.036667097 0.22773829 0.05355749
-0.5145824 -0.033615414 -0.8992934 0.5572359 0.00237798 0.036643073 0.14864665 0.09510038
0.24427773 0.03668137 -0.3126733 0.2536038 0.00020993456 -0.1604306 0.29187632 0.029901827
-0.15571 0.10977945 -0.28936234 0.4557855 -0.41250163 0.06464224 0.3268377 -0.26694068
0.1388883 -0.11335694 -0.07393822 -0.16264507 -0.11512695 0.44385678 0.0030046597 0.71003157
-0.23873995 0.10185439 0.15773124 -0.19522408 0.0014426366 0.18760885 -0.29937774 0.017244808
-0.08627474 -0.07096328 0.24019013 0.028632 -0.13706349 -0.3506639 0.14440367 0.003757452
-0.16745554 0.06620857 0.29375875 0.2699731 -0.0023797154 -0.18344449 0.041750472 0.19936334
-0.22437209 0.5756124 0.09743937 0.08249213 -0.34604236 -0.031455815 -0.08683462 0.22116531
-0.022780243 -0.095155045 -0.059252646 0.13669726 0.0045571676 -0.10647047 -0.21798879 -0.024900805
0.22109139 0.014917833 -0.19511981 0.0048194216 0.0027754244 0.1371416 -0.018804008 0.25868836
-0.13412742 -0.2976004 0.096440464 -0.27947497 0.04769628 0.4124301 -0.14085044 0.079498

connection_layers.1.bias f4 [16]
00000000: 7f1b 133d 00d8 993a 4d2a f33c 5362 853c
00000010: 6f0e 8bbd 41ba 803c 43ed 4b3c 8203 2ebc
00000020: 0c38 773b ffa5 b43c f3ff 103c 6e28 953c
00000030: c76a 58bd bc6f c83b 6ce4 1cbc d369 f93b
0.035914894 0.0011737347 0.029683257 0.016282236 -0.06789862 0.015713813 0.012446704 -0.0106209535
0.0037722616 0.02205181 0.008850086 0.018207755 -0.052836206 0.0061168354 -0.009575944 0.007611492

connection_layers.2.weight f4 [32, 16]
00000000: 2159 843d 9800 153e 022e 3939 dca4 c0b9
00000010: e54e b3be 1452 26bd e77f a7ba 9cb4 e039
00000020: 73e1 8cbb 9b6f b0b9 0f17 5abe 462b b73a
00000030: 76a7 b1b9 3cc8 9bbb 0750 583b 33b2 d93d
00000040: 6799 c73a b424 e5b9 05b4 4ebd ffa0 62bb
00000050: 2632 be3d dcf2 58bd 3591 debc d0d9 3c3b
00000060: 7bf3 47bd bf5a 013b b946 103d 8566 603d
00000070: 44b0 2d3a d64b 1d3e eebb b33b 34aa 47bb
00000080: 3ae3 ae38 5f75 423a aa5c 5d3a cc0e 6039
00000090: ea37 4338 7b85 84be 9981 3f3a 0313 d339
000000a0: fabc 4c3d 903c 1aba 49fd db3d 310e d53a
000000b0: e296 82b9 6144 a7bc cfd7 f13d a662 6dbb
000000c0: 040e 313e c312 40ba e5b7 d03c 0775 ef39
000000d0: b487 143a e4b5 723d a1ee 7a3b 2775 8bbd
000000e0: c7fd a9bb 0a42 d03c ca8b d53b c223 65ba
000000f0: 7a72 b73a c7b5 5a3c a807 023a 755d 383d
00000100: 84cb 9039 044e 393d 55e5 413d fc5c 7b39
00000110: 5709 84b9 4e23 65bd 6050 ab39 41fe 2038
00000120: dffa c838 710d a739 c4d2 a9bb 9ca9 353a
00000130: 1cb4 76ba 9d23 55bb 00a4 693d 12b6 c8ba
00000140: 1d09 2c3a 72ca 5aba 0fc1 463c 2655 62ba
00000150: 8310 aeba 81c4 01bd 5334 52bd e03e 11ba
00000160: 474f 6b3c 48f9 d23a bc75 99bc 65e4 353a
00000170: afb5 ffba 82ed 57bc cafb d6bb 620f 99bb
00000180: 1035 5539 75ae 413e 8202 1fbb 7914 943d
00000190: 5680 bc3a 8d04 463e ec48 d4bc e009 5c3d
000001a0: ff1a 8bbb 98ce 3dba aaae b73b f60a 2c3c
000001b0: 19de a43e 3f82 08bd 22fa 423b 9c07 5338
000001c0: a34f 51b9 bb2b fa39 1d73 a53a d581 d339
000001d0: 92a7 9cba 7b8e b4be bb8f 24b9 449b d2b9
000001e0: 05a3 123b ace9 173a 6739 823d 1e5b 4aba
000001f0: d70c 8fb9 c2b8 f2bb 0b26 0cbb 7d2b b5b9
00000200: aeb2 a53e 29f1 273b 0ce6 163c 6a5b ad3a
00000210: 8117 c3bb 38c4 afbc d7e8 9d3b 71b9 d5bb
00000220: 0331 863c 01ab 76ba 1db1 b1bc db12 b2bb
00000230: 8f4c 51bb db05 03bd 025a 85bb 15f6 713b
00000240: 42ac c838 21d3 ff39 66db c93d 3239 dbb9
00000250: 7a64 77ba cad9 693d fdcd ad3d 42b3 ca3e
00000260: e8b7 8bbb e0f7 9cba 655c a8bc 7560 003a
00000270: de26 a0be 0858 273c fbd1 cb3a bc0c 47b9
00000280: 459d dab8 4d46 96be bb91 bfbb e23c b53d
00000290: 378b be3b 7f66 1d3d ab23 1a3b 283f 9c3a
000002a0: 90cf 0bbc 3c22 9d3a ed6b f1bb 5508 bfb8
000002b0: 639c 95ba b7c3 57bb 9f14 3e3e af76 3ebb
000002c0: 5ba4 873a fafc 12bb 648c c8bc 5720 0a39
000002d0: 7468 063c 36e9 533d bc4a a33b 5850 053b
000002e0: 01b2 20bc aec5 5b3a 5e5f a23c b4b8 fc3a
000002f0: d9e7 38be 6c70 f23b 38bf c73b 0099 fc3d
00000300: 932a b339 003d f8b9 bc23 eb3d cc85 89ba
00000310: 24c4 54be b085 30bd 66de b5ba 1cb3 8e3a
00000320: a1f8 19bb 51c0 b4b8 5cbc 463b 65b5 6e3b
00000330: f12e a3b8 5414 80bb d60f 9c3b b39c cbba
00000340: 13a6 05bb 5bd6 123a 66b3 193e 923a e4bd
00000350: 0d7a 34bb 1da7 f0bc 074c e83b 362f bebb
00000360: 8d43 cbbb d974 3f3a b36f 8abc ea0c dabc
00000370: ef69 163a 6636 8fbc 9a93 26bc 2603 7fbc
00000380: 03c0 4c3b 3c2e 53ba 99af 7b3b dac0 993a
00000390: ef02 1bba 5a1a a1bd eb56 403b c6ad 5eba
000003a0: 07f4 cf3b ec5d 143b 02a8 42bd ecec 123c
000003b0: 50df 94ba 3176 07bc 0775 47bb cdab d8ba
000003c0: ed00 5e3a 47df 3e3e 858e 56be dc83 e9b9
000003d0: 02fa 65bc 66ac 153d 5251 513b 1291 e23a
000003e0: ae37 7b3e 182a 7cbb 43fd be3b 2f5a 2bbd
000003f0: 44b6 7dba 0f33 c9bd 39b2 94bd 2903 16ba
0.064623125 0.14551008 0.00017660114 -0.00036743924 -0.3502113 -0.04060562 -0.0012779207 0.00042859174
-0.0042993366 -0.00033652488 -0.21297859 0.0013974688 -0.0003388484 -0.0047540944 0.0033006684 0.10629692
0.0015228213 -0.0004370563 -0.05046465 -0.0034580824 0.09286909 -0.052965984 -0.02716885 0.002881635
-0.048816185 0.0019737927 0.035223696 0.05478527 0.0006625692 0.1536096 0.0054850494 -0.003046644
8.339291e-05 0.00074180024 0.0008444289 0.00021367817 4.6543697e-05 -0.25883088 0.00073053833 0.0004025922
0.04998491 -0.00058836583 0.1074167 0.001625484 -0.0002490795 -0.020418348 0.1180874 -0.003622213
0.17290503 -0.00073270145 0.025478313 0.00045672824 0.00056659733 0.059255496 0.0038289207 -0.068094544
-0.0051877233 0.025422115 0.0065169083 -0.0008740985 0.0013995909 0.013349003 0.00049602473 0.045011003
0.0002761745 0.045240417 0.04733785 0.00023971865 -0.0002518396 -0.055941872 0.00032675546 3.8383765e-05
9.5834715e-05 0.00031862737 -0.005182596 0.0006929876 -0.00094109937 -0.0032522448 0.05704117 -0.001531305
0.0006562637 -0.0008346207 0.01213099 -0.0008633904 -0.0013280067 -0.03168154 -0.05131943 -0.000554068
0.014362163 0.001609602 -0.018732898 0.00069386355 -0.0019509102 -0.013179185 -0.0065607773 -0.004671023
0.0002033303 0.18914206 -0.002426297 0.07230467 0.0014381509 0.19337673 -0.025913678 0.053720355
-0.0042451615 -0.00072405627 0.0056055384 0.01050066 0.32200697 -0.033327337 0.0029751142 5.0313407e-05
-0.0001996146 0.00047716298 0.0012622807 0.0004034179 -0.0011951795 -0.35264954 -0.00015693803 -0.00040170003
0.0022375 0.00057950127 0.06358605 -0.0007719266 -0.00027284652 -0.0074072788 -0.002138498 -0.00034555412
0.32362884 0.002562592 0.009210121 0.0013226096 -0.0059537296 -0.02145587 0.0048190164 -0.0065223505
0.016380792 -0.0009409637 -0.0216909 -0.0054343767 -0.0031936502 -0.031988006 -0.0040695677 0.0036920358
9.568829e-05 0.00048794693 0.098563 -0.0004181355 -0.00094372744 0.057092465 0.08486555 0.39589888
-0.0042638667 -0.0011975728 -0.02055187 0.0004897186 -0.31279653 0.010213859 0.001555025 -0.00018982863
-0.00010424344 -0.2935051 -0.00584623 0.08849503 0.0058149355 0.038427826 0.0023519795 0.0011920677
-0.0085333735 0.0011988352 -0.007367602 -9.109142e-05 -0.0011414405 -0.0032923052 0.18562554 -0.002906244
0.0010348664 -0.0022428618 -0.024481006 0.00013172753 0.0082036145 0.05173608 0.0049832743 0.0020342078
-0.009808064 0.00083836436 0.019820865 0.001928112 -0.18057193 0.0073986556 0.006095793 0.1233387
0.0003417326 -0.00047347695 0.11481425 -0.0010492145 -0.20777947 -0.043096244 -0.0013875484 0.0010887119
-0.0023494142 -8.6188906e-05 0.0030324673 0.0036424038 -7.781189e-05 -0.0039086733 0.00476263 -0.0015534371
-0.0020393177 0.00056013995 0.15009841 -0.11143984 -0.0027538568 -0.02937656 0.0070891413 -0.005803968
-0.006203121 0.00073034834 -0.016898965 -0.026617486 0.0005737831 -0.017481994 -0.010167027 -0.0155647155
0.0031242378 -0.00080559007 0.0038404225 0.0011730448 -0.0005913218 -0.07866354 0.0029348682 -0.0008494522
0.006346229 0.002263899 -0.047523506 0.008967619 -0.0011358056 -0.008267925 -0.0030434744 -0.0016530693
0.0008468766 0.18639861 -0.20952804 -0.00044539466 -0.014036657 0.036541365 0.003193934 0.0017285666
0.24532959 -0.0038477238 0.005828531 -0.041834053 -0.0009678344 -0.09824192 -0.07260556 -0.0005722517

connection_layers.2.bias f4 [32]
00000000: 58d1 4b3a 4276 50bc 9835 103b c6f5 21bc
00000010: 7dc5 45ba c381 e7bb 14e0 d03b ba13 713b
00000020: 0d09 cdba 1411 843b 5c4d 983b 1cd3 4c3b
00000030: b8c9 eeba a82a 6dbb d4f9 893b 3fd0 c53b
00000040: d2fe 28bc 4d3e 0fbc 87e3 803b c2d1 87bb
00000050: ecf4 173c fdcd 9e3a 0fec fdbb f895 df3b
00000060: 1fee 97bb 93e6 e5bb 7681 e63c 16ae 293b
00000070: bb82 1dbc 9105 96bc e25a 40ba 6a27 ff3b
0.000777503 -0.012723507 0.00220046 -0.009885257 -0.00075443817 -0.0070650293 0.0063743684 0.003678544
-0.0015642956 0.004030356 0.004647894 0.003125376 -0.0018218076 -0.0036188755 0.00421069 0.0060367878
-0.01031466 -0.008742881 0.0039333734 -0.004144878 0.0092747025 0.0012115833 -0.0077490876 0.0068232976
-0.0046365405 -0.007016012 0.028137904 0.0025891117 -0.009613688 -0.018313201 -0.00073377613 0.007786681

norm_layers.0.weight f4 [8]
00000000: f848 ef3e 8f3f f13e 634f ef3e 4d42 ef3e
00000010: 8649 ef3e 95e0 ef3e 45e4 f03e aa3d ef3e
0.46735358 0.47118804 0.46740255 0.4673027 0.4673578 0.4685103 0.47049156 0.46726733

norm_layers.0.bias f4 [8]
00000000: c0ba 153c 5497 bfbd 28cf 073d 53d8 01bd
00000010: 6f07 fb3c 7c74 b63d 6e0a ee3d e249 163c
0.009138763 -0.093550354 0.033156544 -0.031700443 0.030643193 0.089089364 0.11623083 0.0091728885

norm_layers.0.running_mean f4 [8]
00000000: 4afb cbbd 4b6c ba3d bff2 a7bd eae5 4fbd
00000010: 3f56 f7bc 336a 95bd 5a8f 53bd 55e1 65ba
-0.09960039 0.091026865 -0.08200597 -0.050756373 -0.030192493 -0.072956465 -0.051650383 -0.0008769234

norm_layers.0.running_var f4 [8]
00000000: bf31 143e 4461 f73d 88ed c83d 7cf7 193d
00000010: 4819 5a3c 3307 9f3d cd7e 1f3d 4acc 0838
0.14472102 0.12079099 0.098109305 0.037589535 0.013311692 0.07765045 0.038939286 3.2615186e-05

norm_layers.1.weight f4 [8]
00000000: 4440 323f 0337 113f 4e32 2b3f 3979 2b3f
00000010: 2e05 f23e fc52 2a3f 1059 353f 1836 1a3f
0.6962931 0.56724566 0.66873634 0.66981846 0.47269577 0.66532874 0.70839024 0.6023879

norm_layers.1.bias f4 [8]
00000000: 7512 1bbc 0066 26bd 8237 d23b 64b9 2dbc
00000010: 5fe0 d2bb 1e29 253c 84d6 4dbc a7dd 043b
-0.00946485 -0.04062462 0.0064153085 -0.010603283 -0.0064354385 0.010080604 -0.012563352 0.0020273717

norm_layers.1.running_mean f4 [8]
00000000: e567 c03a 49a8 af39 abcf 98ba d320 6cba
00000010: 765f 17b7 7781 b739 5c71 9db9 a0c1 71b9
0.00146794 0.00033503983 -0.001165857 -0.0009007577 -9.022528e-06 0.0003500094 -0.00030029833 -0.00023055682

norm_layers.1.running_var f4 [8]
00000000: 4335 b636 bbbf 7935 9634 2136 05a5 d436
00000010: 72ac ad31 0646 bc36 2aa7 7e35 1efb 1337
5.430223e-06 9.3038733e-07 2.4021479e-06 6.337303e-06 5.0545674e-09 5.6109884e-06 9.486563e-07 8.820351e-06

norm_layers.2.weight f4 [16]
00000000: baf9 f03e 0734 f03e 3982 f03e c97b f23e
00000010: 2492 f43e 8493 0d3f e51d f03e 415c f03e
00000020: 42fe ef3e 9649 ef3e 5464 f03e 47d1 f13e
00000030: cfc6 f03e a5be 063f 326c f13e 8710 f73e
0.47065526 0.46914694 0.46974352 0.47360066 0.47767746 0.55303216 0.46897808 0.46945384
0.4687367 0.4673583 0.46951544 0.47229978 0.4702668 0.5263465 0.4715286 0.48254797

norm_layers.2.bias f4 [16]
00000000: fc58 1f3c 36eb 743b 6dad 5c3c e027 2b3c
00000010: f696 cdbb b566 0eba ecd4 2c3c 911a cb39
00000020: 26ff 013b d105 a5ba dc6f be3b 7b85 163a
00000030: 4aa0 2e3b 5a97 bdbc 0759 bf39 af58 62bb
0.009725805 0.0037371642 0.013469082 0.010446519 -0.0062740995 -0.00054321747 0.010548811 0.0003873897
0.0019835918 -0.0012590234 0.0058116745 0.0005741936 0.0026645833 -0.02314346 0.0003649669 -0.0034537723

norm_layers.2.running_mean f4 [16]
00000000: 95c6 0938 92d7 21b8 b60f f337 6e72 1b35
00000010: bd4b 40b8 3ea9 5f3a 456e bd38 66a4 5fb7
00000020: 0c1b 1238 e5c9 17b8 4279 27b9 9265 9f37
00000030: 2520 6bb7 16ac 5b3b 7a0b c437 0aab 7e37
3.284829e-05 -3.8586157e-05 2.8975173e-05 5.7908517e-07 -4.5846904e-05 0.0008531994 9.0327616e-05 -1.3330113e-05
3.4834302e-05 -3.6189234e-05 -0.00015971533 1.9001574e-05 -1.4014576e-05 0.003351932 2.3370365e-05 1.5179403e-05

norm_layers.2.running_var f4 [16]
00000000: a7fa 4530 594f 1631 9d07 3932 8b70 e130
00000010: 853c e431 0ab5 2836 d7b6 1b32 dc8f 6f30
00000020: b302 3933 991c a331 2b22 a233 cbac 4f32
00000030: eef5 ec30 5207 9736 9869 2b32 d67f 9d32
7.202438e-10 2.1872977e-09 1.0770148e-08 1.6402891e-09 6.6425536e-09 2.513933e-06 9.06376e-09 8.715213e-10
4.3076124e-08 4.7471755e-09 7.549928e-08 1.2088274e-08 1.7241157e-09 4.501003e-06 9.977519e-09 1.8335339e-08

stages.0.0.gamma f4 [8]
00000000: 9f22 1b3c 49dd a03b 0b77 ce3b a6c8 1d3c
00000010: f80e 14ba 30de 0b3c e570 273b f576 743c
0.0094687035 0.0049091917 0.006300812 0.009630358 -0.00056479825 0.00853686 0.0025549468 0.01492094

stages.0.0.norm.weight f4 [8]
00000000: c98d 273f 2e7d 2a3f 3bea 1a3f 437f 263f
00000010: 615a 243f cc49 2d3f 5620 1f3f 32e9 213f
0.6545072 0.6659726 0.6051366 0.65037936 0.6420041 0.6769073 0.62158716 0.6324645

stages.0.0.norm.bias f4 [8]
00000000: 9c05 193c 480a 063d 3544 a3bc 866f 4abb
00000010: 3a00 a13c a87b 423d 1d5d 443d d63d 35bd
0.009339716 0.03272465 -0.019929985 -0.0030889227 0.019653428 0.04748121 0.047940362 -0.044248424

stages.0.0.norm.running_mean f4 [8]
00000000: ec75 08bb e4de a33c e402 203c 16bf b5bc
00000010: 0991 f23c 3585 b6bd 1f9f c33d be38 423c
-0.002082224 0.020003743 0.009766314 -0.022185843 0.029610174 -0.08912126 0.09551834 0.011854349

stages.0.0.norm.running_var f4 [8]
00000000: 6f75 023e ae81 543d 2d51 e63d 0ca3 103e
00000010: feae 5f3e 8d0e 833e 138e 3c3e 65ad 5d3e
0.1274011 0.051881485 0.11245952 0.14124697 0.21844098 0.2559704 0.18413572 0.21648176

stages.0.0.pwconv1.weight f4 [16, 8]
00000000: 3565 0c3e 114f f4bd d15f fcbb 19d8 9c3d
00000010: b6dc 7b3f ab94 ccbd 1824 933e b8d4 b4be
00000020: 1c28 acbd b31e 0c3f e93c 3ebe 6a5f 193f
00000030: 3a16 883d 12dc 2a3d a343 b9be adc6 79bc
00000040: 2792 233f 7294 31be 0c0d 24bd 906c eebe
00000050: 5d4a 6d3e ca86 71be 169b 913c d675 84be
00000060: da47 b7be 3a84 3c3e b137 9dbd d57e a6be
00000070: da2d 443e 7b28 37be 7607 29bd e307 653d
00000080: 66d1 6abd d2b5 1ebc 850b 7bbd 1a8a 533d
00000090: dc88 653d 894c 063e 7478 b2bb faa9 51bc
000000a0: 77f4 353c 5ed2 37bf d006 97bc 5c4b 05bd
000000b0: 8bb4 d63c 6f74 99bd f89a c73c 0e98 723e
000000c0: 6c10 31be a9da 6fbe 62c0 9c3e 8939 e0be
000000d0: 5dc9 8bbe e3c9 953d 8705 4f3d 60ec 8dbc
000000e0: d8b8 bbbe bfcb 9dbe 916b e93d d1fd d63c
000000f0: 9f7e cebe 4132 03be 3ec1 063f f28f acbd
00000100: e772 e53c 906d d5bd 59d2 a93d c964 213d
00000110: b970 db3e a674 8b3d 2a62 b23c dabc 0d3e
00000120: 8f15 f13d d750 7f3d b7c2 d5bc e246 843e
00000130: 12ab 36bf 5a52 01be 0c23 e53d ba6c 3a3d
00000140: 7801 1c3f 2a7c 0dbe a97a 8ebd f769 2b3e
00000150: 4022 d7ba ab19 84bc 3c81 ec3e d32d 65be
00000160: db21 043c 8f2f 0ebe ec4b 09bf fcb3 9dbe
00000170: ac8e cb3d 0b02 1c3e 2cf5 193f d8ef 1c3f
00000180: 876e 0e3a 8c10 a2bc ca52 46be e6f2 68be
00000190: f14e 983c ab5f 90bd 8c67 85bb f112 dd3d
000001a0: 58bc 0cbc 5fb4 203e 0a6e 0f3e c90a 333e
000001b0: aa42 833d cb79 ae3e 1fac 8dbe a328 26bb
000001c0: eb0f 6abd c639 643e 5a3a 1e3e fde8 c3bd
000001d0: d97c 2b3e 42b7 c13e 80ae 19be 12c0 25bd
000001e0: 6645 2fbe efe6 a03e a2c7 b8bd a3fd 9ebd
000001f0: 7e76 20be b62d fc3e 6fc4 b53b 3c23 a03c
0.13710482 -0.11929143 -0.007701852 0.07658405 0.98383653 -0.09989294 0.28738475 -0.35318542
-0.08406088 0.54734343 -0.18577923 0.59911215 0.066448644 0.04171378 -0.36184415 -0.015245122
0.63894886 -0.17341784 -0.040051505 -0.46567202 0.23172899 -0.23586574 0.017774146 -0.25871152
-0.35797006 0.18409815 -0.07676638 -0.3251864 0.19158116 -0.17886536 -0.04126688 0.055915724
-0.057328604 -0.009686904 -0.061290283 0.051645376 0.056038722 0.13115133 -0.005446488 -0.012796873
0.011105648 -0.7180537 -0.018435866 -0.03254257 0.026209136 -0.07492911 0.024365887 0.23690817
-0.1729142 -0.23423256 0.30615526 -0.43793896 -0.27302065 0.073138975 0.05054238 -0.017324626
-0.36664462 -0.30819508 0.1139747 0.026244076 -0.4033098 -0.12812139 0.52638614 -0.08425893
0.028008891 -0.10421288 0.08292074 0.039402757 0.42859438 0.06809358 0.021775324 0.13841572
0.1177169 0.062332954 -0.026093824 0.2583533 -0.7135478 -0.12629071 0.11188325 0.045513846
0.6093974 -0.13816896 -0.06956989 0.16739641 -0.0016413406 -0.01612552 0.46192348 -0.22380762
0.008064712 -0.1388533 -0.5363147 -0.3080138 0.09939322 0.15235154 0.6013973 0.6130347
0.000543334 -0.01978328 -0.19367519 -0.22748908 0.01859233 -0.07049497 -0.0040711816 0.107946284
-0.0085898265 0.15693806 0.1400682 0.17484583 0.064091995 0.34077296 -0.2767038 -0.0025353811
-0.057144087 0.22287664 0.15451947 -0.09565923 0.16746844 0.37835127 -0.15007973 -0.040466376
-0.17116317 0.31426188 -0.09022452 -0.07763221 -0.15670201 0.49253625 0.0055470983 0.019548051

stages.0.0.pwconv1.bias f4 [16]
00000000: c421 413d 142a 41bc 4af8 29bb b210 83bb
00000010: ea01 f93b 1e91 bebc c4c3 1fbd 2dad cd3b
00000020: 1614 6fbc bf48 74bc c34a fb3c 9aef b2bb
00000030: 0a28 a4bb a372 87bd fa89 213d ab0a e13d
0.047151342 -0.011789817 -0.0025935345 -0.003999793 0.007599105 -0.023262557 -0.039005056 0.0062767477
-0.014592191 -0.014909922 0.030675298 -0.0054606916 -0.005009656 -0.06613662 0.039438225 0.10988363

stages.0.0.pwconv2.weight f4 [8, 16]
00000000: 1a25 29ba a9bc 083e 1460 4c3e 7815 e0bb
00000010: 2f35 9b3d c592 39bd b730 2abe 7dba b43d
00000020: 4fe0 e13e 8e40 d33e 484d 4f3e d22b 4ebd
00000030: 6b04 07be e135 bd3d dcba 943d be67 3ebd
00000040: 2159 32be ddef 9b3d 9ef4 94bc 7666 b73d
00000050: cfd1 883d 9cb5 f33c f4a2 8bbe 2c3b a4bc
00000060: 965c d1bc b635 2f3e 51fd a93e eb03 d03e
00000070: 54e9 143b 590a 23bd f152 f43c 859e c4bd
00000080: 9af6 70bc e1ad acbe ed87 b2bc 4ef4 86be
00000090: 0323 acbc 8c22 31be 3270 29be 904c 1cbe
000000a0: e12a e5bd 5841 85be 48ca 03be c37d 44bd
000000b0: a134 2f3d c27f b33d 57a4 683d e24e f63b
000000c0: a732 81bc bfff 263e 1ef4 0d3e 17f2 b0bd
000000d0: 156b 0cbd 7095 8dbd 0d17 25be 5ce5 1dbf
000000e0: 2f78 1fbd fc4c 0fbe 2330 983d c9a2 9abd
000000f0: 0929 b83d 016a 88be 8690 a63d e9e2 abbd
00000100: 5f0f 27ba cb1f 6c3d 8e5d 84bb 6b23 8639
00000110: 7488 8939 3d6c ebbc 8a3f 1f3e f16f 3dba
00000120: a00b ee3a 89f2 a73e abcf 42be f244 823c
00000130: 7646 d439 6326 8f3a daa3 4e3c 26f5 93bd
00000140: fa19 863e 3457 d73d deea d1bd 2322 81bc
00000150: 0fe5 133c 4a70 72be c991 b23d 09d1 2abe
00000160: 0909 cc3d 4696 82bc 9c78 6f3e 8607 1e3e
00000170: e722 5fbd 8693 313d 9982 7b3d 61ce 1ebf
00000180: 103f d43c 1b0d f6b8 c1c1 003f b5c9 0c3c
00000190: 9058 4e3d d085 10bd 57a4 a4bd 6c06 533d
000001a0: fe88 463b 14d0 00be 26c8 b2be 3cf3 8b3d
000001b0: b81e e03c 33b3 04be 6fb3 acbe 2e70 c7be
000001c0: b34f d73c 464d 56be 2850 e3bd 3128 dd3d
000001d0: c7f4 903b bce4 903e 64f6 3fbe acc9 2cbe
000001e0: 5e38 1d3d f121 fe3d efc5 993d 8019 5d3e
000001f0: b45a dbbd 3014 a7bd 738f c7be 3a18 bd3d
-0.0006452367 0.13353218 0.19958526 -0.006838497 0.07578503 -0.045305986 -0.16620146 0.08824632
0.44116446 0.4126019 0.20244324 -0.05033476 -0.13185279 0.09238792 0.07262203 -0.046485655
-0.17416812 0.0761411 -0.018183049 0.0895509 0.06680643 0.029749684 -0.2727276 -0.020047747
-0.025556844 0.17110333 0.33201078 0.4062799 0.0022722082 -0.03980479 0.029824706 -0.09600548
-0.014707232 -0.3372641 -0.02179333 -0.26358265 -0.021012789 -0.17298335 -0.16546705 -0.15263581
-0.11189819 -0.26026416 -0.12870133 -0.0479715 0.0427748 0.08764602 0.05679735 0.007516728
-0.015771223 0.16308497 0.13862655 -0.08639925 -0.03428181 -0.069132686 -0.16122074 -0.616781
-0.038932975 -0.13994211 0.07431056 -0.0755058 0.08992202 -0.26643375 0.081330344 -0.08392889
-0.0006372835 0.057647508 -0.004039473 0.0002558486 0.00026232342 -0.028738135 0.15551582 -0.00072264584
0.0018161424 0.32802227 -0.19024532 0.015902016 0.00040488289 0.0010921474 0.012612307 -0.07224493
0.26191694 0.105146796 -0.102498755 -0.015763348 0.00902678 -0.23675647 0.087192126 -0.16681303
0.09962661 -0.015940797 0.23385853 0.15432557 -0.054476645 0.04335358 0.061403845 -0.6203366
0.025908977 -0.00011732635 0.50295645 0.008593013 0.05037743 -0.035283864 -0.08039158 0.051519796
0.0030294056 -0.12579376 -0.34918326 0.06833503 0.027358398 -0.12958984 -0.33730647 -0.38952774
0.02628312 -0.20927915 -0.11099273 0.107986815 0.004423711 0.2829951 -0.18746334 -0.16873807
0.038383834 0.124088176 0.07508456 0.21591759 -0.107106596 -0.08158147 -0.3897663 0.092331365

stages.0.0.pwconv2.bias f4 [8]
00000000: 07f2 3237 e153 d036 a3d3 3e38 de2d eb38
00000010: 2309 77b5 b5d2 4b37 ea73 9d37 6983 fc37
1.0665978e-05 6.208648e-06 4.5496632e-05 0.00011214217 -9.2027966e-07 1.2148802e-05 1.8769835e-05 3.0101934e-05

stages.1.0.gamma f4 [16]
00000000: 6bc1 5eba 5695 5d3b 072f 963b b895 a13a
00000010: 244b e6ba 370f a53c 9e4b 413b 05b7 e3ba
00000020: 8b08 97bb 67a2 f63a e155 3b3c f376 823b
00000030: 27fd 80ba 5d8f 293d 9029 79bb 08d9 333b
-0.00084974495 0.0033810935 0.004583243 0.0012327945 -0.0017570001 0.020148857 0.0029494534 -0.001737327
-0.0046091727 0.001881671 0.011434049 0.003981465 -0.000984107 0.041396488 -0.0038019158 0.0027442593

stages.1.0.norm.weight f4 [16]
00000000: 95f0 1a3f 858c 103f 36ae 213f 4762 203f
00000010: 2441 293f 63e0 233f 350c 113f a955 0b3f
00000020: 5635 213f f3ff 263f 98c2 0b3f 4f0e 223f
00000030: bf41 1d3f 1688 0b3f a9fd 113f 9742 283f
0.6052335 0.56464416 0.6315645 0.6264996 0.6611502 0.6401426 0.5665925 0.5442758
0.6297201 0.652343 0.545938 0.63303083 0.61428446 0.54504526 0.5702768 0.6572661

stages.1.0.norm.bias f4 [16]
00000000: 8839 2fbb bdae 9d3c af32 4f3c 2fa1 903c
00000010: 7543 e0bc 7950 2f3c 1a00 10bb 6ced c2bc
00000020: 3ac8 0dbc e182 0f3d 4d67 e13c ef49 a53c
00000030: f519 7e3c e98b b5b9 ade7 7abd dcf0 fa3c
-0.0026737172 0.01924836 0.012646361 0.017654983 -0.027375916 0.0107003385 -0.0021972717 -0.023794852
-0.008653695 0.035036925 0.027515078 0.020176856 0.015509118 -0.0003462725 -0.0612561 0.030632429

stages.1.0.norm.running_mean f4 [16]
00000000: 8771 163b 6e51 a1ba a83c 0a3d 054d 483a
00000010: 98d4 50bd ce3e 15bc 5b87 b339 0edd 433a
00000020: 7988 76bb 830d a83c afb2 bcba 3e11 95bb
00000030: fc74 b4bc ef4e 423b 7b6f 223b c76a 683c
0.002295585 -0.0012307593 0.033749253 0.00076408713 -0.050983995 -0.009109212 0.00034242388 0.00074715994
-0.0037617965 0.020514255 -0.0014396514 -0.0045491746 -0.022028439 0.00296491 0.0024785686 0.014185614

stages.1.0.norm.running_var f4 [16]
00000000: cd54 283c 7538 a63b 07b0 363d 197b 883c
00000010: 081e e43b e601 5f3d 3bf7 bb3b 7ccb 483b
00000020: 6e2d 723d 030e 7b3b 51bf 223b deb0 653c
00000030: 3fc1 143c d04d 913a 4985 3d3b 32f6 913b
0.010274124 0.005072648 0.044601467 0.01666026 0.006961588 0.05444517 0.0057362593 0.0030638864
0.059125356 0.0038307912 0.0024833272 0.014019219 0.009079277 0.0011085812 0.0028918555 0.0044543976

stages.1.0.pwconv1.weight f4 [32, 16]
00000000: 4bdd 87bd c5df 2d3d 3ffb a23d 1440 823d
00000010: d34a c9bc bb1a 35bd 9626 78be 9bca 8fbd
00000020: 3047 ea3a aa99 b2bd ffae 603e f5e6 c3bc
00000030: 53f3 8abe 1f60 b2bd 508c 88bc 1e44 173e
00000040: 921a 4a3d 4d96 46bc fecc 123c 3edd a23d
00000050: e014 45be c596 a8bc d298 fd3d 54a6 1e3e
00000060: d8eb bd3c 8e7f 293d a33a 4a3d 2875 28be
00000070: 206f 69bc b16f 37bd ed4b 4ebd fa43 d13d
00000080: 433a 41bc 0a01 02bd 289a 2b3c fe55 cb3d
00000090: be12 09bb 5df5 8a3c ee11 993d d83e 853d
000000a0: 37f9 0fbc 6b39 d43d 9a1d 943b 3c5a af3d
000000b0: 0aff a5bd e5fa a2bc b56b 93bc 74c1 0cbe
000000c0: ffc7 783e 3fa9 1fbd e1ac 123e 0e4d 083d
000000d0: b76a 3d3d ab3f 933c d586 5cbe 7273 6e3c
000000e0: 006e adbc 805d 403d 9e6a 803e 8a1e b1be
000000f0: 373b 1c3e cbea de3b 8914 aa3b d439 2bbe
00000100: 342e 0a3d 5279 d33c ffce 36bc 15eb 6cbd
00000110: b062 c4bc 98cb fcbc 6a93 86bd 5ae7 813d
00000120: 6835 dfbc 8cbb 8b3d 67c9 d43c b213 dd3b
00000130: d4f4 aa3c fd35 a0bc 89a0 dfbd 8fa6 8a3d
00000140: 33ca 333e 8ca0 dcbd fa41 9f3e 11d5 52bd
00000150: d728 2c3e 3244 b13c d962 d4be e91e dcbb
00000160: 6c2d 0ebc a387 b03d 6d98 ce3d 417c 7f3e
00000170: da9e 08bb 5efe 023e 3030 29bd 7647 113d
00000180: d86e f0bb cb47 2dbd cbd1 eebc e1c7 0cbe
00000190: 5e3f 53be b395 863d 7c47 b33d c439 983d
000001a0: 14e0 b3bc a6b4 ccbc cc96 553d 4105 dc3d
000001b0: 5c7a 26bc cb47 36be b3fb bcbd e1b9 25bd
000001c0: d55d 75bc c652 1b3d 6e1e a43d e74c 873d
000001d0: e55d a2bb 09ab 49bd 678e 143f 790b 513e
000001e0: 91a2 123e 6196 a1be d8cf 0ebd f93f 373e
000001f0: 8bc1 673d ebd2 8ebd 0003 3abd bf6b bfbc
00000200: f403 d03c 1ae0 d23c 69cf a53d 554a 943c
00000210: 8753 963c 4615 c4bc 5f1a 31bc 6aaa f93e
00000220: eb45 24bd 8f91 f63c aeef 29bd c0fa 593d
00000230: fc6d 583d d7b7 cb3d 4381 84bd c893 ca3d
00000240: 6f3d 0ebe 34e5 b23d 8e72 69bd 8d22 d8bd
00000250: 1516 4b3e 48b2 f63e ab3c d1bc 8dc9 dd3d
00000260: e381 c5bc a738 d33c 8e05 c13b a0e4 903d
00000270: 1543 54bd 6572 2c3c 725c b33c add5 59bd
00000280: 5517 d3bc 996e 433d bb07 f7bc bbbd 923d
00000290: 3b77 3d3e e595 ae3e 5a1f 133e 8fba 9c3c
000002a0: 2af7 12bd feac 64be cc7b a43d 97c4 d83c
000002b0: 657d 6cbd 214f b2bc bd94 4a3e f160 153e
000002c0: 700c 6bbc 9b32 79bc 9af8 ebbe 0bdb c33b
000002d0: 38f7 363e 146f 91be 923a 2e3d 55df 623c
000002e0: 695e d0bd 71a5 3bbe 77b5 d23c d9b4 23bf
000002f0: b489 e23d 7f69 32bd 7825 59bc ce6a 54be
00000300: a892 77ba b193 4bbc 1ccd 42be 6683 6fba
00000310: 9019 adbc f2aa 113e 0a21 783c 8a35 2d3c
00000320: c739 33bc 10cb c33c 379f 103e 0c8d 2ebc
00000330: 3092 b3bc 8d5c ad3d 410d 63bb e4a0 3bbc
00000340: 1dcb 013e a649 17bd 1bf6 3ebb 1423 ce3d
00000350: 82f5 38bc a672 d6bd 3555 8fbb c858 e83b
00000360: 9a5d 433c a70a 0abe 1af2 0dbd 7dfe 423c
00000370: 5321 f6bb 8823 d13d aac6 8abb 94fe 053e
00000380: 7206 24bd 675f 3dbe 5f26 10be f77b 8f3c
00000390: 35c1 96bd f3a8 a6be f97c e13a 1996 9dbd
000003a0: bd2b 1dbe 3113 d9bd 75db 80bd 92b3 013e
000003b0: 4e95 19bd 36d6 d43c 7dc5 c03d 134e f33d
000003c0: 3227 e63d 0c59 2a3c 515b cbbc a1c9 9b3c
000003d0: da86 21bf 860a 8d3e 0e32 3abe f592 36bb
000003e0: 9a84 59bd 585c 40be 46c0 99bd aabb ad3c
000003f0: 6961 403d 50d5 893c e551 17be b980 3cbd
-0.06634005 0.04244973 0.07958078 0.06359878 -0.024571812 -0.044214945 -0.2423347 -0.07021066
0.0017873999 -0.08720715 0.21941756 -0.02391384 -0.27138767 -0.0870974 -0.016668469 0.14772078
0.049341746 -0.012120795 0.008960007 0.07952355 -0.19246244 -0.020579705 0.12382664 0.15493137
0.023183748 0.04138141 0.049372327 -0.16450942 -0.014247686 -0.04478425 -0.050365377 0.102180436
-0.011793676 -0.031739272 0.010473765 0.09928511 -0.0020915712 0.016962701 0.07474123 0.06506127
-0.008787445 0.10362514 0.0045201303 0.08562133 -0.081052855 -0.019895026 -0.017995695 -0.13745672
0.24295042 -0.038979765 0.1432376 0.03327661 0.04624435 0.017974695 -0.2153581 0.0145538915
-0.021170616 0.04696417 0.25081342 -0.34593612 0.15256964 0.006802892 0.0051904363 -0.16721278
0.03373547 0.025814686 -0.01115775 -0.05784138 -0.02397284 -0.0308588 -0.06571086 0.06342955
-0.027247146 0.06822881 0.025974942 0.0067467326 0.020868696 -0.019556994 -0.109192915 0.0677005
0.17557602 -0.107728094 0.31105024 -0.051472727 0.16812454 0.021638963 -0.41481665 -0.006717552
-0.008677822 0.08619621 0.10087667 0.24949743 -0.0020846636 0.12792346 -0.04130572 0.03546854
-0.0073374324 -0.042304795 -0.029152771 -0.13748123 -0.20629641 0.065715216 0.08753869 0.07432893
-0.021957435 -0.024988484 0.052145764 0.107431896 -0.010161009 -0.17800824 -0.09227695 -0.04046047
-0.014975985 0.037920736 0.080136165 0.06606465 -0.0049550408 -0.049235377 0.5802979 0.20414533
0.14319827 -0.31560043 -0.034866184 0.17895497 0.05658106 -0.06973823 -0.045413017 -0.023366807
0.02539251 0.025741626 0.08096201 0.01810185 0.018350376 -0.023935925 -0.01080951 0.48762828
-0.04010574 0.030098705 -0.041488342 0.05321765 0.052839264 0.09947174 -0.06469967 0.09891468
-0.13890623 0.08735123 -0.056994013 -0.10553465 0.19832642 0.48182893 -0.025541624 0.108294584
-0.024109786 0.02578385 0.0058905547 0.07074857 -0.051821787 0.010525321 0.021894667 -0.053182293
-0.025767962 0.047712896 -0.030155053 0.071650945 0.18502514 0.34098735 0.14367428 0.019131927
-0.035880245 -0.22331616 0.08031425 0.026460929 -0.057736773 -0.021766247 0.19783302 0.14587761
-0.014346227 -0.015209819 -0.46088105 0.0059770397 0.17867744 -0.28405058 0.042536326 0.013847192
-0.10174257 -0.1832483 0.025721295 -0.63947827 0.11061421 -0.04355764 -0.013253562 -0.20743868
-0.0009444156 -0.012425349 -0.19023556 -0.00091367064 -0.021130353 0.14225367 0.015144596 0.010571847
-0.010939068 0.023900539 0.14123236 -0.010653745 -0.021920294 0.08464918 -0.003464535 -0.0114519335
0.12675138 -0.03693547 -0.002913839 0.10065284 -0.011289002 -0.10471086 -0.004374171 0.0070906617
0.011924172 -0.13480626 -0.034654714 0.011901495 -0.007511297 0.10211855 -0.0042351084 0.13085395
-0.04004521 -0.18493424 -0.14077137 0.017515166 -0.0736107 -0.32550773 0.0017203382 -0.076946445
-0.15348716 -0.105993636 -0.06291858 0.12666157 -0.037495904 0.02598105 0.09412668 0.11880126
0.11237945 0.010397207 -0.024823816 0.019017043 -0.6309639 0.2754709 -0.18183157 -0.002785859
-0.053104974 -0.18785226 -0.075073764 0.02120765 0.046967898 0.016825348 -0.14777334 -0.046021197

stages.1.0.pwconv1.bias f4 [32]
00000000: 4f79 74bc 4f83 9f3c 9cc0 9abc c199 103d
00000010: e3da 37bb e615 863c deec cdbc a8b5 99bb
00000020: 4328 80bb 639c 983c 2a99 6d3c e068 ebba
00000030: 7e56 8a3c 5986 09bb 712c 9c3c 7800 2a3d
00000040: 0647 083d 82de 01bb b51b c83c d3a2 b93a
00000050: 31f5 fc3b 3821 8e3a 6717 2f3d 2c5f 0e3d
00000060: 5d52 203d e99f 763c 9618 d03c 30a6 4e3d
00000070: 7155 3f3d 19d4 b83c 8a4b 193c 5354 e83c
-0.0149215 0.019471793 -0.018890671 0.03530288 -0.002805405 0.016367864 -0.025137361 -0.0046908446
-0.0039110496 0.018629258 0.014501849 -0.0017960332 0.016886946 -0.0020984618 0.01906416 0.041504353
0.03327086 -0.0019816463 0.024427274 0.0014162905 0.007719659 0.001084364 0.042746928 0.03475873
0.039141048 0.015052774 0.025402348 0.050451458 0.046712343 0.022562074 0.009356389 0.028360521

stages.1.0.pwconv2.weight f4 [16, 32]
00000000: a40f 19bd ce9e 7db9 99cf 1a3b a3a6 9d3a
00000010: 0224 953a f61d e43a c2dc 6e39 b9b1 b0bb
00000020: a254 533a 95bc 0b3d e0bc 47bb 4407 9fba
00000030: 36bf 4938 966d 37bb 74e8 91bb fe3d 91ba
00000040: b7d1 2e3b cf17 99ba 541f 53bb e2ec c6b9
00000050: 2ace bc3a ba26 c539 66b9 3cbb 3eda 2bbb
00000060: 5731 ce3a cba0 933b 451a 753b 7aaf 83bb
00000070: fdcf 4abe 3860 1d3a be0e feba e81e 3cbb
00000080: 366f ef39 9b9c 0fba 2a61 0cbb 29a3 26bb
00000090: 32ba ec3a f3d9 acba c8ba 7eba e17d 36bb
000000a0: 43aa 653c c28a 5ebb 64d4 00bb 886a ca3b
000000b0: 0732 4abb a991 8b3b 61eb d53b 740d ba3b
000000c0: 59f3 3f3b 8389 1fba 6931 123c a13c 153c
000000d0: abda 9dbb 0d00 0a39 9acf 76b9 c4dc 45bb
000000e0: e822 4bbb 4037 e2bb c426 023b 2337 5c3b
000000f0: a278 91bd 3da3 653a 47c0 1f3a a7ad 99ba
00000100: dce7 97bc 5f33 673c 7662 14bc a510 2c3d
00000110: 2acf 3c3b d809 8fbc 829c abbc 3499 7c3c
00000120: 6e62 ba3c a782 f53c 7e21 aabc b222 cf3c
00000130: 0a3f 96bc 1ebb b33c e367 d5bc 5e4b adbb
00000140: 0714 acbc de8d bdbc 2f55 bf3d bbd9 b13c
00000150: 0a3e d6bc e0f7 50bc f6ab c8bb 0eed 74ba
00000160: 3666 1fbc 6fe6 a5bc db20 a83c 630e 8a3a
00000170: 8dda 9fbb b17b e9bc 6445 8dbb 7504 2ebc
00000180: ae1b aa3b 6b83 c637 a6ed c13b 0f9d 183b
00000190: 960e bfba f0b1 833b 5b1d ba3b 8fcf fd3c
000001a0: ed4f 68bd 7021 8cbc 880f adbb 433e c23d
000001b0: 6fab 033b 8d03 86bc bba6 13bd 2eb1 2ebc
000001c0: 44ed 9dbd e5d4 85bc 66f3 eeba f9f2 47bc
000001d0: d6c7 6c3b a209 9f3a ab02 2d3b db81 00bc
000001e0: 94bf be3b 5136 373c b8a1 01bc a688 92bc
000001f0: a2d3 063c 6cdf 43ba 75cb 4f3c 041e 9a3c
00000200: d3e5 91bb 174e db3b edad 993a 988c 5b3b
00000210: 25c9 263b 6b80 8fbb dffd 4e3b 3736 523d
00000220: 3d07 473c 1ca7 b7bc 8633 b53c 55af babb
00000230: 1ddd 2a3c e113 f53a 2e02 e33d bc12 b83c
00000240: 24df c53b 88af 13bc 363d 403c ce16 313c
00000250: 2bd9 c23a d946 003a c667 a5bb 63b2 c73b
00000260: ea58 97bb 0668 373b fcf5 eebc ccd3 083d
00000270: 7f8c 9a39 bc6a c33b b97e 5d3b ee23 aebc
00000280: 7a61 fb3c 8ed7 c43d 9015 013d fdc8 ab3d
00000290: 1c8b 8d3d c004 cb3d ca30 90bc 1f41 633e
000002a0: 9449 17bd 3e3a 5fbc 81bc 94bd 2ecb 493d
000002b0: ee4a 92bc b6cc 8dbd cc5a eabd ba89 08bd
000002c0: a313 043e 2237 5abd 2680 15b9 760d 0ebe
000002d0: f143 8fbd e39e 263d d748 f03d d05b 1cbe
000002e0: 22bd b43d ce73 363b cebd 0ebe 6504 4cbe
000002f0: e09c fd3c 17da 62bd 39cc cc3d 7531 623d
00000300: 2022 d2bb 5d18 b13e ba67 debc 1aa4 593b
00000310: f6c2 3f3b ac4e 9a3a c317 4cbc 8bd7 e83c
00000320: a58e 093c dff6 23bb e656 92bb f503 53bc
00000330: 3956 6cbc b346 11ba 26e2 4cbc 929e 9fbb
00000340: 8bda 80bb ad86 c5bb 2e61 053c 35d1 f13b
00000350: e7d5 fabb b896 223b 60fc 66bb eef1 e2b8
00000360: 5dc8 39ba 9a39 903a 4515 b63a b7fc 723a
00000370: 15ea bf3b d21a f0bb b2c2 c03b 5cdb ebba
00000380: 1dd7 9d3a 4c5a f83a ed98 6e3b 7711 bbb9
00000390: 7970 a9ba d0ac 04bb 38b8 a33b b2d0 ee3c
000003a0: f4f1 b8ba 322a a0b9 d96c c83a 9c04 39bb
000003b0: cd15 5d3b 7a20 ceba 18af c3b9 9c32 1eba
000003c0: 4554 97ba b10d 783b 14b8 e8b9 2e64 e0ba
000003d0: 31e8 463b 17a5 1cbb 89ff ce3a c720 00bb
000003e0: f83c bd3a d3b8 0cbb 77e2 35bb c899 62bb
000003f0: d321 f1ba 330c 903d 3c6d 623a 297b 2ebb
-0.03736843 -0.0002418712 0.0023622273 0.0012027811 0.0011378529 0.0017403949 0.00022779687 -0.00539228
0.00080616225 0.034115393 -0.0030477569 -0.0012132903 4.8100213e-05 -0.0027988902 -0.0044527594 -0.0011081097
0.0026675293 -0.0011680069 -0.0032214718 -0.00037941994 0.0014404703 0.00037603622 -0.002879703 -0.0026222612
0.0015731257 0.004505252 0.003739969 -0.004018721 -0.19805904 0.00060034124 -0.0019383056 -0.0028704945
0.0004566849 -0.0005478353 -0.002142022 -0.002542684 0.0018060862 -0.0013187513 -0.00097171636 -0.0027846026
0.014017644 -0.0033957218 -0.0019657845 0.0061772503 -0.0030852573 0.0042593074 0.0065283035 0.0056778733
0.0029289334 -0.00060858595 0.008922913 0.009108693 -0.004817327 0.00013160724 -0.00023537726 -0.00301914
-0.0030996148 -0.006903559 0.0019859532 0.00336022 -0.07103087 0.0008759981 0.000609402 -0.0011724726
-0.018543176 0.014111369 -0.009056678 0.04200806 0.0028810003 -0.017460749 -0.020948652 0.015417386
0.022752013 0.029969526 -0.020767923 0.025285099 -0.018340606 0.02193981 -0.026050514 -0.0052885255
-0.021005644 -0.023138937 0.09342419 0.021710267 -0.02615263 -0.0127544105 -0.006124015 -0.0009343185
-0.009728959 -0.02025148 0.02052348 0.0010532852 -0.004878348 -0.028501363 -0.0043112505 -0.01062118
0.005191288 2.3664636e-05 0.0059182225 0.0023286974 -0.001457649 0.0040190145 0.005679769 0.03098276
-0.05671685 -0.017105788 -0.0052813925 0.09484532 0.0020091196 -0.016359115 -0.03604768 -0.01066236
-0.077112705 -0.016336868 -0.0018230497 -0.012203925 0.0036129854 0.0012133608 0.0026399295 -0.00784346
0.0058211777 0.011182384 -0.007912092 -0.017887425 0.008229168 -0.0007471952 0.012682785 0.01881314
-0.004452446 0.0066926586 0.0011724808 0.0033500548 0.0025449481 -0.0043793223 0.0031584424 0.051321235
0.012147722 -0.022418551 0.022119295 -0.0056971707 0.010428694 0.0018697941 0.110844 0.02246987
0.0060385633 -0.009014018 0.011733344 0.01080866 0.0014865746 0.00048933696 -0.005047771 0.0060942634
-0.0046187537 0.0027985587 -0.029170029 0.03340511 0.00029477847 0.0059636515 0.0033797456 -0.021257367
0.030686129 0.09611426 0.031514704 0.08387945 0.06911299 0.09913015 -0.01760139 0.2219281
-0.036935404 -0.013624726 -0.07262517 0.049266033 -0.017857995 -0.06923811 -0.114430994 -0.03333447
0.12898116 -0.053275235 -0.00014257486 -0.13872322 -0.06995381 0.04067887 0.11732643 -0.15269399
0.08825137 0.002784002 -0.13939592 -0.19923551 0.030958593 -0.055383768 0.0999989 0.055222947
-0.0064127594 0.345889 -0.02714907 0.0033209384 0.0029260493 0.0011772714 -0.012456837 0.028423091
0.0083958255 -0.0025018973 -0.0044659255 -0.012879361 -0.014424854 -0.0005541846 -0.01250509 -0.004871198
-0.0039323024 -0.0060280175 0.008140845 0.0073796757 -0.0076548937 0.0024809074 -0.0035245642 -0.00010821583
-0.00070870464 0.0011003495 0.0013891837 0.0009269225 0.005856762 -0.007327416 0.0058825845 -0.0017994451
0.0012042258 0.0018947809 0.003640707 -0.00035680432 -0.0012927196 -0.0020244606 0.004996326 0.029152248
-0.0014110194 -0.00030549016 0.0015291228 -0.0028231507 0.0033734918 -0.0015726232 -0.00037323753 -0.0006034763
-0.00115455 0.0037849958 -0.00044387637 -0.00171197 0.00303508 -0.0023902112 0.0015792708 -0.0019550787
0.0014437726 -0.0021472469 -0.0027753392 -0.0034576524 -0.0018396921 0.07033577 0.0008637493 -0.0026623702

stages.1.0.pwconv2.bias f4 [16]
00000000: 12a3 31b6 4591 2cb6 4541 3837 546e 3d36
00000010: 7571 fbb6 db3d dc37 33d1 8236 7a28 9236
00000020: 4c30 f1b6 48c5 37b6 8862 d036 ee93 f436
00000030: 7afb c535 7cde 7038 160f 01b7 d7aa 2e37
-2.6469975e-06 -2.5714555e-06 1.0982451e-05 2.8227414e-06 -7.493591e-06 2.6254847e-05 3.898656e-06 4.355851e-06
-7.187982e-06 -2.7383958e-06 6.2103536e-06 7.288988e-06 1.4750833e-06 5.7427664e-05 -7.692512e-06 1.0410985e-05

stages.2.0.gamma f4 [32]
00000000: 281b 78be 65a9 5d3e 2f8e 7c3e 9e11 66be
00000010: 42f6 a73e bfc6 8e3e 34f0 623e 8cfe 663e
00000020: abca 953e fd8d 58be 01fc 56be c5ca 5c3e
00000030: 156d 9ebe be5d 9d3e dbae 7e3e f652 5ebe
00000040: 004b a13e ef62 4c3e 2ce3 8c3e e19e 623e
00000050: 87ae 7a3e a100 0000 ff11 533e 17b5 55be
00000060: ce93 5cbe ea6d 8dbe f9a6 6f3e cb97 74be
00000070: 1373 7fbe 8030 59be a383 883e ddad 553e
-0.2422911 0.2164665 0.24663614 -0.22467658 0.32805067 0.27886006 0.22161943 0.2255804
0.29256186 -0.21147914 -0.2099457 0.21561725 -0.30942598 0.30735582 0.2487139 -0.21711335
0.31502533 0.19959615 0.27517068 0.2213092 0.2448064 2.26e-43 0.20612334 -0.20869862
-0.21540758 -0.2762292 0.23403539 -0.2388603 -0.24946241 -0.21209908 0.2666293 0.20867105

stages.2.0.norm.weight f4 [32]
00000000: aacc ee3e 5424 023f 582b f23e ef84 f53e
00000010: f61a f03e 5136 f33e ae1c f23e 2e1b f23e
00000020: 4cef f03e e5f6 ef3e 8fe1 f03e 0e7b f03e
00000030: 274f f13e f3de f33e 54cf f03e 8dc4 f43e
00000040: b16c f13e ec92 f33e ca16 f53e e054 f43e
00000050: f0de f13e afad f13e d1ee f03e 082b f13e
00000060: 84c5 ef3e 21a9 003f bdcd 003f cc4e f53e
00000070: 266b fd3e 3df1 f83e bd39 f63e 1654 f13e
0.4664052 0.5083668 0.47298694 0.47952983 0.4689557 0.47502378 0.47287506 0.4728636
0.4705757 0.46868053 0.47047088 0.46968883 0.471307 0.47631034 0.4703318 0.47806206
0.47153237 0.4757303 0.4786895 0.47721004 0.472404 0.47202823 0.47057202 0.47103143
0.4683038 0.5025807 0.5031393 0.4791168 0.4949581 0.4862155 0.48090926 0.47134465

stages.2.0.norm.bias f4 [32]
00000000: 9bd9 33bc be9a 84bc 4ab0 0f3d 0691 50bc
00000010: bb77 873c 0dfc 17bd c3c5 c83c 15af 85bc
00000020: 7021 c73b 9879 d73c 3b66 09bd f95d 423b
00000030: e939 6a3c 0e3e 473b fc25 39bc aea4 89bc
00000040: 0e17 04bd ff95 0bbc b659 1f3b 11ea 71bb
00000050: da8b e9bc 2ecd 963c 8df4 16bc dd96 d83c
00000060: e9ec b2bc 53fc 933b d553 a2bc 07d8 a3bc
00000070: dcbd a5ba 81cd 8eba 34ec 2e3d 489a b63c
-0.010977174 -0.016187068 0.03508023 -0.012729889 0.016536584 -0.03710561 0.024508363 -0.016318837
0.006076984 0.026303098 -0.03354476 0.0029658063 0.014296033 0.0030401978 -0.01130056 -0.016802158
-0.03224855 -0.008519649 0.0024314946 -0.0036913196 -0.02850907 0.018408384 -0.009213579 0.026439125
-0.021841483 0.0045161634 -0.019815365 -0.02000047 -0.0012645083 -0.0010894985 0.04270573 0.022290364

stages.2.0.norm.running_mean f4 [32]
00000000: 8040 023a 4bd0 bbbb a637 50ba 01f9 8a3b
00000010: 2b38 e7b7 53e8 98bb 2993 ad3b 5573 65ba
00000020: 385d f13a 9aca c83a 742b 01bb 719f 0e3a
00000030: e710 6eba feec ecba 6634 4e3b fae8 4fbb
00000040: e154 2bbb 0821 8c3b 8782 4ebb 9a09 903b
00000050: 224c 92bb d123 3cbb f766 13bb 804b 89bb
00000060: 7e27 3e39 d121 7c3b e95d c8bc 23e0 bb3b
00000070: 1194 ce3b 8760 eb3b c4b5 86bb a09b ab3b
0.00049687177 -0.0057316176 -0.00079428626 0.0042411094 -2.7563501e-05 -0.004666367 0.005297084 -0.00087528426
0.0018414622 0.0015319169 -0.0019709738 0.0005440629 -0.0009081498 -0.0018076 0.0031464337 -0.0031724558
-0.002614312 0.0042763986 -0.0031510906 0.004395676 -0.004464642 -0.0028707872 -0.0022491792 -0.0041899085
0.00018134524 0.0038472305 -0.024458842 0.0057335063 0.006304272 0.007183138 -0.0041110236 0.005237058

stages.2.0.norm.running_var f4 [32]
00000000: 0bbc a137 a4c6 4637 318a 3a39 4b58 6738
00000010: 5039 2c37 0aaa 0138 bc2c 0f3a 0d5c bc39
00000020: 088f 6c38 a8ce f738 cdd4 a537 d14f d537
00000030: e316 dd38 312c 7738 d6b9 4439 2df4 7937
00000040: 4f42 3c37 464b 2a38 2964 3037 df17 e03a
00000050: 4644 5838 52cf 0539 fb20 0e38 b686 1739
00000060: 615d 3b37 6c49 8a37 2949 fd39 f8e3 5638
00000070: 66b5 cc37 8f81 c637 9670 9337 f15c e138
1.928026e-05 1.1847969e-05 0.00017789823 5.515692e-05 1.0265343e-05 3.0914358e-05 0.0005461683 0.00035926737
5.6399993e-05 0.000118163705 1.9768626e-05 2.5428746e-05 0.00010542364 5.8930545e-05 0.00018761246 1.4898408e-05
1.1221112e-05 4.0601262e-05 1.0513738e-05 0.0017096958 5.1561998e-05 0.00012761101 3.3886154e-05 0.00014450666
1.116781e-05 1.6485072e-05 0.0004831043 5.123389e-05 2.4403165e-05 2.366377e-05 1.7576192e-05 0.00010746148

stages.2.0.pwconv1.weight f4 [64, 32]
00000000: 2e3d 3c3c c518 083d 918f 24bc 9ef6 f13c
00000010: 14b8 71bc 2915 223c a9a2 71bc 7a9d 5bbc
00000020: 704a 7039 c487 2239 a0fd 1a3c 67ee d4bb
00000030: 8f2e 3fbc 3770 4fbe 97f0 643c 208b c73c
00000040: 12ce 483c 4496 bbbb e732 083b 77ae 103c
00000050: 5af8 073e a7e6 dabb 386f 1e3c b473 afbb
00000060: 1ccf 3ebb 7097 0cbd 4998 b23b 2275 cb3b
00000070: 53e2 0dbc d734 1f3b bbba cc3b f88e 5fbd
00000080: 2d2c bf39 2a0c 8dbb 70ca b2ba 9049 be3a
00000090: 5a40 70ba 4974 903a 68b8 2fba 6b22 b4ba
000000a0: 9a52 c13a 70f8 01b9 21f4 b03a 6b5f 91ba
000000b0: 0ed9 7dba e24b db3a 2626 3f3a 1832 65bb
000000c0: 8afe 823a d5f2 0f3b 7478 2ebb bcbe 933a
000000d0: 34ff 963a d981 d5ba 01d9 963a b05e b6ba
000000e0: c47d 5539 6ed8 893b 2cbb 4ebb cade 0f3b
000000f0: cf34 4e3b 47e3 253b e1a6 39bb 892a d737
00000100: 7ec7 393b abe9 64bd 8d85 91bc 5a53 933c
00000110: 3d4e 08bc 4e11 533c 6554 70bb 5e7b fcbd
00000120: 8341 cc3c 2724 20bb 3f28 7b3c d742 57bc
00000130: 8e86 40bc 77e3 f03c 6f53 053c e6e9 2bbd
00000140: 85c7 1a3c ef94 ff3c 0a01 08bd 6aa8 6d3c
00000150: 7a1a 4f3c 6a0c b9bc 9acd 4d3c 617e 92bc
00000160: ce33 503b 25c8 553d 2544 29bd 28bd f23c
00000170: dcaf 213d c866 023d 9960 17bd d57c b13b
00000180: 307e 3e3b be6f 76bd 7713 90bc 1f65 813c
00000190: a603 2bbe c045 3b3c f4b5 ebbb 3018 7bbc
000001a0: 8ed1 843c 183f 0b3a bc8c 863c 9076 6fbc
000001b0: 6414 1cbc 1fdd 9b3c 994d 4a3c dd79 06bd
000001c0: 2e45 433c 7dc3 ce3c 01d3 e7bc 43c8 533c
000001d0: 743e 3f3c ff51 99bc 51f8 573c a11b 6abc
000001e0: f850 f83a 0790 273d b076 0bbd bdd3 c63c
000001f0: 0a1d 073d feb0 e63c 0cdd f7bc 4c01 b13a
00000200: c3e2 cd3b 7299 acbd ee5d 04bd d976 033d
00000210: 255d 51bc 4d8d d93c 35b8 93bc e9cf a7bc
00000220: ce74 133d c77a 73bb ba56 ff3c a61b bcbc
00000230: 98da a3bc d669 2f3d 41ad 243d b318 42be
00000240: 1f63 a53c 41b9 473d e294 52bd f240 db3c
00000250: ed15 fa3c f586 18bd eee9 e33c 2e06 e3bc
00000260: 17a5 7b3b 0fb0 c53d c7ca 8ebd 956d 5b3d
00000270: ef74 763d c570 753d 34f1 6ebd bc8f 4abb
00000280: 06ba 4cb6 c3b3 fdb8 9695 e6b7 13d4 5b38
00000290: c6d8 cdb7 eef8 bd37 b14e b1b7 2ef0 e5b7
000002a0: 9850 1838 0c81 1135 4157 0138 601a d1b7
000002b0: 1c8b 97b7 e229 2d38 cef1 2e37 37c2 cbb8
000002c0: ce64 ac37 58fe 7038 11bc 8fb8 6ae6 ae37
000002d0: 339b c237 226c 1fb8 af9d cb37 5c5e f3b7
000002e0: 5171 0437 b942 fd38 f278 a5b8 d165 6638
000002f0: 5d40 ad38 ec7e 7e38 3ef2 9fb8 c6a5 d936
00000300: d7ea 573b 36e1 243c ca48 5fbb 8c8b 443b
00000310: b3e2 90bb b381 473b 6381 97bb 23a0 84bb
00000320: 012e 9e39 e5f0 18ba cc5b 313b 7957 01bb
00000330: 2c18 63bb e81a d53a 79af 8f3b 5791 043c
00000340: cc3c 803b a8ad b3ba 0622 9a3a f142 6b3b
00000350: ca7d 423b 4c5f 03bb 49b8 293b cee5 21bb
00000360: 70f8 2dba 45c8 2fbc e6ec ea3a 7a89 0a3b
00000370: 3fd4 30bb 1af2 5f3a af14 ab3a d5db cbbb
00000380: 90f1 9bbb fe87 463a cc8b 133c fe7c edbb
00000390: a8c6 2e3c 5b2a e9bb 92b3 d23b c9e4 d43b
000003a0: 5213 a4bb 63b2 5c3b 183a f1bb 17f5 923b
000003b0: 97da e13b 58b0 c6bb b04a d7bb 80f0 fe39
000003c0: 919a fbbb 4fa0 acbb 45de cf3b da9b edbb
000003d0: a3ed f2bb 1af1 f93b 7e39 c5bb c09a f23b
000003e0: e848 93ba 71ee beb9 4f49 d73b 52b1 0cbc
000003f0: be6a bebb 58e8 01bc e3a2 003c c6c7 be3b
0.011489196 0.033226747 -0.0100439945 0.029536542 -0.01475336 0.00989274 -0.014748254 -0.013404245
0.00022915914 0.000155001 0.009459883 -0.0064981463 -0.011668815 -0.2025765 0.013973377 0.024358332
0.012256162 -0.0057247 0.0020782293 0.008830658 0.13278332 -0.006680328 0.009670071 -0.005354369
-0.0029115146 -0.03432411 0.0054502827 0.0062090317 -0.008659917 0.002429297 0.006247846 -0.054579705
0.00036463272 -0.0043044286 -0.0013640653 0.0014517773 -0.00091648626 0.0011020984 -0.0006703199 -0.0013743168
0.0014749349 -0.00012394949 0.001350049 -0.0011091059 -0.0009683528 0.0016730989 0.00072917563 -0.0034972485
0.0009994071 0.0021964808 -0.0026622089 0.0011272053 0.0011520148 -0.0016289308 0.0011508764 -0.0013913717
0.00020360114 0.0042067086 -0.0031544669 0.002195286 0.0031464582 0.002531247 -0.0028328227 2.5649804e-05
0.0028347666 -0.055886906 -0.017763877 0.017984081 -0.008319435 0.012882544 -0.0036671397 -0.12328218
0.024933582 -0.002443561 0.01532942 -0.013138494 -0.01175083 0.029405339 0.008137568 -0.04197111
0.009446983 0.031198947 -0.033204116 0.014505485 0.01264059 -0.022588927 0.012561226 -0.017882528
0.003176916 0.052192826 -0.041324753 0.029631212 0.039474353 0.0318363 -0.036957357 0.0054164925
0.0029066913 -0.06016516 -0.017587407 0.015795289 -0.1670061 0.011430204 -0.0071933214 -0.015325591
0.016213205 0.0005311831 0.01642453 -0.01461567 -0.009526346 0.019026337 0.012347602 -0.03283106
0.011918349 0.0252397 -0.028298857 0.012926164 0.011672605 -0.018715857 0.013181762 -0.014288814
0.0018945029 0.04090884 -0.034048736 0.024270887 0.03298668 0.028160568 -0.03025677 0.0013504415
0.0062831356 -0.08427705 -0.03231614 0.032095764 -0.012778555 0.026556635 -0.018032173 -0.020484881
0.036000066 -0.0037152038 0.031169284 -0.022962403 -0.020001695 0.042825542 0.04020429 -0.18954735
0.020188866 0.048760656 -0.051411517 0.026764367 0.030528033 -0.03723808 0.027821507 -0.027712908
0.0038397962 0.09652721 -0.069722705 0.053571302 0.06017011 0.059922 -0.058335498 -0.0030908426
-3.0506649e-06 -0.00012097463 -2.7487793e-05 5.241118e-05 -2.4538847e-05 2.2646473e-05 -2.1136688e-05 -2.741077e-05
3.6314683e-05 5.42045e-07 3.083726e-05 -2.4927023e-05 -1.806538e-05 4.128542e-05 1.0427508e-05 -9.71597e-05
2.0550939e-05 5.7457335e-05 -6.8538015e-05 2.0849711e-05 2.3198872e-05 -3.800926e-05 2.4272913e-05 -2.9011797e-05
7.894197e-06 0.00012076408 -7.890341e-05 5.4931097e-05 8.2612714e-05 6.0676524e-05 -7.626832e-05 6.4864025e-06
0.0032946372 0.01006346 -0.0034070485 0.0029990403 -0.004421556 0.0030442297 -0.0046235784 -0.00404741
0.00030170384 -0.0005834236 0.0027062772 -0.0019735976 -0.0034651859 0.0016258629 0.0043849316 0.008091292
0.0039134976 -0.001370837 0.0011759407 0.0035898054 0.0029677027 -0.0020045815 0.0025897196 -0.0024703625
-0.00066364463 -0.0107289 0.0017923384 0.0021139071 -0.0026981977 0.0008542851 0.0013052429 -0.0062212744
-0.004759021 0.0007573365 0.009005498 -0.0072475662 0.0106674805 -0.007115645 0.006430098 0.006497
-0.005007186 0.0033675663 -0.0073616616 0.0044847834 0.006892513 -0.0060635023 -0.0065701827 0.00048625842
-0.007678338 -0.0052681337 0.0063436353 -0.007251245 -0.0074135824 0.0076276185 -0.0060188165 0.0074037015
-0.0011236938 -0.00036417277 0.0065700184 -0.008587198 -0.0058110645 -0.00792893 0.007851335 0.0058221547
