saved_models/97_polygen_unfilled_myconvnext_2022_01_21_19_58_50.pt (torch, 132708 bytes, 125 tensors)

connection_layers.0.weight f4 [8, 1]
0	0xbfc164fa	-1.5108941
1	0x3fb03a1f	1.3767737
2	0xbf9e4d0c	-1.2367263
3	0xbf3ff83f	-0.7498817
4	0xbedc10a9	-0.4298146
5	0xbf8c401d	-1.0957066
6	0xbf43926f	-0.76395315
7	0xbcb8327f	-0.022485016

connection_layers.0.bias f4 [8]
0	0x3794da01	1.774449e-05
1	0x37a5e205	1.9774781e-05
2	0x37ad876e	2.0686271e-05
3	0x379ac589	1.8450215e-05
4	0x3818c6fd	3.6424946e-05
5	0x3745c973	1.1789019e-05
6	0x37ca766c	2.4135421e-05
7	0x3a14ead8	0.00056807464

connection_layers.1.weight f4 [16, 8]
0	0xbdfa16f0	-0.12211406
1	0x3a82255d	0.0009929348
2	0x3d830a41	0.0639844
3	0x3e26e609	0.16298689
4	0xbd397dfa	-0.045286156
5	0x3e880246	0.26564234
6	0x3dbcb025	0.092132844
7	0x3da15583	0.07877638
8	0x3dc17a47	0.09447151
9	0x3dc85cb6	0.09783308
10	0xbba15a62	-0.0049241045
11	0xbe166ae0	-0.14689207
12	0x3a5e6e79	0.00084850896
13	0xbcf2ad93	-0.029623782
14	0x3ea4bc50	0.3217492
15	0x3d2ad5c2	0.04170776
16	0xbf242da9	-0.6413217
17	0xbdbb7e1e	-0.09154914
18	0xbe2431fb	-0.16034691
19	0xbd4c276b	-0.04984228
20	0x3b094a62	0.0020948877
21	0x3d7306bf	0.059332605
22	0x3e8aa647	0.27079985
23	0xbb41b1c1	-0.0029555412
24	0x3dd57f1c	0.10424635
25	0x3c9401ea	0.018067319
26	0xbdcac2c9	-0.099004336
27	0xbeb425de	-0.3518514
28	0xbac3a162	-0.0014925415
29	0x3dd7345c	0.10508034
30	0x3c47fce3	0.012206289
31	0x3ef18e4d	0.4717888
32	0xbe69e154	-0.22839862
33	0xbbdf9f9c	-0.006824447
34	0xbed9db8e	-0.4255032
35	0xbdc4b045	-0.09603933
36	0x3e9b8fd9	0.30383185
37	0xbd143806	-0.03618624
38	0x3e62d286	0.22150621
39	0x3d5ac13c	0.05340694
40	0xbf01140c	-0.50421214
41	0xbd0388df	-0.032112952
42	0xbf602251	-0.8755236
43	0x3f0b11ec	0.5432422
44	0x3b80ab82	0.0039266953
45	0x3d154717	0.03644475
46	0x3e11f7e8	0.14254725
47	0x3dc30cbd	0.09523914
48	0x3e72b392	0.23701313
49	0x3d1745bb	0.036931735
50	0xbe9af9c1	-0.30268672
51	0x3e7ca494	0.24672157
52	0x3a963ae2	0.001146164
53	0xbe203f83	-0.15649228
54	0x3e8e0250	0.2773614
55	0x3cefc82f	0.02927026
56	0xbe195115	-0.14972337
57	0x3dd26b7c	0.10274407
58	0xbe902b92	-0.28158242
59	0x3ee26898	0.44220424
60	0xbebe7ace	-0.37203068
61	0x3d7fc0a4	0.062439576
62	0x3ea0a82d	0.31378308
63	0xbe869cfe	-0.2629165
64	0x3e0688b3	0.13138084
65	0xbdcf10a5	-0.101105966
66	0xbd87d9ad	-0.06633315
67	0xbe2037c8	-0.15646279
68	0xbd9f5845	-0.07780508
69	0x3ed80bd9	0.4219654
70	0x3b60b888	0.0034289677
71	0x3f2cdfa8	0.6752877
72	0xbe6f753f	-0.2338457
73	0x3dcdd23e	0.10049866
74	0x3e1dbf99	0.1540512
75	0xbe441767	-0.19149552
76	0x3a95ad1a	0.0011419386
77	0x3e3d9fd4	0.18518001
78	0xbe96bfbc	-0.29443157
79	0x3c88b80a	0.01668932
80	0xbdab1452	-0.08353485
81	0xbd8cf4f8	-0.068826616
82	0x3e685477	0.22688471
83	0x3ce7db0a	0.028302688
84	0xbdcf04df	-0.10108351
85	0xbea9ce87	-0.3316538
86	0x3e0cb7b0	0.13741946
87	0x3b5dd077	0.0033846179
88	0xbe27126b	-0.1631562
89	0x3d811fa9	0.06304867
90	0x3e90bbee	0.2826838
91	0x3e8575cc	0.26066434
92	0xbb6e126e	-0.0036326903
93	0xbe36fcb3	-0.17869835
94	0x3d20ce31	0.03925914
95	0x3e490a90	0.19632936
96	0xbe62def9	-0.2215537
97	0x3f0c8c0c	0.54901195
98	0x3dbf5419	0.09342212
99	0x3da85b91	0.0822059
100	0xbe9cbead	-0.30614224
101	0xbcf853d8	-0.030313417
102	0xbdabd450	-0.08390105
103	0x3e59a638	0.21254814
104	0xbcabf45c	-0.020990543
105	0xbdb95c2a	-0.09050782
106	0xbd66bcbc	-0.056332335
107	0x3e0a184f	0.13485835
108	0x3bcc3245	0.0062315785
109	0xbdd08c53	-0.10183015
110	0xbe54a8ea	-0.2076756
111	0xbcd0363d	-0.025416488
112	0x3e5a6cea	0.2133061
113	0x3c929637	0.017893894
114	0xbe404d65	-0.18779524
115	0x3b9cd3a6	0.0047859726
116	0x3b379dd5	0.002801766
117	0x3e05967d	0.13045688
118	0xbc9f420e	-0.019440677
119	0x3e800eda	0.2501133
120	0xbe06474b	-0.13113134
121	0xbe920d7c	-0.28525913
122	0x3dc4b5a2	0.09604956
123	0xbe8c9deb	-0.27464232
124	0x3cfc54c3	0.030802136
125	0x3ecf2745	0.40459648
126	0xbe0f8960	-0.14017248
127	0x3d9cdc7f	0.07659244

connection_layers.1.bias f4 [16]
0	0x3d1ff99c	0.039056405
1	0x3ab301ee	0.0013657191
2	0x3cebc705	0.028781423
3	0x3c720dcf	0.0147738
4	0xbd89134f	-0.06693136
5	0x3c84251c	0.016130976
6	0x3c8475f2	0.016169522
7	0xbc2e93d4	-0.010655362
8	0x3b3ae034	0.0028514983
9	0x3c9c6465	0.01909084
10	0x3c250239	0.010071331
11	0x3c89d076	0.016823035
12	0xbd6a647d	-0.05722474
13	0x3b56eec6	0.0032796129
14	0xbc3f45fc	-0.0116744
15	0x3ba9ee3a	0.0051858695

connection_layers.2.weight f4 [32, 16]
0	0x3cea7576	0.028620463
1	0x3dd996b0	0.106244445
2	0x399f46d8	0.00030379626
3	0xb985fdd9	-0.00025556868
4	0xbe9e7ae9	-0.30953148
5	0xbd3240a3	-0.043518674
6	0xbab8d2c3	-0.0014100898
7	0x3a0f1df4	0.00054594805
8	0xbb3925a7	-0.0028251202
9	0x38d35420	0.000100769335
10	0xbe311f4d	-0.17297097
11	0x3ae604c6	0.001754903
12	0xba2782d9	-0.0006390042
13	0xbc20b7f1	-0.00980948
14	0x3b557a68	0.003257418
15	0x3d8b5441	0.068031795
16	0x3a5c593f	0.00084056327
17	0xba5acaa9	-0.0008346239
18	0xbd0bd832	-0.034141727
19	0xbab1f051	-0.0013575648
20	0x3d8345b1	0.06409777
21	0xbd4b2f89	-0.04960588
22	0xbc90a684	-0.017657526
23	0x3b36d563	0.0027898184
24	0xbd264cda	-0.040600635
25	0x3b6a2001	0.0035724642
26	0x3d15b8b6	0.036553107
27	0x3d2f6e4b	0.042829793
28	0x3a8dab99	0.0010808586
29	0x3e167233	0.14692001
30	0x3bdad675	0.0066783973
31	0xbbbf1575	-0.0058314153
32	0x3848223d	4.7715603e-05
33	0x3ab578fc	0.001384526
34	0x3abe731e	0.0014530157
35	0x39aa6afe	0.00032504642
36	0x3a14c64e	0.00056753017
37	0xbe5fd6e7	-0.21859322
38	0x3a6f195c	0.00091209053
39	0x3a275726	0.00063835306
40	0x3c7fa03e	0.01560217
41	0xba993be5	-0.0011690824
42	0x3d8eb909	0.069688864
43	0x3b24ae82	0.0025128429
44	0xb9a9686b	-0.0003231199
45	0xbc9ba741	-0.019000651
46	0x3da2ae58	0.0794341
47	0xbb6dacaa	-0.0036266246
48	0x3e0874b1	0.13325764
49	0xbaad3c7c	-0.0013216878
50	0x3b43b660	0.0029863343
51	0x391365e4	0.0001405697
52	0x3ac5136d	0.0015035697
53	0x3d58b71d	0.052909005
54	0x3b47d6cb	0.0030493017
55	0xbd02b075	-0.031906564
56	0xbba305bb	-0.0049750484
57	0x3be41d28	0.0069614835
58	0x3bf5f11d	0.0075055496
59	0x3a221960	0.0006183591
60	0x3a4e0bff	0.0007860064
61	0x3c3e67d2	0.011621432
62	0x3aa7562b	0.0012766769
63	0x3c844afe	0.01614904
64	0x39169d18	0.00014363637
65	0x3c55b8b8	0.013044529
66	0x3c869f39	0.016433345
67	0x3a054c00	0.0005084872
68	0x391db2c4	0.00015039282
69	0xbd7c2284	-0.061556354
70	0x3a80d6ea	0.0009829674
71	0x399cbf7f	0.00029897314
72	0xbb025727	-0.0019888373
73	0xb9d63991	-0.0004086015
74	0xbb4c3e04	-0.0031164894
75	0x3a68686e	0.0008865659
76	0xba9aaaad	-0.0011800133
77	0xbc65048a	-0.013978133
78	0x3cbd5342	0.02311099
79	0xbb125dda	-0.0022333772
80	0x3a37433f	0.00069909164
81	0xba761eeb	-0.00093887624
82	0x3c5ecb17	0.013598225
83	0xba027faf	-0.0004978133
84	0xbb10ce09	-0.0022095463
85	0xbd03458f	-0.032048758
86	0xbc9e127b	-0.019295922
87	0xbaaa3796	-0.0012986537
88	0x3c54d31d	0.012989786
89	0x3a8bfe2d	0.0010680609
90	0xbc9e5c3b	-0.019331088
91	0xba1fea6d	-0.0006100301
92	0xbb02590f	-0.001988951
93	0xbc8172ae	-0.015801754
94	0xbbfa3ceb	-0.0076366565
95	0xbb041bf1	-0.0020158256
96	0x377afe16	1.496032e-05
97	0x3e18e383	0.14930539
98	0xbb6c237e	-0.0036031897
99	0x3d11fe30	0.035642803
100	0x3affd197	0.0019517419
101	0x3e1d2c82	0.1534901
102	0xbb21162e	-0.002457987
103	0x3c9d642d	0.019212807
104	0xbb9c6821	-0.0047731553
105	0xba648134	-0.00087167625
106	0x3bee3de6	0.0072705625
107	0x3aab633a	0.0013075836
108	0x3e90173e	0.28142732
109	0xbc1ec08e	-0.009689463
110	0x3b88b7ad	0.0041722865
111	0x39f8f9af	0.00047488275
112	0xb818717c	-3.6345315e-05
113	0x3a2ee6d0	0.0006671967
114	0x3acc0d4b	0.0015567926
115	0x39ddc6fb	0.00042300657
116	0xba703651	-0.0009163367
117	0xbe9fbb3e	-0.31197542
118	0x3849bd80	4.809862e-05
119	0xb9795eb4	-0.0002378177
120	0x3a8779ec	0.0010336018
121	0x39d0bcf4	0.00039813633
122	0x3ce6599e	0.028118905
123	0xb98b025a	-0.00026513898
124	0xb9bdf297	-0.00036229633
125	0xbc440392	-0.011963742
126	0xbb16e315	-0.0023023535
127	0xba680ac5	-0.00088517024
128	0x3e90f05b	0.28308377
129	0x3b5419eb	0.003236408
130	0x3c27c296	0.010239264
131	0x3ad69704	0.001637191
132	0xbba71ba5	-0.005099731
133	0xbcec21cb	-0.028824707
134	0x3b85fcfd	0.0040889964
135	0xba9a473d	-0.0011770498
136	0x3c38c44f	0.011277272
137	0xba3de016	-0.0007243169
138	0xbca22cd3	-0.019796764
139	0xbb90f7af	-0.0044240574
140	0xbb4eed76	-0.0031574643
141	0xbca69f5a	-0.020339657
142	0xbb886bd5	-0.004163245
143	0x39d66042	0.00040888978
144	0x382cdf09	4.1215713e-05
145	0x3a665479	0.0008786391
146	0x3d7a05c2	0.061040647
147	0xba421e13	-0.0007404994
148	0xba42f5f6	-0.0007437164
149	0x3d1a5416	0.037677847
150	0x3d4312a4	0.0476252
151	0x3eb5d32a	0.35512668
152	0xbb8dde91	-0.0043295105
153	0xbaf5a511	-0.001874121
154	0xbb7a4e6a	-0.003819371
155	0x3a8d8103	0.0010795895
156	0xbe8b62d9	-0.27223852
157	0x3bcb08e1	0.006196127
158	0xbae4babf	-0.0017450674
159	0xb8526795	-5.016437e-05
160	0xb9caa80f	-0.00038653656
161	0xbe8193fa	-0.2530821
162	0xbbc4197f	-0.0059844847
163	0x3d51cada	0.051218845
164	0x3bad366a	0.0052860277
165	0x3d250cd5	0.04029544
166	0x3b3216d8	0.002717426
167	0x3a71d7ba	0.0009225566
168	0xbbefbce7	-0.00731622
169	0x3ad0d727	0.0015933261
170	0x3ae92ebe	0.001779042
171	0x3a1b0947	0.0005914163
172	0xba8dfdb9	-0.0010833062
173	0xba81395d	-0.0009859015
174	0x3e168654	0.1469968
175	0xbb1a2bf6	-0.0023524738
176	0x3a2f2801	0.0006681681
177	0xbb6fb2a9	-0.0036574996
178	0xbc092b62	-0.00837216
179	0xba3f4a6f	-0.0007297163
180	0x3c26c8bf	0.010179698
181	0x3d3d6ca5	0.04624619
182	0x3be000a0	0.006836012
183	0x3b302868	0.0026879553
184	0xbc265b19	-0.010153555
185	0x39a7444b	0.00031903604
186	0x3cc7fb8e	0.024411943
187	0x3b815a09	0.0039475006
188	0xbe102ff4	-0.14080793
189	0x3b97c196	0.0046312315
190	0x3c0b4f37	0.008502773
191	0x3dae4ef5	0.085111536
192	0x38bbf094	8.961666e-05
193	0xb99183e2	-0.00027754816
194	0x3d9dc262	0.07703091
195	0xba2e0a61	-0.000663912
196	0xbe2beb86	-0.16789064
197	0xbd25d64e	-0.04048758
198	0xb8735244	-5.801233e-05
199	0x3a8be2b2	0.0010672419
200	0xbaf702ce	-0.001884544
201	0xba1e9dab	-0.0006050716
202	0x3b2e7cda	0.002662471
203	0x3ad2900f	0.0016064661
204	0xb95c954b	-0.00021036451
205	0xbb9ab843	-0.0047216727
206	0x3b90199b	0.0043975837
207	0xb83b894f	-4.4712153e-05
208	0xba427b83	-0.00074189174
209	0x3b44c7ee	0.0030026394
210	0x3de50f6f	0.11184584
211	0xbd96c178	-0.0736112
212	0xbb90cdd2	-0.004419067
213	0xbcefe7d5	-0.02928535
214	0x3bce199b	0.0062896735
215	0xbafde6ec	-0.0019371188
216	0xbb0fe99f	-0.0021959317
217	0x3a7de653	0.0009685505
218	0xbc7f5c28	-0.015585937
219	0xbc87fb3a	-0.016599286
220	0x39e69514	0.0004398009
221	0xbc60be27	-0.013717211
222	0xbc28c93e	-0.010301886
223	0xbc0617f1	-0.008184419
224	0x3a14fcc3	0.00056834164
225	0xbad128a0	-0.0015957542
226	0x3bd872f5	0.006605501
227	0x3a877aee	0.0010336319
228	0xbaaeea2d	-0.0013344936
229	0xbd3fde84	-0.046843067
230	0x3b6eeb9b	0.003645635
231	0xbab20070	-0.0013580453
232	0x3c15672d	0.009118837
233	0x3b6d9810	0.0036253966
234	0xbcce33b4	-0.025171138
235	0xbae6f0d9	-0.0017619386
236	0xbad2cc60	-0.0016082637
237	0xbc176531	-0.0092404345
238	0xbba0ea8a	-0.0049107717
239	0xba26ee8e	-0.0006367945
240	0x3a15e701	0.0005718321
241	0x3e17eae2	0.14835694
242	0xbe2ec63f	-0.17067812
243	0xba56b46e	-0.0008190338
244	0xbbb1d0d4	-0.0054265056
245	0x3d10cb5c	0.03535019
246	0x3bb7faf0	0.005614631
247	0x3b1a3f79	0.0023536368
248	0x3e54887a	0.20755187
249	0xbbca5188	-0.00617427
250	0x3bbc0b74	0.00573867
251	0xbce86c80	-0.02837205
252	0xba860488	-0.0010224739
253	0xbdcd2594	-0.10016933
254	0xbd59f7e3	-0.05321492
255	0xbabf3961	-0.0014589244

connection_layers.2.bias f4 [32]
0	0x3a4632f7	0.0007560695
1	0xbc003dfc	-0.007827278
2	0x3b8414e7	0.004030812
3	0xbbfc79f5	-0.007704968
4	0x3917b50b	0.00014467926
5	0xbbc0c228	-0.00588252
6	0x3bcb5e37	0.0062062996
7	0x3b9bdfc8	0.0047569014
8	0xbad598a1	-0.0016296097
9	0x3b4fb7ff	0.0031695364
10	0x3b79a2b1	0.0038091356
11	0x3b2902be	0.0025788988
12	0xba62178d	-0.0008624725
13	0xbb4519f0	-0.0030075274
14	0x3b3db9bb	0.0028949815
15	0x3b8ec227	0.004356641
16	0xbbc636ea	-0.0060490267
17	0xbbe33b66	-0.006934571
18	0x3ba73367	0.005102563
19	0xbb7aa595	-0.0038245667
20	0x3c0065dd	0.007836786
21	0x3a82d764	0.0009982404
22	0xbbcb82e4	-0.0062106717
23	0x3ba68326	0.005081552
24	0xbb0edd9c	-0.002179957
25	0xbb5db6b7	-0.003383083
26	0x3cc441e3	0.023957198
27	0x3b54fda4	0.0032499814
28	0xbbfd02ae	-0.0077212667
29	0xbc90bc75	-0.017667988
30	0xb945e2f2	-0.00018871928
31	0x3bf74fb5	0.0075473436

norm_layers.0.weight f4 [8]
0	0x3eda57ce	0.42645115
1	0x3edd1d67	0.43186495
2	0x3eda6203	0.42652902
3	0x3eda61d1	0.42652753
4	0x3eda68e5	0.42658153
5	0x3edb236b	0.4280046
6	0x3edcb79b	0.4310883
7	0x3eda4c60	0.42636395

norm_layers.0.bias f4 [8]
0	0x3c066fc1	0.008205355
1	0xbda858aa	-0.08220036
2	0x3cf77e9c	0.03021174
3	0xbd085c8a	-0.033291377
4	0x3ceef868	0.029171184
5	0x3d9e43f7	0.07727807
6	0x3dd6bcd6	0.10485236
7	0x3bab4dab	0.0052277646

norm_layers.0.running_mean f4 [8]
0	0xbdc6f0f8	-0.0971393
1	0x3db556e5	0.088544644
2	0xbda2d35e	-0.07950471
3	0xbd456ef3	-0.048201513
4	0xbce2318d	-0.027611518
5	0xbd90447e	-0.07044314
6	0xbd491b88	-0.04909852
7	0xba62af4a	-0.0008647336

norm_layers.0.running_var f4 [8]
0	0x3e0ca6d1	0.1373551
1	0x3de9944a	0.11405237
2	0x3dbc7a3d	0.092030026
3	0x3d0a985a	0.0338367
4	0x3c3625b1	0.011117385
5	0x3d93f250	0.07223952
6	0x3d0fd856	0.035118423
7	0x37ff274b	3.0416666e-05

norm_layers.1.weight f4 [8]
0	0x3f2fa0d6	0.6860479
1	0x3f0bd022	0.5461446
2	0x3f280730	0.6563597
3	0x3f27eb17	0.65593094
4	0x3edd77c9	0.4325545
5	0x3f26f4e9	0.65217453
6	0x3f3283cf	0.69732374
7	0x3f168492	0.58796036

norm_layers.1.bias f4 [8]
0	0xbbe0daee	-0.006862036
1	0xbd2ea31c	-0.042636022
2	0x3b8c07c9	0.004273389
3	0xbbc52110	-0.0060159042
4	0xbb8b3c99	-0.004249167
5	0x3bf2b4d7	0.0074068117
6	0xbbf30bbb	-0.00741717
7	0xbae2e769	-0.0017311397

norm_layers.1.running_mean f4 [8]
0	0x3aaaa1b5	0.0013018163
1	0x399e513a	0.00030196627
2	0xba9141c2	-0.001108222
3	0xba541f16	-0.00080917904
4	0xb794f4fe	-1.7757058e-05
5	0x399fd478	0.00030485145
6	0xb98df374	-0.00027075002
7	0xb95f95b2	-0.00021322703

norm_layers.1.running_var f4 [8]
0	0x3692e0d8	4.3773143e-06
1	0x3563abf1	8.48143e-07
2	0x361307dc	2.1909282e-06
3	0x36b7754a	5.4674792e-06
4	0x329589ff	1.7408636e-08
5	0x36a29748	4.8455877e-06
6	0x355eb91f	8.297083e-07
7	0x3703ecc6	7.863337e-06

norm_layers.2.weight f4 [16]
0	0x3edc087c	0.42975223
1	0x3edb4c1a	0.42831498
2	0x3edbdb99	0.42940977
3	0x3edd95d4	0.43278372
4	0x3edfc592	0.43705422
5	0x3f05e00f	0.5229501
6	0x3edb4624	0.4282695
7	0x3edb6cfa	0.4285658
8	0x3edb3aab	0.42818198
9	0x3eda5beb	0.42648253
10	0x3edb81e8	0.42872548
11	0x3edcedbe	0.43150133
12	0x3edbd470	0.42935514
13	0x3efff5e9	0.49992302
14	0x3edca66c	0.4309572
15	0x3ee23fb6	0.44189233

norm_layers.2.bias f4 [16]
0	0x3c1e9b38	0.009680562
1	0x3b3f38fa	0.0029178248
2	0x3c5540b7	0.0130159175
3	0x3c176fe7	0.009242988
4	0xbb5162a1	-0.0031949657
5	0xbad929b2	-0.0016568212
6	0x3c06a639	0.0082183415
7	0x3a1319bd	0.000561144
8	0x3902abad	0.0001246172
9	0xba9b6c1a	-0.0011857778
10	0x3bbb19df	0.005709871
11	0x39fc625a	0.00048138463
12	0x3adcb6f7	0.0016839196
13	0xbca552c4	-0.020181067
14	0x3a6f16cf	0.0009120525
15	0xbb6f0ead	-0.0036477253

norm_layers.2.running_mean f4 [16]
0	0x37c620b9	2.3618677e-05
1	0xb857fdfe	-5.1496543e-05
2	0x37dfe0c2	2.6688333e-05
3	0x36342dc9	2.684874e-06
4	0xb8716359	-5.7551402e-05
5	0x3a7b4c84	0.0009586292
6	0x38cee9a7	9.8663666e-05
7	0xb75b33d2	-1.3065483e-05
8	0x38388f70	4.4002605e-05
9	0xb857d3fd	-5.1457424e-05
10	0xb940b48a	-0.00018377803
11	0xb6c84d7b	-5.9694844e-06
12	0xb7631db5	-1.3537171e-05
13	0x3b7d9781	0.003869504
14	0x378abd14	1.6538928e-05
15	0x37969da0	1.7954793e-05

norm_layers.2.running_var f4 [16]
0	0x2fd37294	3.846209e-10
1	0x31aa70dd	4.9604822e-09
2	0x328a5181	1.6102378e-08
3	0x30d68a9e	1.5609947e-09
4	0x3221ec9a	9.42523e-09
5	0x3630f90d	2.637101e-06
6	0x325b1985	1.275328e-08
7	0x30c0fdf4	1.4042016e-09
8	0x334e5fc2	4.8050204e-08
9	0x3249c341	1.1744135e-08
10	0x33ec096a	1.0991319e-07
11	0x329a8807	1.7989818e-08
12	0x312ec7c7	2.5433893e-09
13	0x36b8d6f2	5.5086502e-06
14	0x32999a05	1.7881584e-08
15	0x3292b216	1.7077621e-08

stages.0.0.gamma f4 [8]
0	0x3c16fd5e	0.009215681
1	0x3baa2958	0.005192917
2	0x3bd29d3b	0.0064274347
3	0x3c1c1223	0.0095258085
4	0xba9e2953	-0.0012066759
5	0x3c0ad6c1	0.008474053
6	0x3b27512c	0.002553056
7	0x3c772b89	0.015086063

stages.0.0.norm.weight f4 [8]
0	0x3f238313	0.6387188
1	0x3f279f57	0.6547751
2	0x3f16abc5	0.5885585
3	0x3f22f902	0.63661206
4	0x3f20c041	0.62793356
5	0x3f2a5300	0.665329
6	0x3f1b8a15	0.6075757
7	0x3f1e85b8	0.6192279

stages.0.0.norm.bias f4 [8]
0	0x3c1bc879	0.009508246
1	0x3d056211	0.032564227
2	0xbca6d839	-0.020366775
3	0xbb5db143	-0.003382758
4	0x3cb4f507	0.022089494
5	0x3d3fefb7	0.04685947
6	0x3d397faf	0.045287784
7	0xbd2c2d0e	-0.042035155

stages.0.0.norm.running_mean f4 [8]
0	0xbaf436b7	-0.0018632029
1	0x3c8b8116	0.017029326
2	0x3c09a4c4	0.0084011
3	0xbcb8e029	-0.022567825
4	0x3ce3c2f5	0.027802924
5	0xbd98ce4e	-0.074612245
6	0x3daa6b87	0.083212905
7	0x3bb69d7d	0.0055729733

stages.0.0.norm.running_var f4 [8]
0	0x3dd2303d	0.10263107
1	0x3d2df954	0.042474106
2	0x3db5a9a7	0.08870249
3	0x3de2644c	0.11054286
4	0x3e31bfc7	0.17358314
5	0x3e4c7d64	0.19969708
6	0x3e150fef	0.1455686
7	0x3e27a7dd	0.16372629

stages.0.0.pwconv1.weight f4 [16, 8]
0	0x3e05580b	0.13021867
1	0xbdee32f7	-0.116308145
2	0xbc38b639	-0.011273914
3	0x3d8d7b87	0.069083266
4	0x3f72b658	0.94809484
5	0xbdc4bdeb	-0.096065365
6	0x3e8b7cc2	0.2724362
7	0xbeae95d1	-0.34098676
8	0xbda6dd03	-0.081476234
9	0x3f0774cd	0.529126
10	0xbe3ae1e5	-0.18250234
11	0x3f150554	0.58211255
12	0x3d88b0b5	0.06674329
13	0x3d2d0944	0.042245165
14	0xbeb43b4a	-0.35201484
15	0xbc2245ca	-0.009904334
16	0x3f1f7b96	0.6229795
17	0xbe2e3509	-0.17012419
18	0xbd242ec9	-0.04008368
19	0xbee9ca57	-0.45662186
20	0x3e67f9df	0.22653912
21	0xbe6c8fd9	-0.23101749
22	0x3c984120	0.018585742
23	0xbe8184cd	-0.2529663
24	0xbeb24ffc	-0.34826648
25	0x3e3b02c5	0.18262775
26	0xbd94b88d	-0.07261763
27	0xbea1dc61	-0.31613448
28	0x3e3b8805	0.18313606
29	0xbe328240	-0.17432499
30	0xbd1d3f6d	-0.038390566
31	0x3d673ac0	0.056452513
32	0xbd6246ed	-0.05524342
33	0xbc0714a4	-0.008244667
34	0xbd5a0a04	-0.053232208
35	0x3d2d2785	0.042274017
36	0x3d50320f	0.05082899
37	0x3df78e02	0.12087633
38	0xbbda77a7	-0.0066670957
39	0xbc01b7bd	-0.007917342
40	0x3c3dda92	0.011587756
41	0xbf34a2c3	-0.70560855
42	0xbc877138	-0.01653348
43	0xbcf9c197	-0.030487819
44	0x3cb43c2c	0.022001348
45	0xbd988003	-0.07446291
46	0x3ca98b76	0.020696383
47	0x3e6e52b0	0.2327373
48	0xbe2a9dde	-0.16661784
49	0xbe690d04	-0.22758871
50	0x3e985b44	0.2975713
51	0xbedc1bed	-0.42990056
52	0xbe8856f0	-0.26628828
53	0x3d95bcad	0.07311378
54	0x3d4f4ef7	0.050612416
55	0xbc809304	-0.015695103
56	0xbeb70913	-0.3574911
57	0xbe9c0588	-0.3047297
58	0x3de4bb4c	0.111685365
59	0x3cd32632	0.025775049
60	0xbec7c675	-0.39018598
61	0xbdfae277	-0.12250226
62	0x3f02b653	0.51059455
63	0xbdaab915	-0.08336083
64	0x3cc3912b	0.023872932
65	0xbdccd478	-0.10001463
66	0x3da7f31e	0.08200668
67	0x3d18602a	0.037201084
68	0x3ed24b71	0.41073182
69	0x3d883943	0.06651547
70	0x3cba2b6d	0.022725785
71	0x3e0a75db	0.13521521
72	0x3deacbf0	0.11464679
73	0x3d808f43	0.06277325
74	0xbcbb5ae6	-0.022870492
75	0x3e821e8f	0.2541394
76	0xbf324040	-0.6962929
77	0xbe000f7a	-0.12505904
78	0x3de1df17	0.11028879
79	0x3d40f28d	0.047106314
80	0x3f1547da	0.5831276
81	0xbe07cb16	-0.13261065
82	0xbd7ff94e	-0.062493615
83	0x3e2626df	0.16225766
84	0x39f30f0c	0.00046359783
85	0xbc377d96	-0.011199376
86	0x3edd79c3	0.4325696
87	0xbe5a43b6	-0.21314892
88	0x3c3eb427	0.011639631
89	0xbe080799	-0.13284148
90	0xbf06409e	-0.5244235
91	0xbe987581	-0.29777148
92	0x3dd21c08	0.10259253
93	0x3e18ab39	0.14909066
94	0x3f155867	0.58338016
95	0x3f17b868	0.59265757
96	0x3b3024d0	0.002687741
97	0xbca411c1	-0.020027997
98	0xbe3eb4ef	-0.18623708
99	0xbe5c964d	-0.2154171
100	0x3c5ecd56	0.013598761
101	0xbd886643	-0.0666013
102	0xbba16b00	-0.0049260855
103	0x3dc89521	0.09794069
104	0xbbdc7fb4	-0.0067290906
105	0x3e172a5a	0.1476225
106	0x3e0eb914	0.13937789
107	0x3e2f7301	0.17133714
108	0x3d81fc07	0.063468985
109	0x3eabb76d	0.3353838
110	0xbe8951f4	-0.26820338
111	0xbb3844db	-0.0028117213
112	0xbd5a7e0a	-0.053342856
113	0x3e5fbb0c	0.21848696
114	0x3e194e8a	0.14971367
115	0xbdbf649c	-0.093453616
116	0x3e2782f4	0.16358548
117	0x3ebca556	0.3684489
118	0xbe179c93	-0.14805822
119	0xbd2acfed	-0.0417022
120	0xbe29dd2a	-0.16588274
121	0x3e9e3596	0.30900258
122	0xbdb844ec	-0.08997521
123	0xbd94fdb5	-0.07274953
124	0xbe202373	-0.15638523
125	0x3ef5f31f	0.4803705
126	0x3b0c542a	0.002141247
127	0x3caa027a	0.020753134

stages.0.0.pwconv1.bias f4 [16]
0	0x3d3b363e	0.045706026
1	0xbc4ffd62	-0.0126946885
2	0xbb85c7fc	-0.004082678
3	0xbb7cac8e	-0.0038555
4	0x3bed4de7	0.0072419527
5	0xbcb42a3f	-0.0219928
6	0xbd1f52c3	-0.038897287
7	0x3b307e1a	0.002693063
8	0xbc6d563f	-0.014485895
9	0xbc8d2227	-0.0172282
10	0x3ce7a466	0.028276633
11	0xbbb4f0b7	-0.0055218595
12	0xbb7a38c9	-0.003818082
13	0xbd83060f	-0.0639764
14	0x3d15df47	0.036589887
15	0x3dda2fd6	0.10653655

stages.0.0.pwconv2.weight f4 [8, 16]
0	0xb9eca9a8	-0.00045139831
1	0x3e071682	0.1319218
2	0x3e4aa1da	0.19788304
3	0xbbbf5197	-0.0058385837
4	0x3d8fc1dc	0.070193976
5	0xbd31bbef	-0.043392118
6	0xbe27eaa8	-0.16398108
7	0x3db48c72	0.0881585
8	0x3ed7d936	0.42157906
9	0x3ecf8bf3	0.4053646
10	0x3e49afee	0.19696018
11	0xbd4b9254	-0.049700096
12	0xbe021eae	-0.12707016
13	0x3db98207	0.09058004
14	0x3d91b14b	0.07113894
15	0xbd3cefd8	-0.04612717
16	0xbe2d6c14	-0.1693576
17	0x3d97e0e7	0.074159436
18	0xbc8801e6	-0.016602468
19	0x3db472ed	0.08810983
20	0x3d669d9e	0.05630266
21	0x3cd86d3f	0.02641928
22	0xbe887c8f	-0.2665753
23	0xbca45894	-0.020061769
24	0xbcb89f9f	-0.02253705
25	0x3e26fdd7	0.1630777
26	0x3ea2d580	0.31803513
27	0x3ec492f5	0.3839337
28	0x3b364133	0.0027809858
29	0xbd1e09da	-0.038583614
30	0x3ceb2178	0.028702483
31	0xbdbfb22b	-0.09360155
32	0xbc77fef5	-0.01513647
33	0xbea9e02b	-0.3317884
34	0xbcacf39a	-0.021112252
35	0xbe846214	-0.25856078
36	0xbca0bba5	-0.019620726
37	0xbe2f770b	-0.17135255
38	0xbe2771da	-0.16352025
39	0xbe193940	-0.14963245
40	0xbdd767c9	-0.10517842
41	0xbe83c6af	-0.2573752
42	0xbe025d7c	-0.12730974
43	0xbd4324f5	-0.047642667
44	0x3d2d9f21	0.042388085
45	0x3dad558d	0.08463583
46	0x3d61fc16	0.05517205
47	0x3bdffe84	0.0068357605
48	0xbc6cc39b	-0.014450933
49	0x3e239a62	0.15976861
50	0x3e0bfec1	0.136714
51	0xbdaea742	-0.08527996
52	0xbd0459f7	-0.03231236
53	0xbd8aa966	-0.067705914
54	0xbe23aec0	-0.1598463
55	0xbf1aa43d	-0.6040686
56	0xbd062d37	-0.032757964
57	0xbe0bb5ca	-0.13643566
58	0x3d96430b	0.07337006
59	0xbd997371	-0.07492722
60	0x3db39507	0.08768659
61	0xbe862be0	-0.2620535
62	0x3da31f70	0.079649806
63	0xbdabed24	-0.0839484
64	0xbb5be0d8	-0.0033550765
65	0x3d37190d	0.044701625
66	0xbb84dccc	-0.0040546414
67	0x3aaeb68f	0.0013329553
68	0x3a19cf6e	0.0005867396
69	0xbcc91384	-0.024545439
70	0x3e0d194f	0.13779186
71	0xba8c91ea	-0.0010724638
72	0x3b391c44	0.0028245607
73	0x3e946053	0.2897974
74	0xbe21b90c	-0.15793246
75	0x3c37337e	0.01118171
76	0x3a2dfd15	0.00066371384
77	0x3a5d6d04	0.00084467256
78	0x3c291e00	0.010322094
79	0xbd7f8eea	-0.062392153
80	0x3e833f47	0.25634214
81	0x3dcf076d	0.10108838
82	0xbdcf374e	-0.101179704
83	0xbc844e67	-0.016150666
84	0x3c38604f	0.0112534305
85	0xbe6effcf	-0.2333977
86	0x3db0d827	0.08634978
87	0xbe241d8a	-0.16026893
88	0x3dc1a1d5	0.09454695
89	0xbc89644b	-0.016771456
90	0x3e6c0f74	0.2305277
91	0x3e1ce287	0.15320788
92	0xbd6432f7	-0.055712666
93	0x3d2c582e	0.042076282
94	0x3d7f697b	0.062356453
95	0xbf1b8ad5	-0.60758716
96	0x3cd40a29	0.025883751
97	0x387eb115	6.072324e-05
98	0x3efb99ad	0.49140683
99	0x3c36d396	0.011158844
100	0x3d29fab2	0.041498847
101	0xbd09d253	-0.033647846
102	0xbd9b7967	-0.07591515
103	0x3d4279b0	0.04747933
104	0x3b113f60	0.0022163019
105	0xbdf152b2	-0.11783351
106	0xbeac0b96	-0.3360259
107	0x3d85ec52	0.06539215
108	0x3cc7ce6b	0.02439042
109	0xbdffc25b	-0.12488242
110	0xbea65d3b	-0.32493004
111	0xbec1fa3e	-0.37886232
112	0x3cc7bf07	0.024383081
113	0xbe53ccfa	-0.20683661
114	0xbde23306	-0.11044888
115	0x3ddc2c6b	0.107506596
116	0x3bcd3efb	0.0062636114
117	0x3e8ed410	0.27896166
118	0xbe3d98f1	-0.18515374
119	0xbe295885	-0.16537674
120	0x3d0f80da	0.03503499
121	0x3df78a79	0.120869584
122	0x3d988ce1	0.074487455
123	0x3e5b078f	0.21389602
124	0xbdd8685f	-0.10566782
125	0xbda60b25	-0.081075944
126	0xbec0fe10	-0.37693834
127	0x3dbaba93	0.091176175

stages.0.0.pwconv2.bias f4 [8]
0	0x3790a24a	1.724171e-05
1	0x36f73840	7.367722e-06
2	0x35510f79	7.7881083e-07
3	0x3829abc2	4.04527e-05
4	0xb5e4a1cb	-1.7034412e-06
5	0x3784e59c	1.5842546e-05
6	0xb75aab7b	-1.30337385e-05
7	0x38a12002	7.68304e-05

stages.1.0.gamma f4 [16]
0	0xba5a43a1	-0.00083261175
1	0x3bc188eb	0.0059062145
2	0x3bdb8097	0.0066986787
3	0x3ae33649	0.0017334904
4	0xbb28b0c4	-0.0025740126
5	0x3cc2385c	0.023708515
6	0x3b89a849	0.0042009694
7	0xbb536cb9	-0.0032260849
8	0xbbc7f778	-0.0061024986
9	0x3b8e9583	0.0043513193
10	0x3c88006d	0.016601766
11	0x3bbdc3f6	0.0057911826
12	0xbada67ed	-0.0016663052
13	0x3d5049e0	0.050851703
14	0xbbc381d9	-0.005966407
15	0x3b6f6ec8	0.0036534537

stages.1.0.norm.weight f4 [16]
0	0x3f16826a	0.58792746
1	0x3f0ae63c	0.5425756
2	0x3f1e55e2	0.61849797
3	0x3f1c2633	0.6099579
4	0x3f266e88	0.6501241
5	0x3f1ff9e8	0.624907
6	0x3f0c794a	0.5487257
7	0x3f0567dd	0.5211161
8	0x3f1e1b00	0.6175995
9	0x3f2388a7	0.6388039
10	0x3f067b7d	0.5253218
11	0x3f1d5941	0.61464316
12	0x3f1924f9	0.5982204
13	0x3f062dda	0.52413714
14	0x3f0e1c7f	0.5551223
15	0x3f2491ea	0.6428515

stages.1.0.norm.bias f4 [16]
0	0xba307da3	-0.00067325885
1	0x3cb278b6	0.021786075
2	0x3c5f4191	0.013626472
3	0x3c7d812f	0.015472694
4	0xbcc94b40	-0.024572015
5	0x3c255db2	0.0100931395
6	0xbb3cf0bd	-0.0028830015
7	0xbcbef9f1	-0.02331254
8	0xbbe73eb4	-0.0070570353
9	0x3d0fc8d3	0.03510363
10	0x3cd49f4d	0.025954867
11	0x3c98f63c	0.018672101
12	0x3c97a314	0.018510379
13	0x3a85eb5a	0.0010217235
14	0xbd770fc6	-0.060317777
15	0x3cf12cd7	0.029440327

stages.1.0.norm.running_mean f4 [16]
0	0x3b395310	0.002827827
1	0xba5eb3bc	-0.00084954104
2	0x3d0178ab	0.03160922
3	0x39f1f288	0.00046147802
4	0xbd423b08	-0.047419578
5	0xbc572a40	-0.013132632
6	0x3b75f5fe	0.0037530656
7	0x39d6eeae	0.0004099509
8	0xbb1a4904	-0.0023542056
9	0x3c753388	0.014965899
10	0xbb008268	-0.0019608978
11	0xbb822208	-0.003971342
12	0xbcbcce31	-0.023047538
13	0x3afea513	0.0019427858
14	0x3b7419c3	0.00372468
15	0x3c383509	0.011243113

stages.1.0.norm.running_var f4 [16]
0	0x3c021f23	0.007941994
1	0x3b772349	0.003771024
2	0x3cf8fc21	0.030393662
3	0x3c4456e2	0.011983605
4	0x3bb3629a	0.0054744007
5	0x3d28963d	0.041158903
6	0x3b90a622	0.004414336
7	0x3b12b897	0.0022387856
8	0x3d3484eb	0.044072073
9	0x3b4d5497	0.0031330937
10	0x3ae93357	0.001779179
11	0x3c329a5b	0.010901059
12	0x3be25b87	0.0069078836
13	0x3a53b9c3	0.0008076692
14	0x3b0d9745	0.0021605056
15	0x3b6df129	0.0036307073

stages.1.0.pwconv1.weight f4 [32, 16]
0	0xbd81e569	-0.06342585
1	0x3d3a64c0	0.04550624
2	0x3d9ca3f3	0.07648458
3	0x3d7f5378	0.06233546
4	0xbcc39caf	-0.023878423
5	0xbd308fc5	-0.04310586
6	0xbe6d7a13	-0.23191099
7	0xbd8111aa	-0.06302197
8	0x39c5f1cf	0.0003775493
9	0xbda7725e	-0.08176111
10	0x3e591f90	0.21203446
11	0xbcc4cab3	-0.024022436
12	0xbe8425d4	-0.2581011
13	0xbdb1b6ad	-0.08677421
14	0xbc805531	-0.015665622
15	0x3e0ce9ed	0.1376111
16	0x3d426b7c	0.047465786
17	0xbc1057c5	-0.008809988
18	0x3c1cea5a	0.009577358
19	0x3d991c8b	0.07476147
20	0xbe38793b	-0.18014996
21	0xbc9620fe	-0.018326279
22	0x3df325c8	0.118724406
23	0x3e16d3da	0.14729252
24	0x3c990ae7	0.018681956
25	0x3d22fd25	0.0397922
26	0x3d3dfba5	0.046382565
27	0xbe1ac4bc	-0.1511411
28	0xbc6ed4c7	-0.014577097
29	0xbd2ce16c	-0.042207167
30	0xbd447f2c	-0.047972843
31	0x3dc0f055	0.0942084
32	0xbc29ab08	-0.010355718
33	0xbcf8847d	-0.030336613
34	0x3b95a3fe	0.0045666685
35	0x3dc87bd7	0.097892456
36	0xbafc5aab	-0.0019253095
37	0x3c6e7731	0.014554785
38	0x3d903680	0.07041645
39	0x3d786e5d	0.060652126
40	0xbbe72896	-0.007054399
41	0x3dce8e0d	0.10085688
42	0x3b0aeae8	0.0021197144
43	0x3dabad5e	0.083826765
44	0xbda45550	-0.080240846
45	0xbc929ae1	-0.017896118
46	0xbc8b2645	-0.016986022
47	0xbe0909ec	-0.13382691
48	0x3e62a8f3	0.22134762
49	0xbd0d5eaf	-0.034514125
50	0x3e040c91	0.12895419
51	0x3cf69b46	0.030103337
52	0x3d33d0dc	0.043900356
53	0x3c874478	0.01651214
54	0xbe42ddb4	-0.19029886
55	0x3c888935	0.016666988
56	0xbca5f3e4	-0.020257898
57	0x3d33c82e	0.043892078
58	0x3e667938	0.22507179
59	0xbe9f775b	-0.31145748
60	0x3e0acab7	0.13553892
61	0x3bf839d7	0.0075752544
62	0x3b820394	0.0039677117
63	0xbe19a6ab	-0.15004985
64	0x3d0934a7	0.03349748
65	0x3cc888f0	0.02447936
66	0xbc47b2ae	-0.012188597
67	0xbd5937fc	-0.053031906
68	0xbcab010e	-0.020874526
69	0xbd058967	-0.03260174
70	0xbd7131a7	-0.058885243
71	0x3d70ca56	0.058786713
72	0xbce11ea3	-0.027480429
73	0x3d86ab2f	0.065756194
74	0x3cd6c801	0.026218416
75	0x3bc40c8e	0.005982942
76	0x3ca4bc98	0.02010946
77	0xbc9f58ee	-0.019451585
78	0xbdd926b0	-0.10603082
79	0x3d8adebd	0.06780765
80	0x3e2fb104	0.1715737
81	0xbdd85016	-0.1056215
82	0x3e97a533	0.29618225
83	0xbd491962	-0.049096473
84	0x3e24ec32	0.16105726
85	0x3ca8179d	0.020519072
86	0xbec5c0eb	-0.38623747
87	0xbc134328	-0.008988179
88	0xbbeea2b8	-0.007282581
89	0x3dad6e1d	0.08468268
90	0x3dc8e79a	0.098097995
91	0x3e6e8426	0.23292598
92	0xbb440988	-0.0029912908
93	0x3e005bac	0.1253497
94	0xbd186b93	-0.037211966
95	0x3d07bb49	0.033137593
96	0xbb71756c	-0.003684367
97	0xbd1cf441	-0.038318876
98	0xbce45dfd	-0.027876848
99	0xbe0a1776	-0.13485512
100	0xbe4b69bb	-0.19864552
101	0x3d81ebf9	0.06343836
102	0x3dadbce2	0.08483292
103	0x3d9c33e0	0.07627082
104	0xbca5a4dd	-0.020220215
105	0xbcb5f22e	-0.022210207
106	0x3d47aeb2	0.048750587
107	0x3dd8761f	0.10569405
108	0xbc060f20	-0.008182317
109	0xbe36ed80	-0.17864037
110	0xbdc0dc37	-0.09417003
111	0xbd1dd5a3	-0.038533818
112	0xbc73342d	-0.014843983
113	0x3d07782c	0.03307359
114	0x3d9c3ce7	0.07628804
115	0x3d7af3eb	0.061267775
116	0x3a65c8f7	0.0008765603
117	0xbd3fc7c7	-0.046821382
118	0x3f0da89a	0.5533539
119	0x3e41bf51	0.18920638
120	0x3e050512	0.12990215
121	0xbe9e8e1e	-0.30967802
122	0xbd0b8d47	-0.03407028
123	0x3e2ca8fb	0.16861336
124	0x3d5780e7	0.052613165
125	0xbd88968a	-0.06669338
126	0xbd317dfa	-0.04333303
127	0xbcd3633c	-0.025804155
128	0x3cc1d6c9	0.023661988
129	0x3ccacb84	0.024755247
130	0x3d9dd59f	0.077067606
131	0x3c89d31a	0.016824294
132	0x3c9eb56b	0.019373616
133	0xbcd43897	-0.02590589
134	0xbc4ff71f	-0.012693196
135	0x3eecb0ed	0.46228734
136	0xbd2aaa2e	-0.041666202
137	0x3cdab417	0.026697202
138	0xbd33c0b8	-0.043884963
139	0x3d52e615	0.051488955
140	0x3d4d6d4f	0.050153073
141	0x3dc26f01	0.094938286
142	0xbd6e4653	-0.058172535
143	0x3dc19bce	0.094535455
144	0xbe0d1a37	-0.13779531
145	0x3dadf466	0.08493881
146	0xbd5baec2	-0.05363346
147	0xbdcda2ff	-0.10040855
148	0x3e478dc3	0.19487672
149	0x3eec56b4	0.461599
150	0xbcf425e5	-0.029803226
151	0x3ddbbc53	0.10729279
152	0xbcdae3b8	-0.026719913
153	0x3cc61d4a	0.024183888
154	0x3b771124	0.0037699426
155	0x3d8f1f68	0.06988412
156	0xbd4383d5	-0.047733147
157	0x3bc8caba	0.0061276825
158	0x3cb5b6e7	0.022181941
159	0xbd4fa9e0	-0.050699115
160	0xbcd7738c	-0.026300214
161	0x3d4a071a	0.04932318
162	0xbcddd771	-0.02708027
163	0x3d93e4d8	0.07221383
164	0x3e355ea3	0.17711882
165	0x3ea98ea4	0.3311664
166	0x3e0df2e3	0.13862185
167	0x3ca4ceb3	0.020118093
168	0xbd1a6ca4	-0.037701264
169	0xbe6020ca	-0.21887508
170	0x3d9abb2f	0.07555234
171	0x3cae6856	0.021289986
172	0xbd747a99	-0.05968723
173	0xbcae7180	-0.021294355
174	0x3e424eaf	0.18975328
175	0x3e1378d6	0.14401564
176	0xbc79f30c	-0.015255701
177	0xbc85dfd6	-0.016342085
178	0xbee54635	-0.44780126
179	0x3bee86da	0.007279259
180	0x3e3142e6	0.17310676
181	0xbe8e488c	-0.27789724
182	0x3d2b269e	0.041784875
183	0x3c5666be	0.013086019
184	0xbdcf9c98	-0.1013729
185	0xbe3627e0	-0.17788649
186	0x3cb06a7d	0.021535153
187	0xbf1e98ad	-0.61951715
188	0x3dd819d8	0.10551804
189	0xbd315a73	-0.04329915
190	0xbc57e691	-0.01317753
191	0xbe4eea4f	-0.20206569
192	0xb7be4150	-2.2680179e-05
193	0xbc1222f8	-0.00891947
194	0xbe38e099	-0.18054427
195	0x3aa45f8c	0.0012540682
196	0xbcb8cc5b	-0.022558382
197	0x3e07d15d	0.1326346
198	0x3c86d325	0.016458103
199	0x3c1d265d	0.009591666
200	0xbc1fd680	-0.009755731
201	0x3ccaa72f	0.024737922
202	0x3e02d71b	0.12777369
203	0xbc3a945e	-0.011387913
204	0xbcb14ad3	-0.021642124
205	0x3d9b8b6c	0.07594952
206	0xbbb6ed21	-0.005582467
207	0xbc238992	-0.00998153
208	0x3deedd63	0.1166332
209	0xbd03b60a	-0.032156028
210	0xbad4a7e1	-0.0016224348
211	0x3dc32c67	0.095299534
212	0xbc44c0c4	-0.0120088495
213	0xbdbf4ee7	-0.09341221
214	0xbb23f66a	-0.00250187
215	0x3bbabbe9	0.00569867
216	0x3c2cb762	0.010541769
217	0xbe00b234	-0.12567979
218	0xbd090242	-0.03344942
219	0x3c60fdaf	0.013732358
220	0xbc087a12	-0.008329885
221	0x3dc081dc	0.09399769
222	0xbb5fccc2	-0.0034149145
223	0x3df19f04	0.11797908
224	0xbd2a0b8d	-0.041514922
225	0xbe34a264	-0.17640072
226	0xbe06570b	-0.13119142
227	0x3c35772b	0.011075775
228	0xbd943f35	-0.07238618
229	0xbea0fbd2	-0.31442124
230	0x3a809ef2	0.0009812994
231	0xbd922237	-0.07135432
232	0xbe140293	-0.14454107
233	0xbdd5c359	-0.1043765
234	0xbd6d3338	-0.057910174
235	0x3dfbf46d	0.1230248
236	0xbd13cde7	-0.036085036
237	0x3cd6cf95	0.02622203
238	0x3db684a5	0.08912019
239	0x3dedfa64	0.11620024
240	0x3ddb2e39	0.10702176
241	0x3c3ded99	0.011592292
242	0xbcca0cca	-0.024664301
243	0x3c8243e8	0.01590152
244	0xbf1a9b5b	-0.60393304
245	0x3e87271b	0.26397023
246	0xbe34d4ab	-0.17659251
247	0xbb87ffc2	-0.0041503618
248	0xbd567ee6	-0.052367114
249	0xbe3ae1d7	-0.18250214
250	0xbd9185c0	-0.07105589
251	0x3cb19e23	0.02168185
252	0x3d387741	0.045035604
253	0x3c60fa27	0.013731516
254	0xbe11ec73	-0.14250354
255	0xbd203152	-0.039109536

stages.1.0.pwconv1.bias f4 [32]
0	0xbc6a35af	-0.014295026
1	0x3ca526c1	0.02016008
2	0xbc9f3838	-0.019435987
3	0x3d0cc7df	0.0343703
4	0xbad5561d	-0.0016276274
5	0x3c93cd38	0.018042192
6	0xbcd0df99	-0.025497245
7	0xbb29f0aa	-0.00259308
8	0x3a27821c	0.0006389932
9	0x3c8b89df	0.017033515
10	0x3c454acb	0.012041758
11	0xba974aac	-0.001154264
12	0x3ca84831	0.020542236
13	0xba32fee9	-0.00068281457
14	0x3c8d2c09	0.017232912
15	0x3d265cab	0.04061572
16	0x3d03841c	0.03210841
17	0xb9a87c15	-0.00032135905
18	0x3caf8a26	0.021428179
19	0xb9ec7fed	-0.0004510874
20	0x3bcec507	0.0063101086
21	0x3b46c870	0.0030331872
22	0x3d285037	0.041092124
23	0x3d05b997	0.032647695
24	0x3d22cdaf	0.039746936
25	0x3c63ba58	0.013899408
26	0x3cde4dd2	0.027136717
27	0x3d3c87d7	0.046027984
28	0x3d44c118	0.04803571
29	0x3cadb6d3	0.021205341
30	0x3bfada82	0.0076554427
31	0x3ced9083	0.028999573

stages.1.0.pwconv2.weight f4 [16, 32]
0	0xbc00edfd	-0.007869241
1	0xb9e8da9e	-0.0004441337
2	0x3adae1f7	0.0016699423
3	0x399256d2	0.00027911976
4	0x3a581bc8	0.0008243886
5	0x3ab4a615	0.0013782406
6	0x38ad0824	8.250799e-05
7	0xbb88a693	-0.004170248
8	0x3a20011b	0.00061036804
9	0x3c5d276e	0.01349817
10	0xbaa37fca	-0.0012473997
11	0xba2cd7a3	-0.00065934117
12	0xba1a8dca	-0.0005895762
13	0xbaabc1db	-0.0013104038
14	0xbb0817c7	-0.0020766126
15	0xba995c2d	-0.0011700444
16	0x3b1d9140	0.0024042875
17	0xba918b0d	-0.0011104062
18	0xbb014878	-0.0019727033
19	0x3a17a4ac	0.0005784731
20	0x3b0c014c	0.0021363078
21	0x3a6122f5	0.0008588278
22	0xbad158d0	-0.0015971903
23	0xbb135d22	-0.0022485931
24	0x3ad10904	0.0015948121
25	0x3b974500	0.0046163797
26	0x3b822e7f	0.003972828
27	0xbaf78c30	-0.0018886384
28	0xbe221659	-0.15828837
29	0x3a283456	0.000641649
30	0xbab3407d	-0.0013675835
31	0xbb0d9b08	-0.0021607298
32	0x3a1ed60b	0.00060591166
33	0xb8f24a3c	-0.000115532865
34	0xbb78061a	-0.0037845434
35	0xbb30ee60	-0.0026997551
36	0x3b2d3139	0.0026427044
37	0xbafa0bac	-0.0019076965
38	0xbaeb5404	-0.0017954116
39	0xbb5b1cad	-0.003343384
40	0x3c6cdfc2	0.014457645
41	0xbb80f8c6	-0.003935906
42	0xbbb6fd23	-0.0055843755
43	0x3c02aa49	0.007975169
44	0xbba64354	-0.005073944
45	0x3b9519fc	0.0045502167
46	0x3c02690d	0.007959616
47	0x3bc31b1a	0.0059541585
48	0x3ba1f2ce	0.0049422747
49	0xba88b117	-0.0010428753
50	0x3c24165e	0.010015098
51	0x3c42a4b7	0.011880091
52	0xbbb70883	-0.0055857315
53	0xba558274	-0.0008144744
54	0xb96efced	-0.00022791671
55	0xbb595b31	-0.0033165927
56	0xbb72f1c3	-0.003707037
57	0xbbeb2b03	-0.0071767583
58	0x3b258832	0.002525818
59	0x3b8fb5d7	0.0043856907
60	0xbd680b51	-0.056651417
61	0x3a2d851c	0.0006619261
62	0x3a385d9d	0.00070329924
63	0xbb14242f	-0.0022604575
64	0xbc58d9b6	-0.0132355
65	0x3c51761b	0.012784506
66	0xbc4ebd95	-0.012618442
67	0x3d0a0d3c	0.033704028
68	0x3b7e4c90	0.003880296
69	0xbc8b3924	-0.01699502
70	0xbca3d8f8	-0.02000092
71	0x3c6c8000	0.014434814
72	0x3cc72944	0.02431167
73	0x3cd90fa2	0.026496712
74	0xbcb72be9	-0.022359805
75	0x3ccfc99b	0.025364688
76	0xbca35ffa	-0.019943226
77	0x3cc0487a	0.02347206
78	0xbcb4e35a	-0.022081066
79	0xbbd4ffa1	-0.0065002
80	0xbc973a8f	-0.01846054
81	0xbcc0d3ca	-0.023538489
82	0x3da7dac2	0.081960216
83	0x3ca6c6d0	0.020358473
84	0xbce83401	-0.02834511
85	0xbc357b73	-0.011076796
86	0xbbb847a6	-0.0056237755
87	0x3a432687	0.00074444007
88	0xbc48b7e6	-0.012250876
89	0xbca9f63b	-0.020747295
90	0x3c99d373	0.018777585
91	0x3a98ea92	0.0011666587
92	0xbb60365d	-0.003421209
93	0xbcc3b141	-0.023888232
94	0xbb45fd55	-0.0030210812
95	0xbbf49589	-0.007464115
96	0x3b2e8cba	0.0026634173
97	0x3a246a98	0.0006271987
98	0x3b927a45	0.004470142
99	0x3a9ff1e6	0.0012202829
100	0xba8b4e9a	-0.0010628283
101	0x3b38e9e7	0.0028215589
102	0x3b97f819	0.00463773
103	0x3ccb6970	0.02483055
104	0xbd18b7d2	-0.03728468
105	0xbc693223	-0.014233145
106	0xbb9377a7	-0.0045003477
107	0x3d8c7f16	0.06860177
108	0x3a755b57	0.0009359619
109	0xbbcb1a42	-0.0061981985
110	0xbc9bf4ba	-0.019037593
111	0xbbd8454e	-0.0066000586
112	0xbd57f5a1	-0.052724484
113	0xbbdfd956	-0.0068313284
114	0xbb28c880	-0.0025754273
115	0xbbdd4b02	-0.0067533264
116	0x3b602faf	0.003420811
117	0xba16f787	-0.00057589303
118	0x3b08f8bc	0.002090021
119	0xbbd9e540	-0.006649643
120	0x3b960be9	0.0045790565
121	0x3bc8fa80	0.0061333776
122	0xbbc3c7a7	-0.005974728
123	0xbc574e36	-0.013141206
124	0x3b8cbba1	0.004294828
125	0xb995928e	-0.00028528686
126	0x3c006c2a	0.007838288
127	0x3c36e36d	0.011162621
128	0xbb718efc	-0.0036858907
129	0x3bb58302	0.005539299
130	0x3a595779	0.00082909275
131	0x39f6e325	0.00047090012
132	0x3b06f566	0.0020593046
133	0xbba39ef8	-0.004993316
134	0x3a9a4217	0.0011768964
135	0x3d3ba6a6	0.045813225
136	0x3c4eb63a	0.012616688
137	0xbc580212	-0.013184087
138	0x3c9cc819	0.019138383
139	0xb8f7adda	-0.0001181026
140	0x3b9e2fbe	0.0048274687
141	0x3ae94219	0.0017796188
142	0x3dac07f8	0.083999574
143	0x3c90a8cd	0.017658615
144	0x3bf2fdfb	0.0074155307
145	0xbc0b3294	-0.0084959455
146	0x3c2b764a	0.010465214
147	0x3c327914	0.010893125
148	0x3ae31d31	0.0017327425
149	0x3aaab1d1	0.0013022964
150	0xbb8fed56	-0.0043923063
151	0x3bd8d590	0.0066172555
152	0xbb87b7ac	-0.0041417684
153	0x3baa64fe	0.0052000275
154	0xbc8758ab	-0.016521772
155	0x3ce18db6	0.027533393
156	0x3a508b8e	0.00079553656
157	0x3bafdb41	0.0053667133
158	0x3b4354e7	0.0029805244
159	0xbc7d67ca	-0.01546664
160	0x3cf8b858	0.03036134
161	0x3dabdec7	0.08392101
162	0x3d01d40d	0.031696368
163	0x3da85ff6	0.08221428
164	0x3d85325f	0.06503748
165	0x3dc1d329	0.09464104
166	0xbc8101ad	-0.01574787
167	0x3e5a2d71	0.21306397
168	0xbd21ab91	-0.03947026
169	0xbc2354e6	-0.009968972
170	0xbd8ea207	-0.06964498
171	0x3d3e96f4	0.04653068
172	0xbc7a3a9b	-0.015272762
173	0xbd8d34f0	-0.06894863
174	0xbde263ba	-0.110541776
175	0xbd0049ff	-0.03132057
176	0x3e0021e3	0.12512927
177	0xbd4d3869	-0.050102625
178	0xbb83ef84	-0.004026355
179	0xbe084cea	-0.1331059
180	0xbd662a5f	-0.056192752
181	0x3d314aa7	0.043284085
182	0x3de9ed30	0.11422193
183	0xbe18b9e0	-0.14914656
184	0x3db7b848	0.08970696
185	0x3c005ea7	0.007835067
186	0xbe06ec15	-0.13175996
187	0xbe47a7c0	-0.19497585
188	0x3cf3929a	0.029732991
189	0xbd4a0ac5	-0.049326677
190	0x3dbd220d	0.0923501
191	0x3d52730c	0.05137925
192	0xbbb516a3	-0.00552638
193	0x3e9c905c	0.30578887
194	0xbc8abd81	-0.016936066
195	0x3b4b43b3	0.0031015694
196	0x3b53f966	0.0032344698
197	0xb96dd71f	-0.0002268222
198	0xbc39c5c0	-0.011338651
199	0x3cbc6d82	0.023001436
200	0x3be75608	0.0070598163
201	0xbb17ec0e	-0.002318147
202	0xbbbf2c97	-0.005834173
203	0xbc5ddfa7	-0.013542092
204	0xbc58d6bc	-0.01323479
205	0xbaf23444	-0.0018478711
206	0xbc40a116	-0.011757156
207	0xbbc3cc3b	-0.005975274
208	0xb8fb1615	-0.00011972726
209	0xbc06250d	-0.0081875445
210	0x3bd0015e	0.006347819
211	0x3bd1bb51	0.0064005037
212	0xbc00ab00	-0.00785327
213	0x3aa7e8ae	0.0012810433
214	0xbaf0b7e6	-0.0018365353
215	0xba8bac70	-0.0010656249
216	0xbb12a070	-0.002237346
217	0x3a575fb6	0.0008215861
218	0xba91242e	-0.0011073404
219	0xba9d1845	-0.0011985382
220	0x3bdae77a	0.006680426
221	0xbc025ef0	-0.007957205
222	0x3ba633a9	0.0050720763
223	0xbb445710	-0.002995912
224	0x3a129889	0.00055921875
225	0x3ac96ea5	0.0015368058
226	0x3ba0bb60	0.0049051493
227	0x390d26dc	0.00013461284
228	0xbb069257	-0.0020534003
229	0xbaae4929	-0.001329695
230	0x3ba063cd	0.0048947097
231	0x3cc12c11	0.023580583
232	0xbb40e1cd	-0.0029431463
233	0xba3aec0f	-0.00071305124
234	0x3b457d84	0.0030134628
235	0xbb7c3d56	-0.0038488708
236	0x3b6d3ce1	0.0036199617
237	0xbb1261b1	-0.002233606
238	0xbad074e2	-0.0015903974
239	0xbab3359c	-0.0013672593
240	0xbb78297e	-0.0037866528
241	0x3bbb3c67	0.0057139876
242	0xb9535744	-0.00020155037
243	0xbb1bacd5	-0.002375414
244	0x3ba81d4f	0.005130447
245	0xbb368cf5	-0.0027855013
246	0x3a5e22f1	0.00084738346
247	0xbb4837da	-0.0030550868
248	0x3b26c01e	0.00254441
249	0xbb5d0100	-0.003372252
250	0xbb3724f3	-0.0027945607
251	0xbb864fd2	-0.004098871
252	0xbb41c6b1	-0.0029567892
253	0x3d330a44	0.043710962
254	0x39e78890	0.000441615
255	0xbb4b847b	-0.0031054306

stages.1.0.pwconv2.bias f4 [16]
0	0xb50ac7ba	-5.1699647e-07
1	0x36f26afb	7.224616e-06
2	0x36cb997c	6.0677394e-06
3	0x368e4db9	4.240978e-06
4	0xb6533446	-3.1471877e-06
5	0x384c69b0	4.873582e-05
6	0x359b14e3	1.1554479e-06
7	0xb6299058	-2.5266982e-06
8	0xb6e95d53	-6.9548055e-06
9	0x36f401d3	7.271979e-06
10	0x37c1f03b	2.3119259e-05
11	0x37282af7	1.0023584e-05
12	0x35039887	4.902326e-07
13	0x38a1814e	7.701163e-05
14	0x34ef3d4d	4.456182e-07
15	0x365b9951	3.2722785e-06

stages.2.0.gamma f4 [32]
0	0xbe7a2c05	-0.24430855
1	0x3e5e47e1	0.21707107
2	0x3e7b7108	0.24554837
3	0xbe664ac7	-0.22489463
4	0x3ead99ff	0.33906552
5	0x3e9033ba	0.28164464
6	0x3e6231cc	0.22089309
7	0x3e65a985	0.22427948
8	0x3e96d3c7	0.29458448
9	0xbe5929e1	-0.21207382
10	0xbe59b514	-0.21260482
11	0x3e5d4f74	0.2161234
12	0xbea41d42	-0.32053572
13	0x3ea16ba5	0.3152744
14	0x3e7c5533	0.24641876
15	0xbe5f3acf	-0.21799777
16	0x3ea66405	0.32498184
17	0x3e4fd295	0.20295174
18	0x3e8d246a	0.27566844
19	0x3e619ba3	0.22032027
20	0x3e7b67cd	0.24551316
21	0x0000018d	5.56e-43
22	0x3e540ce9	0.2070805
23	0xbe5716b6	-0.21004757
24	0xbe5cb4b4	-0.21553308
25	0xbe8ee056	-0.2790553
26	0x3e6d2fda	0.23162785
27	0xbe732c40	-0.23747349
28	0xbe80ced6	-0.25157803
29	0xbe5a7e7e	-0.21337315
30	0x3e887af6	0.26656312
31	0x3e56cad4	0.2097581

stages.2.0.norm.weight f4 [32]
0	0x3eda0fcb	0.42590174
1	0x3ef4a3cb	0.47781214
2	0x3eddcba0	0.43319416
3	0x3ee0ca14	0.43904173
4	0x3edbb040	0.42907906
5	0x3edeaf82	0.43493277
6	0x3edd84b5	0.4326531
7	0x3eddb585	0.4330255
8	0x3edc3800	0.43011475
9	0x3edb0db0	0.4278388
10	0x3edc66c0	0.43047142
11	0x3edbc86a	0.4292634
12	0x3edc9f3b	0.43090233
13	0x3edf56fc	0.4362105
14	0x3edc3816	0.4301154
15	0x3ee30405	0.44339004
16	0x3edd061f	0.43168733
17	0x3edf3439	0.4359453
18	0x3ee1674f	0.4402413
19	0x3edfba9f	0.43697068
20	0x3edd56a8	0.43230176
21	0x3edcecd9	0.4314945
22	0x3edc5b0c	0.43038213
23	0x3edc8322	0.43068796
24	0x3edae52a	0.42752963
25	0x3ef2fa52	0.47456604
26	0x3eee7043	0.46570024
27	0x3ee0d135	0.43909612
28	0x3eec5e45	0.46165672
29	0x3ee514cb	0.44742426
30	0x3ee26120	0.44214725
31	0x3edd1f67	0.4318802

stages.2.0.norm.bias f4 [32]
0	0xbc5fec7a	-0.01366722
1	0xbc866a01	-0.016407968
2	0x3d144a22	0.03620351
3	0xbc8c2d43	-0.017111426
4	0x3ca6cae6	0.020360421
5	0xbd1bcd4a	-0.038037576
6	0x3cd8d80b	0.026470205
7	0xbbf256bd	-0.007395594
8	0xba06e02e	-0.00051451
9	0x3cd97909	0.026546972
10	0xbd097b1d	-0.033564676
11	0x3bca4c3a	0.0061736377
12	0x3c93bc96	0.01803426
13	0xbab769c3	-0.0013993311
14	0xbc803a7f	-0.015652893
15	0xbc8cbf6d	-0.017181123
16	0xbd0ac1cb	-0.03387622
17	0xbc31582d	-0.010824245
18	0x3b9f0dca	0.0048539387
19	0xbc1c6c0d	-0.009547246
20	0xbcf5b047	-0.029991282
21	0x3caafdeb	0.02087303
22	0xbc59859c	-0.013276484
23	0x3ce1a9c4	0.02754677
24	0xbcab8a3b	-0.020939937
25	0x3bacf301	0.0052779918
26	0xbc613643	-0.013745847
27	0xbcc37f87	-0.02386452
28	0xba9d5e01	-0.0012006165
29	0xbbb003e6	-0.0053715585
30	0x3d33d46d	0.043903757
31	0x3cec8911	0.028873952

stages.2.0.norm.running_mean f4 [32]
0	0x398e35ae	0.00027124345
1	0xbb73f232	-0.0037223217
2	0xba92b604	-0.0011193161
3	0x3b446b06	0.0029971018
4	0xb949a574	-0.0001923049
5	0xbb57f61a	-0.0032953084
6	0x3b825aca	0.003978108
7	0xba9cd8ad	-0.001196643
8	0x3a98fe14	0.0011672401
9	0x3a7cc631	0.000964257
10	0xbac6cc64	-0.0015167114
11	0x3a1e8735	0.0006047369
12	0xba280446	-0.0006409328
13	0xbab5e090	-0.0013876129
14	0x3b07d8d3	0.0020728603
15	0xbb098b89	-0.002098771
16	0xbaba91c1	-0.0014234112
17	0x3b4e2b4f	0.003145892
18	0xbb5c14a4	-0.0033581639
19	0x3b66ec64	0.0035236115
20	0xbb6ca890	-0.0036111213
21	0xbaf089a1	-0.0018351563
22	0xbafc97c5	-0.0019271305
23	0xbb4b9afb	-0.0031067717
24	0x39bd6ccc	0.0003612995
25	0x3afc9038	0.0019269055
26	0xbc9370d8	-0.017998144
27	0x3ba09ea5	0.0049017244
28	0x3ba583a3	0.0050510927
29	0x3bc7a248	0.0060923435
30	0xbb74a412	-0.003732924
31	0x3b8dffcb	0.0043334714

stages.2.0.norm.running_var f4 [32]
0	0x378e7243	1.6980926e-05
1	0x373315d7	1.0674316e-05
2	0x38a7e80a	8.006401e-05
3	0x3805838e	3.183219e-05
4	0x3716a3bf	8.978822e-06
5	0x37cf9a4f	2.4748178e-05
6	0x3990d7d2	0.0002762662
7	0x39627905	0.00021598123
8	0x382aa6c2	4.0686464e-05
9	0x3822080a	3.8631297e-05
10	0x3797c082	1.8090246e-05
11	0x3793367e	1.754914e-05
12	0x38a720a1	7.969258e-05
13	0x383486e5	4.3040975e-05
14	0x3865e1e0	5.4808217e-05
15	0x37324f09	1.0628029e-05
16	0x37253ad8	9.848467e-06
17	0x37f54b4c	2.9241339e-05
18	0x37204bfc	9.554435e-06
19	0x3a4bb04c	0.0007770106
20	0x38230be1	3.887329e-05
21	0x38a8261e	8.017964e-05
22	0x3800303b	3.0562496e-05
23	0x3892ea0d	7.005418e-05
24	0x37223f62	9.67071e-06
25	0x375fc748	1.3338235e-05
26	0x3975a8d0	0.00023427908
27	0x380db560	3.378594e-05
28	0x378539bf	1.5881726e-05
29	0x3784f7e8	1.5851067e-05
30	0x377eefac	1.5195383e-05
31	0x38861875	6.3941734e-05
