saved_models/polygen_myconvnext_2022_01_17_21_50_07.pt (torch, 132501 bytes, 134 tensors)

connection_layers.0.weight f4 [8, 1]
0	0x3f7f6e91	0.99778086
1	0xbff819ad	-1.9382836
2	0xbd27eaee	-0.04099553
3	0xbf34f605	-0.70687896
4	0xbf87f769	-1.0622379
5	0x3d8974ba	0.06711717
6	0xbe97ee52	-0.2967401
7	0xbdb60fdf	-0.08889746

connection_layers.0.bias f4 [8]
0	0x3776611c	1.4685353e-05
1	0x361e9669	2.3631385e-06
2	0x398ec876	0.00027233706
3	0x37987b90	1.817735e-05
4	0x37811cbd	1.539138e-05
5	0x397ef10e	0.00024313128
6	0x3892bbd9	6.996812e-05
7	0x3939adb8	0.0001770769

connection_layers.1.weight f4 [16, 8]
0	0x3ea9d5de	0.3317098
1	0xbf0310b6	-0.51197374
2	0xbd1716a6	-0.036886834
3	0x3f01db57	0.5072531
4	0x3f9d8636	1.2306583
5	0x3bd43cba	0.0064769657
6	0x3e9846ef	0.29741618
7	0x3f782a44	0.9693949
8	0x3ec579f7	0.38569614
9	0x3e0a6e0f	0.13518547
10	0xbf277645	-0.6541484
11	0xbebe0967	-0.37116548
12	0x3e9e178f	0.3087735
13	0x3ea289e4	0.31745827
14	0x3f32e31f	0.6987781
15	0xbe56c87c	-0.20974916
16	0x3bee4201	0.007271052
17	0xbf69928c	-0.9123924
18	0x3f69b650	0.9129381
19	0xbf431037	-0.76196617
20	0xbf85748c	-1.0426192
21	0xbdd8be3e	-0.10583161
22	0x3e902cf5	0.281593
23	0x3e54d54a	0.20784488
24	0x3e9b4296	0.3032424
25	0x3e8b541e	0.27212614
26	0xbe5409a1	-0.20706798
27	0xbdd868af	-0.10566842
28	0x3ec2bb22	0.38033396
29	0x3f448124	0.7675955
30	0x3f5cc712	0.8624126
31	0x3eea9a2b	0.45820746
32	0x3edf487b	0.43609986
33	0xbeaa22ad	-0.3322958
34	0xbd9de80c	-0.07710275
35	0x3da8f010	0.08248913
36	0xbf929d41	-1.145424
37	0x3e0fe3b9	0.14051713
38	0xbf721a04	-0.94570947
39	0xbe54f6c7	-0.20797263
40	0x3e998f60	0.299922
41	0xbf04fdeb	-0.5194995
42	0x3da0be42	0.07848789
43	0x3e480f29	0.19537033
44	0x3ec66fae	0.3875708
45	0x3ea3f2be	0.32021135
46	0xbeb8be42	-0.36082655
47	0x3eb894fd	0.3605117
48	0xbdcb8fce	-0.09939538
49	0x3ecaabc4	0.39584172
50	0x3dcabb5d	0.09899018
51	0x3e3f0a74	0.18656331
52	0x3f5ed1cb	0.8703887
53	0xbf1110da	-0.5666634
54	0x3f4e72b8	0.80643797
55	0xbd919c29	-0.07109863
56	0xbf5c2681	-0.8599625
57	0xbf2d943f	-0.6780433
58	0xbe2590c5	-0.16168506
59	0xbe828cf8	-0.25498176
60	0xbee89d7d	-0.45432654
61	0x3f098a92	0.53727067
62	0xbd5837ec	-0.052787706
63	0x3e822f11	0.25426534
64	0x3e9f710e	0.3114094
65	0xbf111dab	-0.56685895
66	0x3f46813c	0.77540946
67	0xbe24c2e7	-0.16089974
68	0xbb3764dc	-0.00279837
69	0xbf3c6c55	-0.736028
70	0xbe8b1a95	-0.27168718
71	0x3cefcf9f	0.029273806
72	0xbf21019e	-0.6289309
73	0xbf00fa7d	-0.50382215
74	0x3ed477c1	0.41497615
75	0xbdd61397	-0.10452955
76	0xbee9e6a3	-0.45683774
77	0xb9ba7ad9	-0.00035568213
78	0x3bb63bf4	0.005561346
79	0x3ebb28c7	0.36554548
80	0xbe41c6b3	-0.18923454
81	0xbdbe45da	-0.09290667
82	0x3f40ee13	0.7536327
83	0x3f044679	0.5167003
84	0xbedd04ab	-0.43167624
85	0xbeede48a	-0.46463424
86	0xbe0e7f3b	-0.13915722
87	0x3e91e9f8	0.28498816
88	0xbd8f72eb	-0.07004341
89	0x3dbb2bc1	0.09139205
90	0xbe89fd3c	-0.26951015
91	0x3edcffc5	0.43163887
92	0xbf8840d3	-1.0644783
93	0xbf321cee	-0.69575393
94	0xbf201a68	-0.6254029
95	0xbf1711b1	-0.5901137
96	0xbe95cdff	-0.29258725
97	0x3d5a6aad	0.05332439
98	0xbec06b39	-0.37581804
99	0x3e32d069	0.17462315
100	0x3ec4cacf	0.3843598
101	0x3f00df09	0.50340325
102	0x3f19dcce	0.60102546
103	0xbf06eed5	-0.5270818
104	0x3e2e5db6	0.17027935
105	0xbcb8f53b	-0.022577872
106	0xbefc6908	-0.49298882
107	0xbe876fd9	-0.2645252
108	0xbf042d7d	-0.5163191
109	0x3d380df2	0.044935174
110	0x3e3aaded	0.1823041
111	0xbecb51ae	-0.39710754
112	0x3e39c77f	0.18142508
113	0x3e68798b	0.22702615
114	0x3eac0d86	0.33604068
115	0x3e9ea97a	0.30988675
116	0x3cd7ad7d	0.026327843
117	0xbf086c0f	-0.53289884
118	0xbecbfd5d	-0.39841738
119	0x3ed8158d	0.42203942
120	0xbf9855a6	-1.1901138
121	0xbe18c87c	-0.14920229
122	0xbe962523	-0.29325208
123	0xbe476ca1	-0.19475032
124	0x3e518ce1	0.20463897
125	0xbf187b39	-0.5956302
126	0xbe1666cf	-0.14687656
127	0xbf51c4ea	-0.8194109

connection_layers.1.bias f4 [16]
0	0x3ba6e9e9	0.005093802
1	0xb9a0b0a4	-0.00030649186
2	0x3bcfe825	0.0063448125
3	0x3c06e94d	0.008234334
4	0x3b854e84	0.0040681977
5	0x3b5727f5	0.0032830213
6	0x3b330003	0.002731324
7	0x3b183ca8	0.0023229513
8	0x3bec7058	0.007215541
9	0xbb135df6	-0.0022486425
10	0x3ba53057	0.005041163
11	0xba26227f	-0.0006337538
12	0xbb8fdf7a	-0.004390654
13	0xbbab444a	-0.0052266465
14	0xbb2d36ce	-0.0026430371
15	0xbba80bd5	-0.0051283636

connection_layers.2.weight f4 [32, 16]
0	0xbf3293fe	-0.6975707
1	0xbe8986ae	-0.26860565
2	0xbd9dc769	-0.0770405
3	0x3ef04948	0.4693091
4	0x3f188d6e	0.59590805
5	0xbdc1558e	-0.094401464
6	0xbe40161a	-0.18758431
7	0xbf37bca6	-0.7177223
8	0xbd9ac2fb	-0.07556721
9	0xbcba3016	-0.022728007
10	0xbec60e82	-0.38682944
11	0x3d6a5ecb	0.057219308
12	0xbdcbbd8f	-0.09948265
13	0x3d6e01d6	0.05810722
14	0xbdb61bf4	-0.088920504
15	0xbaf9eccb	-0.0019067762
16	0xbeb952fd	-0.36196128
17	0x3e9e28cc	0.308905
18	0x3d7d576a	0.061850943
19	0xbf06149d	-0.52375203
20	0xbe935980	-0.2877922
21	0xbec5189b	-0.38495335
22	0xbd9441b3	-0.07239094
23	0xbe8001b5	-0.25001302
24	0x3cbff11f	0.023430405
25	0xbd050520	-0.03247559
26	0xbda4a363	-0.08038976
27	0x3ef99103	0.48743448
28	0x3c14745d	0.009060946
29	0xbcbd46ae	-0.023104992
30	0xbf21c0b9	-0.63184696
31	0x3eb5bd7b	0.35496125
32	0xbde1c2f2	-0.11023511
33	0xbd7f9f81	-0.062407974
34	0xbea66b31	-0.32503656
35	0xbeaa7573	-0.33292732
36	0x3cdc7f72	0.02691624
37	0xbeec342c	-0.46133554
38	0x3e8b797c	0.27241123
39	0xbdd2c152	-0.10290779
40	0xbf380396	-0.7188047
41	0x3eedcc1c	0.46444786
42	0x3f2ea774	0.68224263
43	0xbd8c002f	-0.068359725
44	0xbe172ec1	-0.14763929
45	0xbd596436	-0.053074084
46	0xbec9a6bd	-0.39385024
47	0x3e45fada	0.19333974
48	0x3e01f855	0.12692387
49	0x3dfdd74a	0.12394579
50	0xbf053f60	-0.5204983
51	0x3e60e066	0.21960601
52	0xbdaa918a	-0.083285406
53	0xbcbf42ea	-0.023347337
54	0x3e7a4e0c	0.24443835
55	0x3c0bc20b	0.00853015
56	0xbed4adbd	-0.41538802
57	0x3dd13987	0.102160506
58	0xbe65431a	-0.22388878
59	0xbec19ca9	-0.37814835
60	0x3cbccad7	0.02304594
61	0x3e334e6a	0.17510381
62	0xbd970eb7	-0.073758535
63	0x3c8e4179	0.017365204
64	0xbd6de485	-0.05807926
65	0x3dfde041	0.12396289
66	0xbd9cb36c	-0.076514095
67	0x3cec354c	0.028834008
68	0xbe255d19	-0.16148795
69	0x3f247a41	0.64249045
70	0xbd509a89	-0.050928626
71	0x3d0c8ad8	0.0343121
72	0x3cf0ea7b	0.029408684
73	0xbe1046f6	-0.1408957
74	0x3f1aadc8	0.6042142
75	0x3ea9039a	0.3301056
76	0x3e2b5da8	0.16734946
77	0xbd9d8174	-0.07690707
78	0x3e422921	0.18961002
79	0x3c27dab7	0.010245017
80	0x3dc4232f	0.09577023
81	0xbea9b230	-0.3314376
82	0x3e5168d2	0.20450142
83	0xbedddcbe	-0.43332475
84	0x3e813e8b	0.2524303
85	0xbf91325b	-1.1343492
86	0x3f244bf1	0.6417838
87	0xbeb99cf8	-0.3625257
88	0xbe879d45	-0.26487175
89	0xbeceb858	-0.40375018
90	0xbcc2a488	-0.023760095
91	0x3eddeab5	0.4334313
92	0x3e73effc	0.23822016
93	0xbe98822e	-0.2978682
94	0xbe5fd5e8	-0.21858943
95	0x3db724ca	0.08942564
96	0xbe03aab1	-0.12858082
97	0xbce35f1f	-0.027755318
98	0x3ea0409c	0.31299293
99	0x3e5aaffe	0.21356198
100	0xbd3ece42	-0.04658342
101	0x3dcff497	0.10154074
102	0xbd08e62e	-0.03342264
103	0x3dd12be6	0.10213451
104	0x3dff29e9	0.124591656
105	0x3d5dc3aa	0.054141678
106	0x3ddbe9f3	0.10737982
107	0xbe4238ce	-0.18966982
108	0xbc4d4cfd	-0.0125305625
109	0x3c5d7867	0.013517476
110	0x3dcda970	0.10042083
111	0xbd84948c	-0.064736456
112	0x3bc41dc7	0.005984995
113	0x3eb22c85	0.3479959
114	0xbccd3c8f	-0.02505329
115	0xbef767a9	-0.48321274
116	0x3eb8a5aa	0.36063892
117	0x3c331453	0.010930139
118	0x3f59c666	0.85068357
119	0x3e572b9b	0.21012728
120	0x3ecb8d4e	0.39756244
121	0xbd09d352	-0.033648796
122	0xbe88c5e0	-0.26713467
123	0x3dd07df8	0.10180277
124	0xbe73b6da	-0.23800221
125	0x3dc8bea0	0.09801984
126	0x3dabc54e	0.08387242
127	0xbedb5575	-0.42838636
128	0x3f72eb17	0.9488997
129	0x3e0acaad	0.13553877
130	0x3eef3b5d	0.46724978
131	0x3de09977	0.10966771
132	0xbe236594	-0.15956718
133	0xbe049974	-0.12949163
134	0x3eb05e5e	0.34446996
135	0x3e162a09	0.14664473
136	0x3d84c31c	0.06482527
137	0xbf1acc7e	-0.6046828
138	0xbc01d233	-0.007923651
139	0x3c353ade	0.011061398
140	0x3e039a7a	0.12851897
141	0x3e918b14	0.2842642
142	0x3e80a184	0.25123227
143	0x39b6d71d	0.00034874017
144	0x3e8701aa	0.26368457
145	0xbf415fd2	-0.75536835
146	0x3e8028ae	0.25031036
147	0xbd6caaa6	-0.05777993
148	0xbdd353ba	-0.10318704
149	0x3e901a76	0.28145188
150	0xbec7d5d3	-0.39030322
151	0x3e81e786	0.2537195
152	0x3ed869eb	0.4226831
153	0x3f115b36	0.567798
154	0xbeb58106	-0.3545
155	0x3f037ad2	0.51359284
156	0xbf034ab2	-0.5128585
157	0x3c2a3593	0.01038875
158	0x3e46f23e	0.19428346
159	0x3efb1258	0.49037433
160	0x3d660811	0.056160036
161	0x3de90607	0.11378103
162	0x3d72d275	0.05928274
163	0x3dad07d0	0.08448756
164	0x3f02ef75	0.5114663
165	0x3f0cf073	0.55054396
166	0x3efb1ce6	0.49045485
167	0x3f436230	0.763217
168	0x3d8c2997	0.0684387
169	0xbdf800b1	-0.12109507
170	0x3db72075	0.089417376
171	0x3e83bd41	0.25730327
172	0xbe61ed89	-0.22063269
173	0xbd8a74ae	-0.06760536
174	0xbd7ae0e4	-0.06124963
175	0x3d98146a	0.07425769
176	0x3de9e238	0.11420101
177	0x3f4d0e55	0.80099994
178	0xbd8395a4	-0.06425026
179	0x3d79f90f	0.061028536
180	0x3ead3483	0.33829126
181	0x3ee17b3b	0.4403933
182	0x3ed02207	0.4065096
183	0xbee4f5bc	-0.4471873
184	0x3ed9912a	0.42493564
185	0x3e276cf0	0.1635015
186	0x3f4765ab	0.7788951
187	0xbebc52c5	-0.36781898
188	0x3e4813ac	0.19538754
189	0xbe0b7425	-0.13618524
190	0x3ed45f31	0.41478875
191	0xbe0ce6d8	-0.13759935
192	0x3d289a5f	0.041162845
193	0xbe1c7e7a	-0.15282622
194	0xbe46754d	-0.19380684
195	0x3ee7e9b0	0.45295477
196	0x3f4111c4	0.75417733
197	0xbe9dd9f5	-0.3083035
198	0x3ef0d076	0.47034043
199	0x3e1810a0	0.14850092
200	0xbe09700d	-0.1342165
201	0x3e47c751	0.19509627
202	0xbe8ae587	-0.2712824
203	0x3df47062	0.11935498
204	0x3e6c278c	0.23061961
205	0xbed81f0c	-0.42211187
206	0x3e8b8ce2	0.27255923
207	0xbcb699bb	-0.022290101
208	0xbf20e9a6	-0.6285652
209	0xbebf19ba	-0.37324315
210	0xbe6804ef	-0.22658132
211	0xbe535e65	-0.20641477
212	0x3ee67b83	0.45016107
213	0x3e47c431	0.19508435
214	0x3ea25f61	0.31713393
215	0xbe5b6335	-0.21424563
216	0xbe88e022	-0.267335
217	0x3e89359f	0.26798722
218	0x3e68e49a	0.22743455
219	0x3f2ad6d1	0.66734034
220	0x3e1a4522	0.15065435
221	0xbdd7f317	-0.105444126
222	0x3e3160d2	0.1732209
223	0xbe2599f8	-0.16172016
224	0x3f1d049e	0.6133517
225	0x3e154115	0.14575608
226	0x3e63b1ae	0.22235748
227	0x3e69ab3a	0.22819224
228	0x3f295d1b	0.6615769
229	0x3eeddfd7	0.4645984
230	0x3f01d5c5	0.5071681
231	0x3ce2cbbb	0.027685037
232	0xbd2ef3fe	-0.042713158
233	0xbea63dd3	-0.32469043
234	0x3dec94e3	0.115518354
235	0xbef7c11b	-0.48389515
236	0xbed4b497	-0.4154403
237	0x3f32d1a4	0.69851136
238	0xbf0f7b22	-0.5604726
239	0x3d88195e	0.066454634
240	0x3f12372a	0.57115424
241	0x3e4cf990	0.20017076
242	0x3b9d1f0a	0.00479496
243	0xbea7c693	-0.32768688
244	0xba2f218b	-0.00066807185
245	0x3cbc4eee	0.022986855
246	0xbe5bc68d	-0.2146246
247	0xbee01a34	-0.4376999
248	0x3f3aa555	0.72908527
249	0xbe3e2fb8	-0.18572891
250	0x3e876d55	0.264506
251	0xbe9a1ccd	-0.30100098
252	0xbf127ca8	-0.5722146
253	0x3ea44686	0.32085055
254	0x3e4a0f4e	0.19732401
255	0xbf559a6c	-0.83438754

connection_layers.2.bias f4 [32]
0	0xbb44d820	-0.0030036047
1	0xbb8d26f0	-0.00430762
2	0x3b2415fa	0.0025037513
3	0xb8008231	-3.063883e-05
4	0x3ad890b1	0.0016522614
5	0x39daf423	0.00041762096
6	0x3b3f5cf1	0.0029199685
7	0xbbab1358	-0.005220812
8	0x39900e4c	0.00027476472
9	0xbb07b903	-0.002070964
10	0xbafc4c68	-0.0019248845
11	0xb92649c4	-0.00015858473
12	0xbafd3cf5	-0.0019320535
13	0xbb3792ac	-0.0028011007
14	0x3a6de182	0.0009074436
15	0xbc008f7c	-0.007846709
16	0xbbc4067e	-0.0059822192
17	0x3b89e370	0.004208021
18	0x3c0c8fdf	0.008579223
19	0x3b1f7770	0.0024332665
20	0x390de545	0.00013532217
21	0x3a4f1951	0.0007900196
22	0xbaaf3bae	-0.0013369226
23	0xbba95440	-0.005167514
24	0x3a866a14	0.0010255002
25	0x3975918e	0.00023419244
26	0xbb498d25	-0.0030754295
27	0xba449a0b	-0.0007499761
28	0x3a8d84ae	0.0010796988
29	0xbb1d74fc	-0.0024026027
30	0xbc0e1f8e	-0.008674515
31	0xbbb0a9c7	-0.005391333

norm_layers.0.weight f4 [8]
0	0x3f7c0520	0.9844532
1	0x3f7c0528	0.9844537
2	0x3f7c052c	0.9844539
3	0x3f7c0527	0.9844536
4	0x3f7c0522	0.9844533
5	0x3f7c052c	0.9844539
6	0x3f7c0528	0.9844537
7	0x3f7c0513	0.9844524

norm_layers.0.bias f4 [8]
0	0x3bed3be1	0.007239804
1	0xbb054c78	-0.0020339768
2	0xbb50c9c7	-0.003185855
3	0x3aa6fb89	0.0012739758
4	0xbb5fa5b0	-0.0034125857
5	0x3b760e42	0.003754512
6	0xbaab14ca	-0.001305246
7	0xbabba262	-0.0014315362

norm_layers.0.running_mean f4 [8]
0	0x3d65649c	0.05600415
1	0xbddeb921	-0.10875154
2	0xbb03c3e5	-0.0020105776
3	0xbd226829	-0.039650116
4	0xbd7414bf	-0.059590098
5	0x3b82ed80	0.0039955974
6	0xbc87fc37	-0.016599758
7	0xbb9e8d9a	-0.0048386576

norm_layers.0.running_var f4 [8]
0	0x3d580c4a	0.052746095
1	0x3e4bc3d4	0.19898921
2	0x38bc251c	8.971451e-05
3	0x3cd8e437	0.026476009
4	0x3d74ddf6	0.05978199
5	0x397b7b38	0.00023983128
6	0x3b9904cb	0.004669761
7	0x39dc53c5	0.00042024083

norm_layers.1.weight f4 [8]
0	0x3f7bbf31	0.9833861
1	0x3f7c12c9	0.98466164
2	0x3f7c493d	0.9854925
3	0x3f7c25b0	0.98495007
4	0x3f7c1dbb	0.98482865
5	0x3f7bb67f	0.9832534
6	0x3f7c22f0	0.9849081
7	0x3f7bf467	0.98419803

norm_layers.1.bias f4 [8]
0	0x3bf67534	0.007521296
1	0xbbbcaf55	-0.005758206
2	0x3c0010f0	0.007816538
3	0x3ab2efbb	0.0013651768
4	0xb9e95905	-0.00044507548
5	0xb4d9481d	-4.047187e-07
6	0x3b8fba8b	0.0043862513
7	0x3c40438f	0.011734857

norm_layers.1.running_mean f4 [8]
0	0x3c54ee62	0.012996288
1	0xb96b70ff	-0.00022453441
2	0xb9c80f2c	-0.00038158277
3	0xb8f0efbc	-0.00011488746
4	0x3852e582	5.0281647e-05
5	0xbb6db29c	-0.003626979
6	0xb7a89445	-2.0096204e-05
7	0x3b6cf081	0.0036154094

norm_layers.1.running_var f4 [8]
0	0x3a4ea49c	0.0007882805
1	0x379e6fe0	1.8887164e-05
2	0x365d34ea	3.2962366e-06
3	0x38839280	6.2738545e-05
4	0x328214ef	1.5143511e-08
5	0x38605d40	5.3492608e-05
6	0x325f0118	1.2980557e-08
7	0x38bc2dff	8.973106e-05

norm_layers.2.weight f4 [16]
0	0x3f7c1106	0.98463476
1	0x3f7b65e6	0.9820236
2	0x3f7bd55a	0.98372424
3	0x3f7c37a9	0.9852243
4	0x3f7bd4fe	0.98371875
5	0x3f7bf69a	0.9842316
6	0x3f7bc518	0.98347616
7	0x3f7bfdb2	0.98433983
8	0x3f7c357b	0.98519105
9	0x3f7c232e	0.9849118
10	0x3f7c382a	0.985232
11	0x3f7c5cdb	0.98579186
12	0x3f7c1859	0.9847465
13	0x3f7c13bf	0.9846763
14	0x3f7c181c	0.9847429
15	0x3f7be9bd	0.9840353

norm_layers.2.bias f4 [16]
0	0x39618a54	0.00021509203
1	0xbb92c2d1	-0.0044787903
2	0x3b0866d6	0.0020813248
3	0x3b80174e	0.003909028
4	0xb8acffa9	-8.2492195e-05
5	0xbb4c14f0	-0.003114041
6	0xbb9d727a	-0.0048049064
7	0xbb3dc0f5	-0.0028954123
8	0xbbb11350	-0.0054039136
9	0x3be7a2d8	0.007068973
10	0xbb2e6a7c	-0.0026613763
11	0x3ac1b61a	0.0014779002
12	0x3c26f3b8	0.010189943
13	0x3b03aaa6	0.0020090728
14	0xbb8d98c7	-0.004321191
15	0x3b307ce2	0.0026929905

norm_layers.2.running_mean f4 [16]
0	0xba826a61	-0.0009949916
1	0xbc0b3086	-0.008495456
2	0x3c2484b1	0.010041402
3	0xbb231451	-0.0024883936
4	0x3c0d06fb	0.008607621
5	0xbad93d7e	-0.0016574112
6	0xbc0f5935	-0.008749296
7	0x3b004386	0.0019571497
8	0xba859275	-0.0010190742
9	0xb93c5d90	-0.00017963932
10	0x398e3625	0.0002712469
11	0x3a5d52d3	0.0008442823
12	0xb912f951	-0.00014016523
13	0x3b891f93	0.004184672
14	0xb941dac6	-0.00018487414
15	0x3992a5ff	0.00027970967

norm_layers.2.running_var f4 [16]
0	0x362c28d6	2.5653767e-06
1	0x3a05b3b3	0.00051003246
2	0x39e5d69a	0.00043838174
3	0x37372300	1.0915799e-05
4	0x39609ceb	0.00021420761
5	0x380705c2	3.219187e-05
6	0x3a6a3509	0.00089342945
7	0x38f75b95	0.00011794936
8	0x36846c00	3.9464794e-06
9	0x35f1724b	1.7989163e-06
10	0x34a51f4a	3.075641e-07
11	0x36f1539c	7.192093e-06
12	0x34016b8e	1.205319e-07
13	0x3830dca3	4.2167154e-05
14	0x39b5fa3b	0.00034709446
15	0x382de5d9	4.1460476e-05

stages.0.0.gamma f4 [8]
0	0x3c6e661b	0.014550711
1	0x3bb2fba9	0.005462129
2	0x3b467695	0.0030283083
3	0x3c33069e	0.010926871
4	0xb8b93b63	-8.832549e-05
5	0x3c422659	0.011849963
6	0x38b3997e	8.563975e-05
7	0x3c2d3b46	0.010573214

stages.0.0.dwconv.bias f4 [8]
0	0xb6e38ea7	-6.781734e-06
1	0x354c69f3	7.61501e-07
2	0x3634d4dd	2.6945993e-06
3	0x364fb4c9	3.0950634e-06
4	0x36780090	3.6955207e-06
5	0x365d0b99	3.2938317e-06
6	0x36f779c3	7.3753486e-06
7	0x36875ff7	4.0344853e-06

stages.0.0.norm.weight f4 [8]
0	0x3f7c33b3	0.98516387
1	0x3f7c0321	0.98442274
2	0x3f7c4afb	0.9855191
3	0x3f7bc856	0.98352563
4	0x3f7b76b4	0.98228
5	0x3f7c2202	0.9848939
6	0x3f7c0096	0.98438394
7	0x3f7c5290	0.9856348

stages.0.0.norm.bias f4 [8]
0	0xbaf8e771	-0.0018989873
1	0x3bc2fc9c	0.0059505235
2	0x3a373e37	0.0006990167
3	0xb6c170a9	-5.7649636e-06
4	0xb9b58b33	-0.00034626722
5	0x3bcb0eea	0.0061968463
6	0xbb94b572	-0.0045382315
7	0xbb6abea7	-0.0035819204

stages.0.0.norm.running_mean f4 [8]
0	0x382a2a7d	4.057073e-05
1	0x3c4e8316	0.0126044955
2	0x3b5fe143	0.0034161366
3	0x3cd1d469	0.02561398
4	0xbc4140c5	-0.011795227
5	0xbc97a7c9	-0.018512623
6	0xbc80e301	-0.015733244
7	0x3c9fd313	0.019509828

stages.0.0.norm.running_var f4 [8]
0	0x3f10f2d4	0.56620526
1	0x3fe010f4	1.7505174
2	0x40373f74	2.8632479
3	0x40a99392	5.299264
4	0x3fa30895	1.2736994
5	0x3f9df604	1.2340703
6	0x3fcde0f1	1.6084272
7	0x3fdd20f1	1.7275678

stages.0.0.pwconv1.weight f4 [16, 8]
0	0xbf0ca81e	-0.54944026
1	0x3ee514ff	0.4474258
2	0x3f734980	0.9503403
3	0x3e8ad267	0.2711365
4	0x3f270049	0.6523481
5	0x3f6ebd58	0.93257666
6	0xbefa3f7c	-0.4887656
7	0xbe328675	-0.17434104
8	0x3bf51312	0.00747908
9	0x3e9b03c1	0.30276302
10	0x3d68894f	0.056771573
11	0x3f1dd5f2	0.6165458
12	0x3e6a8c94	0.22905189
13	0xbf05f35f	-0.5232448
14	0xbe893062	-0.26794726
15	0xbd298052	-0.04138214
16	0xbf0dfc85	-0.5546344
17	0xbe84760c	-0.25871313
18	0xbe860982	-0.2617913
19	0xbe220730	-0.15823054
20	0xbdff2a08	-0.12459189
21	0x3f34c875	0.70618373
22	0xbe69e8d6	-0.22842726
23	0xbc41445b	-0.011796082
24	0xbcf5ed6d	-0.03002044
25	0x3f857cb7	1.0428685
26	0xbd59bc2b	-0.053157967
27	0x3f16447a	0.58698237
28	0x3f2197bb	0.6312215
29	0xbdd6eecf	-0.10494768
30	0x3dd6f884	0.10496619
31	0xbd2bf1bc	-0.041978583
32	0xbe021eee	-0.12707111
33	0xbf2b9ff6	-0.67040956
34	0xbcc53601	-0.024073603
35	0x3d990ab4	0.074727446
36	0xbdf1368d	-0.11777983
37	0x3e30d80b	0.17269914
38	0xbeb034ac	-0.34415185
39	0x3e31b332	0.17353514
40	0xbf428967	-0.7599091
41	0x3d71dd03	0.059048664
42	0xbf69fb28	-0.9139886
43	0x3e7dcda5	0.24785478
44	0x3e5647f1	0.20925881
45	0x3de65330	0.112463355
46	0x3e0007eb	0.1250302
47	0x3f0c010b	0.5468909
48	0x3e4f2810	0.20230126
49	0x3eeb8278	0.45997977
50	0x3e17d6d6	0.14828047
51	0x3c194c10	0.009356514
52	0x3e34e94c	0.1766712
53	0x3e59ecd6	0.21281752
54	0xbe791ce4	-0.24327427
55	0xbe98138e	-0.2970242
56	0x3e66fb9f	0.22556923
57	0x3e46643d	0.19374175
58	0xbf3ccdca	-0.7375151
59	0x3e14ec4a	0.14543262
60	0x3c8c52e9	0.017129378
61	0x3d845454	0.06461397
62	0x3f263afc	0.64933753
63	0x3f6a04ec	0.9141376
64	0x3e7e9d87	0.2486478
65	0x3ea19869	0.31561592
66	0x3c942b43	0.018087035
67	0xbe67cc78	-0.22636592
68	0xbebd4629	-0.3696759
69	0xbf30e8da	-0.69105303
70	0x3d73f67f	0.05956125
71	0x3ea4b3ce	0.3216843
72	0xbdee6c87	-0.11641794
73	0x3dc6d07d	0.09707735
74	0xbe144bed	-0.14482088
75	0x3ed6344e	0.4183678
76	0xbdcc24f2	-0.09967984
77	0xbde5c265	-0.112187184
78	0x3dfbc425	0.12293271
79	0x3e51afbb	0.20477192
80	0xbf84c867	-1.0373658
81	0x3d5eba74	0.054377034
82	0x3ef9660f	0.48710677
83	0x3f07f738	0.531116
84	0x3ed058fe	0.40692896
85	0xbf17a2b2	-0.5923263
86	0x3d6dffe9	0.058105383
87	0x3dfc8a0f	0.1233102
88	0x3e3f41a4	0.18677384
89	0xbe0c44cf	-0.13698123
90	0xbf5c0377	-0.85942787
91	0xbf2dad33	-0.67842406
92	0x3f389984	0.72109246
93	0x3e8ab8d1	0.2709413
94	0x3ea1485c	0.31500518
95	0xbe0248ec	-0.1272313
96	0xbeb42909	-0.35187557
97	0xbe8b5f25	-0.27221027
98	0x3f1e2ee7	0.6179032
99	0x3f09adc0	0.53780746
100	0x3ead1085	0.33801666
101	0xbf01d8ca	-0.5072142
102	0x3e4c536e	0.19953701
103	0x3f3ad869	0.72986466
104	0xbfa30f3b	-1.2739023
105	0x3edf2b3e	0.4358768
106	0x3e88ccca	0.26718742
107	0x3f2aa367	0.6665558
108	0xbf51a946	-0.81898916
109	0xbe783b93	-0.24241476
110	0xbf346b92	-0.7047664
111	0xbd285c14	-0.041103438
112	0xbf049c9e	-0.5180148
113	0x3eb389bc	0.3506602
114	0x3e8dfc33	0.27731475
115	0x3df84854	0.121231705
116	0xbf6b960f	-0.92025846
117	0xbf210cbc	-0.62910056
118	0x3ebf6d72	0.37388188
119	0xbf14addf	-0.58077806
120	0x3f7b3b45	0.98137313
121	0xbf30b6a6	-0.690287
122	0xbd70e95a	-0.05881629
123	0x3e6679a8	0.22507346
124	0xbdc52d55	-0.09627787
125	0x3f12be97	0.5732207
126	0x3ee32e17	0.443711
127	0x3dd5e9ce	0.10444985

stages.0.0.pwconv1.bias f4 [16]
0	0x3baa6e89	0.005201165
1	0x3909bd3c	0.00013135833
2	0x3b8ca144	0.0042916853
3	0x3a917177	0.0011096437
4	0xbac94b30	-0.0015357491
5	0xbaa3cb29	-0.001249646
6	0x385a9154	5.2110598e-05
7	0x3b7f6031	0.0038967247
8	0xba19356f	-0.0005844449
9	0x3b500d24	0.0031746114
10	0xba80c3be	-0.0009823961
11	0xba852add	-0.0010159869
12	0xbbc642a3	-0.006050424
13	0x3af06ae9	0.0018342409
14	0xb9bf75b9	-0.0003651807
15	0xbb837430	-0.0040116534

stages.0.0.pwconv2.weight f4 [8, 16]
0	0x3ef138d3	0.47113666
1	0x3ece86ce	0.40337223
2	0xbb60409f	-0.0034218205
3	0x3f72170d	0.9456642
4	0x3f3878d6	0.7205938
5	0x3ad4f146	0.0016246221
6	0xbdebbbf1	-0.11510456
7	0xbc8c3050	-0.017112881
8	0x3f0d9692	0.5530788
9	0x3d915e0d	0.07098017
10	0xbdee3d14	-0.116327435
11	0xbe8729a2	-0.2639895
12	0x3efcc8c7	0.4937193
13	0xbe6ed64e	-0.23323938
14	0x3a70b14f	0.00091816945
15	0x3e7bc4c1	0.24586774
16	0xbf507f4d	-0.81444246
17	0x3e1dca3e	0.1540918
18	0xbea07fcd	-0.31347504
19	0x3e8e25b1	0.2776313
20	0x3e508f3b	0.20367138
21	0xbe66ec0e	-0.22550985
22	0xbd6b0d9a	-0.05738602
23	0xbdfad014	-0.12246719
24	0xbdde90b1	-0.108674414
25	0xbeb780c7	-0.35840437
26	0xbf120ad5	-0.5704778
27	0x3ea69570	0.32535887
28	0x3da3dc89	0.08001048
29	0x3e144087	0.1447774
30	0x3f0a5a8d	0.5404442
31	0x3f073ed4	0.52830243
32	0x3ea32be2	0.31869417
33	0x3deaea6a	0.11470492
34	0x3d2b944d	0.041889478
35	0xbdbce490	-0.09223282
36	0xbe929b4b	-0.28634104
37	0xbe16a288	-0.14710438
38	0xbf1f9c95	-0.623483
39	0xbea2da3d	-0.31807128
40	0xbd94206a	-0.07232745
41	0x3e26a5b6	0.16274151
42	0xbefae22b	-0.49000677
43	0xbe6f94c1	-0.23396589
44	0x3eca22ee	0.39479774
45	0x3ee4e93f	0.44709203
46	0xbe29f010	-0.16595483
47	0xbd426ac2	-0.047465093
48	0xbecfcd40	-0.4058628
49	0x3d8c284c	0.068436235
50	0x3ea92b58	0.3304088
51	0x3e3a94f6	0.18220887
52	0x3d98b08f	0.07455551
53	0xbebf0bb6	-0.37313622
54	0xbe027cf2	-0.12742975
55	0xbdca8424	-0.09888485
56	0xbd1c8236	-0.038210116
57	0x3f4737d9	0.7781959
58	0x3d8de21e	0.06927894
59	0x3e1af7ee	0.1513364
60	0x3eba9eb4	0.36449206
61	0xbeed67c4	-0.4636823
62	0x3d6be6f0	0.057593286
63	0xbd24ec00	-0.04026413
64	0xbf170c9b	-0.5900361
65	0xbdef42ea	-0.11682685
66	0x3e2d1bf0	0.16905189
67	0x3cfeb612	0.031092677
68	0x3e8f25ed	0.27958623
69	0xbdab5a42	-0.08366825
70	0x3d5b4511	0.053532664
71	0xbeeadf31	-0.45873407
72	0x3dbfc0e5	0.093629636
73	0x3dc3c8c5	0.09559778
74	0xbebf3243	-0.37343034
75	0x3c3adeb1	0.011405633
76	0xbd9f193c	-0.07768485
77	0xbe7ad229	-0.24494232
78	0x3e254a60	0.16141653
79	0x3e0243d6	0.1272119
80	0x3e84bf35	0.2592713
81	0xbe71a82b	-0.23599307
82	0xbea98c2a	-0.3311475
83	0xbe46d5cf	-0.19417499
84	0x3dd43e2d	0.103634216
85	0x3ee6a184	0.45045102
86	0x3dfadaa6	0.12248735
87	0xbe8c85fe	-0.27445978
88	0xbdf319ff	-0.11870193
89	0x3d27195b	0.040795665
90	0x3e92c4b3	0.28665695
91	0xbeb9fdf4	-0.36326563
92	0x3e0aa4c6	0.13539419
93	0x3d938ce9	0.07204611
94	0xbee769b4	-0.45197833
95	0xbe58f0e9	-0.2118565
96	0xbe4efc34	-0.20213395
97	0xbdf80d3a	-0.12111898
98	0x3e8e6072	0.27807957
99	0x3e0145a7	0.12624227
100	0xbd38b004	-0.045089737
101	0x3e8abf42	0.27099043
102	0x3e36b0d4	0.17840892
103	0xbf1ce615	-0.6128858
104	0xbe647bc1	-0.22312833
105	0xbd710b91	-0.05884892
106	0x3efef856	0.4979884
107	0xbd6a22d2	-0.057162113
108	0xbf6b88c2	-0.9200555
109	0x3d9498c5	0.07255701
110	0x3eaccf11	0.3375173
111	0x3e7d8fbb	0.2476186
112	0x3d87097b	0.06593605
113	0x3d388363	0.045047175
114	0x3e2d15cf	0.1690285
115	0xbf037911	-0.5135661
116	0x3ee369d6	0.44416684
117	0xbe9cee9e	-0.306508
118	0x3ee3a15a	0.4445904
119	0xbdc30d1b	-0.09523984
120	0xbe16d178	-0.14728343
121	0x3e90e561	0.28300002
122	0xbc9798f7	-0.018505557
123	0x3e078dff	0.13237761
124	0xbe8caf48	-0.2747748
125	0x3ea41e0b	0.3205417
126	0x3f1d44f3	0.61433333
127	0x3ec49d53	0.3840128

stages.0.0.pwconv2.bias f4 [8]
0	0x366d1f54	3.5333987e-06
1	0x36fc8cd2	7.526579e-06
2	0x3646fcc5	2.965143e-06
3	0x36acd494	5.150747e-06
4	0x33329f90	4.1588976e-08
5	0x373b1de0	1.1153024e-05
6	0x344a28af	1.8827517e-07
7	0x37971bcc	1.8013547e-05

stages.1.0.gamma f4 [16]
0	0xbb17390d	-0.0023074776
1	0x3c6c5293	0.014423984
2	0x3c4271e8	0.011867978
3	0xbb02c937	-0.001995636
4	0x3c62587a	0.01381504
5	0x3bca53aa	0.0061745243
6	0x3c543cbf	0.012953936
7	0x3c01b693	0.007917064
8	0x3ac501b7	0.0015030418
9	0x3ade6e2b	0.0016970088
10	0x3986e987	0.00025732463
11	0xbb115952	-0.0022178483
12	0xb9974765	-0.00028854157
13	0xbb62a8b4	-0.0034585418
14	0x3c88fe38	0.016722783
15	0x3c010476	0.007874599

stages.1.0.dwconv.bias f4 [16]
0	0x37321e12	1.0616628e-05
1	0x3796c307	1.797221e-05
2	0xb616f730	-2.2495624e-06
3	0xb63b5479	-2.791434e-06
4	0x37b06702	2.1028802e-05
5	0x37122567	8.710987e-06
6	0x36ae15a0	5.1881216e-06
7	0x3664383f	3.4007387e-06
8	0x34951590	2.7769102e-07
9	0x369a295c	4.5943725e-06
10	0xb6849225	-3.95092e-06
11	0x36167e1e	2.2425152e-06
12	0xb6329fe5	-2.6617138e-06
13	0x3707792b	8.074839e-06
14	0x3620ff8d	2.3990608e-06
15	0xb664c935	-3.4091765e-06

stages.1.0.norm.weight f4 [16]
0	0x3f7bef16	0.9841169
1	0x3f7c0251	0.98441035
2	0x3f7c311a	0.98512423
3	0x3f7c2222	0.9848958
4	0x3f7c22af	0.9849042
5	0x3f7bdccb	0.9838378
6	0x3f7c4f4f	0.98558515
7	0x3f7c0532	0.9844543
8	0x3f7b9e85	0.98288757
9	0x3f7bf930	0.98427105
10	0x3f7becb5	0.9840806
11	0x3f7c22cb	0.9849059
12	0x3f7c1607	0.9847111
13	0x3f7c16fb	0.98472565
14	0x3f7bf6af	0.98423284
15	0x3f7bff0c	0.98436046

stages.1.0.norm.bias f4 [16]
0	0xbba581cd	-0.005050874
1	0xbb631199	-0.003464794
2	0x3b459a02	0.003015161
3	0xbba00460	-0.004883334
4	0xbac25d5f	-0.0014828852
5	0x3b131fb9	0.0022449328
6	0x3ac184cf	0.0014764311
7	0xbb22a54c	-0.0024817763
8	0xbb46b230	-0.003031861
9	0x3a51f008	0.0008008485
10	0xbbd1d9e4	-0.0064041484
11	0x3bc97166	0.0061475514
12	0xba3c3fdd	-0.0007181147
13	0x3b29b600	0.0025895834
14	0xbade6567	-0.0016967476
15	0xbb7fe47a	-0.0039046095

stages.1.0.norm.running_mean f4 [16]
0	0xbcee5484	-0.029093035
1	0x3ae7a360	0.0017672591
2	0xbc1f9b2d	-0.009741587
3	0xbd062dc0	-0.032758474
4	0xbb0dfa06	-0.0021663918
5	0x3b40a2e8	0.0029393975
6	0xbc86efa6	-0.016471695
7	0xbbc46aa3	-0.0059941574
8	0x3cddb9e2	0.027066175
9	0x3c189e20	0.009315044
10	0x3d164426	0.036686085
11	0x3c807887	0.015682472
12	0x3d156aff	0.036478993
13	0xbc164826	-0.009172475
14	0xbc3a7a9f	-0.011381774
15	0xbc7185b4	-0.01474135

stages.1.0.norm.running_var f4 [16]
0	0x3f4a6121	0.79054457
1	0x3e0d4ed9	0.13799609
2	0x40d186c6	6.547702
3	0x3f9c2dd8	1.220149
4	0x3e8329de	0.2561788
5	0x3f7c718b	0.9861075
6	0x3f77259c	0.9654176
7	0x3fde875b	1.7385057
8	0x3ee41323	0.4454585
9	0x405269d3	3.287709
10	0x3f6672bf	0.9001884
11	0x40ad7adf	5.421249
12	0x40003640	2.0033112
13	0x3e42ee8f	0.19036315
14	0x3f88d2fd	1.0689389
15	0x3f18191a	0.594133

stages.1.0.pwconv1.weight f4 [32, 16]
0	0xbdd8b99f	-0.105822794
1	0x3e7e15d2	0.24813011
2	0xbe7578f3	-0.2397192
3	0xbd4d95ac	-0.050191566
4	0xbe8b3c3a	-0.27194387
5	0xbb13844b	-0.0022509273
6	0xbe803a7a	-0.25044614
7	0x3ef522ce	0.47878116
8	0xbca6a823	-0.020343846
9	0xbdaefedc	-0.08544704
10	0x3d731cb0	0.05935353
11	0xbea186bd	-0.3154811
12	0xbe25a138	-0.16174781
13	0xbf4555dd	-0.7708414
14	0x3e18711c	0.14886898
15	0xbeb0bb54	-0.3451792
16	0x3dbcf8c9	0.092271395
17	0xbdf6b97e	-0.120470986
18	0xbd964be0	-0.07338691
19	0xbef44b72	-0.4771381
20	0xbe4f8716	-0.20266375
21	0x3e29b77f	0.16573904
22	0xbf2d3aa6	-0.67667615
23	0xbe062103	-0.1309853
24	0xbc6c6097	-0.014427326
25	0x3df279ca	0.11839636
26	0xbf162b39	-0.586597
27	0x3e52d4e1	0.2058902
28	0xbe611b23	-0.21983008
29	0xbd1f37cc	-0.03887157
30	0x3ece916c	0.40345323
31	0x3d9636e3	0.073346876
32	0xbe2afbe3	-0.1669765
33	0x3e2fe85b	0.1717848
34	0x3e14b477	0.14521967
35	0xbea68752	-0.32525116
36	0xbea213ae	-0.3165564
37	0xbe3601ea	-0.17774168
38	0xbb91a801	-0.0044450765
39	0x3e033103	0.12811665
40	0x3ec33d3d	0.3813266
41	0x3e4d5dbc	0.20055288
42	0xbe736a9e	-0.2377114
43	0x3d57ec9b	0.05271588
44	0x3ee5df41	0.44896892
45	0x3db3c08a	0.08776958
46	0x3e0c62a6	0.13709506
47	0xbdfef88e	-0.12449752
48	0x3f4f557c	0.80989814
49	0xbb659e77	-0.003503708
50	0xbe120bba	-0.14262286
51	0x3c9bc3a2	0.019014183
52	0xbcce2c4a	-0.025167603
53	0x3eee61e7	0.4655907
54	0xbf17a441	-0.59235007
55	0xbeba6cd1	-0.36411145
56	0x3e9fdf7b	0.3122519
57	0x3f035afb	0.513107
58	0x3ed9d78c	0.42547262
59	0xbdb2d233	-0.087314986
60	0x3d91daaa	0.07121785
61	0xbee17cf1	-0.44040635
62	0xbea1885b	-0.31549343
63	0xbedda642	-0.43290907
64	0xbe3d27cc	-0.18472213
65	0xbe245fb2	-0.1605213
66	0xbd8fafc1	-0.07015944
67	0x3d6a7e72	0.057249494
68	0xbf0d1015	-0.55102664
69	0xbef48cfe	-0.47763819
70	0xbcad2738	-0.021136865
71	0xbb10c51e	-0.0022090147
72	0x3f2fb438	0.68634367
73	0x3e7df4ba	0.24800387
74	0x3e97a03d	0.2961444
75	0x3e8d6c95	0.27621904
76	0xbe98aab5	-0.2981774
77	0xbeb36077	-0.35034534
78	0xbd58f9de	-0.052972667
79	0x3dd08783	0.10182097
80	0x3dbfe7d7	0.09370392
81	0x3c9cd855	0.019146124
82	0x3eaced76	0.33774918
83	0x3ec15c30	0.37765646
84	0x3efde5f3	0.495895
85	0xbd2061d7	-0.039155807
86	0xbe6cb965	-0.23117597
87	0xbde175c5	-0.11008791
88	0xbe26c6a4	-0.16286713
89	0xbdcf54b8	-0.10123581
90	0xbec50187	-0.38477728
91	0xbf3a9e07	-0.7289738
92	0x3e080d6f	0.13286375
93	0xbe305b24	-0.17222267
94	0x3e4e3ccf	0.20140384
95	0xbe62d4d5	-0.22151501
96	0xbf1386ad	-0.57627374
97	0xbc2b099d	-0.010439304
98	0x3efae6fb	0.4900435
99	0x3c9aaf98	0.018882558
100	0x3ba7b5b0	0.0051180944
101	0x3ed2c20f	0.4116368
102	0xbf22d621	-0.63607985
103	0x3e3cf37f	0.18452261
104	0xbec60746	-0.38677424
105	0xbee27b6d	-0.4423479
106	0xbf505f29	-0.813952
107	0x3ed74101	0.42041782
108	0x3cd80b30	0.026372522
109	0x3e603c62	0.21898034
110	0x3f2df0d9	0.6794563
111	0xbecd4a30	-0.40095663
112	0x3e302e38	0.17205131
113	0xbe4aacd5	-0.19792493
114	0xbf2ca64e	-0.6744126
115	0xbf149db0	-0.5805311
116	0x3e558060	0.20849752
117	0x3e8bf959	0.27338675
118	0x3da01849	0.07817132
119	0xbeb3dcec	-0.35129488
120	0xbea7d05d	-0.32776156
121	0xbe54e187	-0.20789157
122	0x3e5240bb	0.20532505
123	0xbefc6f22	-0.49303538
124	0xbd0caa9c	-0.034342393
125	0xbe9299b0	-0.2863288
126	0x3ecc9562	0.3995772
127	0xbe6975f6	-0.22798905
128	0xbf6295df	-0.88509935
129	0xbe9e9639	-0.30973986
130	0xbf46a6d6	-0.7759832
131	0xbeedff3d	-0.46483794
132	0x3c94f04f	0.018180994
133	0xbe8bfb84	-0.2734033
134	0xbe7a5435	-0.24446185
135	0xbe32aefb	-0.17449562
136	0xbc4acc1d	-0.012377766
137	0xbdb6cc72	-0.089257136
138	0xbdae72f2	-0.08518018
139	0x3e33984d	0.17538567
140	0x3bf08b58	0.00734083
141	0x3c8a038c	0.016847394
142	0xbcab7e10	-0.020934135
143	0xbe214554	-0.15749103
144	0xbdde6de2	-0.10860802
145	0x3f10d953	0.5658161
146	0x3e77586e	0.24154827
147	0xbeff3c33	-0.49850616
148	0xbe19eaa5	-0.15030916
149	0xbf35bd91	-0.7099238
150	0x3e32b8fc	0.17453378
151	0xbd8f9bbf	-0.07012128
152	0x3d819907	0.06328016
153	0xbd75df2a	-0.06002728
154	0x3e9a0b66	0.3008682
155	0x3ab91dfb	0.0014123315
156	0xbe890e09	-0.2676852
157	0x3de9d6d5	0.11417929
158	0x3e83d0f1	0.25745347
159	0x3f012e59	0.50461346
160	0xbd624b53	-0.055247616
161	0x3dbca244	0.09210637
162	0xbdb5f26b	-0.08884128
163	0x3d7f3462	0.062305816
164	0xbe37222a	-0.17884126
165	0xbdc12c89	-0.094323225
166	0xbe3b91a5	-0.18317278
167	0xbe214ca0	-0.15751886
168	0xbf0bd733	-0.5462524
169	0xbf41b524	-0.75667024
170	0x3d5ef780	0.054435253
171	0xbeb5bd7f	-0.35496137
172	0x3eee105f	0.46496865
173	0x3eace5fb	0.3376921
174	0x3ed481d9	0.41505316
175	0xbf29aa2d	-0.6627529
176	0xbe16bf62	-0.14721444
177	0x3d122b24	0.035685673
178	0xbf174975	-0.5909646
179	0xbba1e9e6	-0.004941213
180	0xbc21d02a	-0.00987629
181	0xbf04b6b4	-0.5184128
182	0x3eb04b80	0.34432602
183	0x3e735dda	0.2376627
184	0x3ecf6261	0.40504745
185	0xbe75ecc4	-0.240161
186	0xbd0b261a	-0.033971883
187	0xbd6a77be	-0.0572431
188	0x3e76137f	0.24030875
189	0x3dc622a2	0.096745744
190	0x3e0f6a7d	0.14005466
191	0xbdaa1e76	-0.08306591
192	0x3edfa5c3	0.43681154
193	0xbea6b939	-0.3256319
194	0x3b96d651	0.004603185
195	0x3e8c8849	0.27447727
196	0x3e7f4a1c	0.24930614
197	0x3e064745	0.13113125
198	0xbf0777f2	-0.529174
199	0x3d4c16e1	0.049826507
200	0xbd6652be	-0.056231253
201	0x3f1afeaa	0.60544837
202	0xbe90db80	-0.28292465
203	0x3ea9e0b1	0.33179238
204	0xbd409c23	-0.047023904
205	0x3eee6946	0.46564692
206	0x3d566385	0.052341003
207	0x3f1944b3	0.5987045
208	0xbefff159	-0.4998882
209	0x3dcc77c4	0.09983781
210	0xbf131f2a	-0.5746943
211	0xbe8eec22	-0.2791453
212	0xbefafe02	-0.49021918
213	0xbec3ac68	-0.38217473
214	0x3ecb76ee	0.39739174
215	0x3ef42d58	0.47690845
216	0x3e473340	0.19453144
217	0xbda70150	-0.08154547
218	0x3dc39922	0.09550692
219	0xbd4a498d	-0.04938655
220	0xbc1dce56	-0.009631714
221	0x3eb8c163	0.36085042
222	0xbf035fee	-0.5131825
223	0xbcb9c1c3	-0.0226754
224	0x3e51b4da	0.20479146
225	0xbe8b833e	-0.27248567
226	0xbcd0ed30	-0.025503725
227	0xbc9be523	-0.01903016
228	0x3e492734	0.19643861
229	0x3f1c9174	0.61159444
230	0x3e75d591	0.2400725
231	0xbf31ee8b	-0.6950461
232	0xbe82bc7a	-0.2553442
233	0x3d54eb77	0.05198237
234	0xbe932cd7	-0.28745148
235	0x3eccad26	0.39975852
236	0xbd3f5ed1	-0.046721283
237	0x3eb7a707	0.3586962
238	0xbe7d497a	-0.2473506
239	0x3c8b2f7c	0.016990416
240	0xbe7b2c7f	-0.24528693
241	0x3c1e80d2	0.009674268
242	0x3ce06c78	0.027395472
243	0xbebab729	-0.36467865
244	0xbd83a50e	-0.06427966
245	0x3e48d4ad	0.1961238
246	0x3df67f0e	0.120359525
247	0xbe902846	-0.28155726
248	0xbf1b979a	-0.607782
249	0xbe50de5a	-0.2039732
250	0xbe6fbb2e	-0.23411247
251	0x3f1a456e	0.6026219
252	0x3f1d4137	0.61427635
253	0xbeb1c236	-0.34718484
254	0xbd8eb252	-0.06967606
255	0xbe162ded	-0.14665957

stages.1.0.pwconv1.bias f4 [32]
0	0xbb2bfd26	-0.0026243418
1	0x3b8992fb	0.0041984296
2	0x3c03e41d	0.008049992
3	0x3b669f91	0.0035190324
4	0xbbd0ed94	-0.006375978
5	0x3b5d62e2	0.0033780863
6	0x3b97b8d4	0.0046301875
7	0x3b8c6338	0.0042842887
8	0x3bd4f679	0.0064991084
9	0x3b9eb834	0.004843736
10	0x3aee9d6a	0.0018204872
11	0x3a4c6246	0.00077966263
12	0xba99a4fb	-0.0011722142
13	0xbb9c2919	-0.0047656414
14	0xbb7797c6	-0.0037779673
15	0x3b56043f	0.003265634
16	0x3b8f5649	0.0043742997
17	0x3bad867d	0.0052955733
18	0xbb09331b	-0.0020935002
19	0x3b545861	0.003240131
20	0x3b0c2a67	0.0021387578
21	0x3baef5a9	0.0053393436
22	0xbbbf6238	-0.005840566
23	0x3b447a0f	0.002997998
24	0xbbc6a5a4	-0.0060622264
25	0xbb194a24	-0.0023390139
26	0xbb504a5f	-0.003178261
27	0xbafff12c	-0.0019526831
28	0xba24528c	-0.0006268404
29	0x3b2b0553	0.0026095703
30	0x3b79c710	0.0038113035
31	0xbb884395	-0.004158447

stages.1.0.pwconv2.weight f4 [16, 32]
0	0x3f0c6934	0.5484803
1	0xbd720d27	-0.059094574
2	0x3dd48640	0.10377169
3	0x3e216ce9	0.15764202
4	0x3e48bee0	0.19604063
5	0x3da5e579	0.08100409
6	0x3ea0cac8	0.3140471
7	0x3e580ccc	0.21098632
8	0xbe0c5f4a	-0.13708225
9	0xbe009962	-0.12558511
10	0x3dd57768	0.104231656
11	0xbefd32e3	-0.49452886
12	0xbd19b726	-0.03752818
13	0x3e7c326a	0.24628606
14	0xbe2db530	-0.16963649
15	0xbdc8c5e5	-0.098033704
16	0xbda1d1a0	-0.07901311
17	0xbed5aa44	-0.41731465
18	0xbe2e9b4d	-0.1705143
19	0x3dbb4714	0.091444165
20	0xbd4f41fc	-0.050600037
21	0x3e207c76	0.15672478
22	0xbdaf8316	-0.085699245
23	0xbe8a2f3e	-0.26989168
24	0x3d09576e	0.033530645
25	0xbc16ebc3	-0.009211483
26	0x3e0d93c7	0.13825904
27	0x3d376b44	0.04478003
28	0x3de3c772	0.111220255
29	0x3eab35b9	0.33439425
30	0x3df40e49	0.11916787
31	0x3d3ef70f	0.046622332
32	0xbd2c6605	-0.04208948
33	0x3d3ed815	0.04659279
34	0xbe905797	-0.28191826
35	0x3e43a218	0.19104803
36	0x3dd78142	0.10522701
37	0xbd2321f7	-0.039827313
38	0x3cff6b56	0.031179111
39	0x3d070ec4	0.032973066
40	0xbebb4252	-0.36574036
41	0xbe261a36	-0.16220936
42	0xbeb4b857	-0.3529689
43	0xbe651856	-0.22372565
44	0xbec1e987	-0.3787348
45	0x3c0b7fb2	0.008514332
46	0x3e069dfa	0.13146201
47	0xbe370943	-0.17874627
48	0xbeb505db	-0.3535603
49	0xbf28c9c1	-0.6593285
50	0x3da0a593	0.07844081
51	0x3de740bd	0.11291645
52	0xbdf9cb3e	-0.121969685
53	0x3d17d299	0.037066076
54	0xbf0e4c9c	-0.55585647
55	0xbea2ab6b	-0.31771407
56	0x3db866e6	0.09004001
57	0xbe737c01	-0.23777772
58	0x3ee07d56	0.43845624
59	0x3e2665b2	0.16249731
60	0xbd187807	-0.037223842
61	0x3e9083a2	0.28225428
62	0x3e5620c6	0.2091094
63	0xbd9e82e5	-0.0773981
64	0xbe43ad59	-0.19109096
65	0x3d4cd811	0.050010744
66	0x3f393f5e	0.72362316
67	0x3ea713b0	0.32632208
68	0x3d9106c7	0.07081371
69	0x3eb639ba	0.35590917
70	0x3c1b00fb	0.009460683
71	0x3b14e1b4	0.0022717537
72	0x3f200648	0.62509584
73	0xbe444baa	-0.19169489
74	0x3ec02e24	0.37535203
75	0x3ea35973	0.31904182
76	0xbd63eb53	-0.055644345
77	0x3e95e4c0	0.29276085
78	0xbe7f1501	-0.24910356
79	0xbed2c8ca	-0.41168815
80	0xbe33c3da	-0.1755518
81	0x3d5baa75	0.053629357
82	0xbd6865f4	-0.056737855
83	0xbdaef2b8	-0.08542389
84	0x3ec16fec	0.37780702
85	0xbda2e46a	-0.07953723
86	0xbe314601	-0.1731186
87	0x3d56e093	0.052460264
88	0x3ca48699	0.020083712
89	0x3e8ef1e7	0.27918932
90	0x3ec66ec8	0.38756394
91	0xbe084afb	-0.13309853
92	0x3d5dd636	0.054159366
93	0xbc872051	-0.016494902
94	0xbdb43e6b	-0.08800968
95	0xbf0b91a9	-0.54519135
96	0x3db92148	0.09039551
97	0x3e5ee8c9	0.21768488
98	0x3e2acba2	0.16679242
99	0x3dd469f8	0.103717744
100	0x3e8c8cb0	0.27451086
101	0x3e1a9efc	0.1509971
102	0xbe279bcf	-0.1636803
103	0x3dd55d7a	0.1041822
104	0x3e7c0f87	0.24615298
105	0x3f249df1	0.643035
106	0xbd3927fd	-0.04520415
107	0xbd9dc6e6	-0.077039525
108	0x3eb25da6	0.34837073
109	0x3dd30a85	0.10304741
110	0xbd3c9fd8	-0.046050876
111	0xbef29247	-0.47377226
112	0x3ec1b473	0.37832984
113	0xbd199ad0	-0.037501156
114	0x3efc4b1b	0.4927605
115	0x3e5c07cb	0.21487348
116	0x3e383048	0.17987168
117	0x3e8ad56a	0.27115947
118	0xbec64747	-0.38726255
119	0x3e7ade2e	0.24498817
120	0xbeec0424	-0.4609691
121	0x3edbab54	0.4290415
122	0x3dbfea0a	0.09370811
123	0xbe6c856d	-0.23097773
124	0x3d4ef3d3	0.050525498
125	0x3c0f341e	0.008740453
126	0x3dbff3a2	0.09372641
127	0x3e846a58	0.25862384
128	0x3d6b0079	0.057373498
129	0xbefe4827	-0.49664423
130	0x3dd79415	0.10526291
131	0x3e82dd2f	0.25559375
132	0xbe70711c	-0.23480648
133	0x3d163398	0.036670297
134	0x3e996243	0.2995778
135	0x3dee51eb	0.11636718
136	0xbd412502	-0.047154434
137	0x3e9f8558	0.3115642
138	0x3e09731a	0.13422814
139	0xbdb67c71	-0.08910454
140	0x3ec8c1f5	0.39210477
141	0x3e4c3deb	0.19945495
142	0x3e666c89	0.2250234
143	0xbc1d979c	-0.009618666
144	0x3c9c637b	0.019090405
145	0xbe9d98c3	-0.3078061
146	0xbcbce125	-0.023056576
147	0x3ee0297b	0.43781647
148	0xbd90c833	-0.07069435
149	0xbe348b0b	-0.17631166
150	0x3d1e260a	0.038610496
151	0x3d111f4b	0.035430234
152	0x3e84ea44	0.2595998
153	0x3e936e7c	0.2879523
154	0x3d832615	0.06403748
155	0xbec5fac2	-0.38667876
156	0x3d8984ea	0.067148045
157	0x3c571b66	0.013129091
158	0xbcb8e3ca	-0.022569556
159	0x3c57fa13	0.013182181
160	0x3e81b793	0.2533537
161	0x3e7d60bd	0.24743934
162	0xbee55acc	-0.44795835
163	0x3eb73839	0.35785082
164	0x3e96fd1a	0.29489976
165	0x3e7bc7d9	0.24587955
166	0x3e70250d	0.23451634
167	0xbea2dc9c	-0.31808937
168	0xbdae20c1	-0.08502341
169	0xbec187f7	-0.37799045
170	0x3eb538cf	0.35394904
171	0xbe33dce1	-0.17564727
172	0x3e013072	0.12616137
173	0xbc3d2d85	-0.011546497
174	0x3d9c9491	0.07645524
175	0xbd2a7e11	-0.041624133
176	0xbe8947e3	-0.26812658
177	0xbdac02ff	-0.08399009
178	0xbd908f4a	-0.0705858
179	0xbebdf4bc	-0.3710078
180	0xbe808178	-0.25098777
181	0xbe18b1e1	-0.14911605
182	0x3ed7c2ef	0.4214091
183	0x3c224361	0.00990376
184	0x3d54cb14	0.051951483
185	0xbc2dc6e6	-0.010606503
186	0xbe8d8216	-0.2763831
187	0x3e84a8c1	0.2591
188	0xbdf9f1e7	-0.12204342
189	0x3db34619	0.087536044
190	0xbcee9d7c	-0.029127829
191	0x3ccb1939	0.0247923
192	0xbea49c73	-0.3215061
193	0xbe263c11	-0.16233851
194	0xbee3d7b1	-0.44500497
195	0xbef6fa4a	-0.4823783
196	0xbd4cbfdf	-0.04998767
197	0x3d12e0b2	0.035858817
198	0xbeb0b592	-0.34513527
199	0xbe84f91c	-0.25971305
200	0xbe4c95e5	-0.19979055
201	0x3de729ad	0.11287246
202	0x3eca69de	0.39533895
203	0xbdaa4841	-0.083145626
204	0x3e2de461	0.16981651
205	0xbec5d0ee	-0.38635963
206	0x3e896ce7	0.26840898
207	0x3e083982	0.13303187
208	0xbe36cb5d	-0.17851014
209	0xbea5542a	-0.32290775
210	0xbe5c9546	-0.21541318
211	0x3e695528	0.22786391
212	0xbeb16470	-0.3464694
213	0xbe61dfe5	-0.22058065
214	0x3e80f2fb	0.2518538
215	0x3e32fb01	0.17478563
216	0xbe3ec349	-0.18629183
217	0xbf5b9e58	-0.8578849
218	0x3e827930	0.25483084
219	0x3ea16c70	0.31528044
220	0x3e9fdbd7	0.31222412
221	0x3d473f5c	0.04864441
222	0x3be8182f	0.007082961
223	0x3f0678e9	0.52528244
224	0x3df683a6	0.12036829
225	0x3e083eb6	0.13305172
226	0xbe3770de	-0.17914149
227	0x3e12330b	0.14277284
228	0xbec536a5	-0.38518253
229	0x3ee8521a	0.4537514
230	0xbf02d966	-0.51112974
231	0x3e35298f	0.17691635
232	0x3daef367	0.08542519
233	0xbb892798	-0.004185628
234	0x3ea9bc50	0.33151484
235	0x3e0ecdd4	0.13945705
236	0xbef61048	-0.48059297
237	0x3e11ef3b	0.14251415
238	0xbd45e6f0	-0.048315942
239	0xbe5be5d5	-0.21474393
240	0xbcd48d20	-0.0259462
241	0x3c0df9f5	0.008665551
242	0xbe74fda5	-0.23924883
243	0x3de51fb0	0.111876845
244	0x3e9b89dd	0.3037862
245	0xbea55cc7	-0.32297346
246	0x3ddd3a72	0.10802163
247	0x3e10a39b	0.1412491
248	0xbe637f41	-0.22216512
249	0xbc61bbfd	-0.01377773
250	0x3e923ef5	0.28563657
251	0xbc04c8e2	-0.008104535
252	0xbd4b93e6	-0.049701594
253	0x3e056f13	0.13030653
254	0x3e57b8a8	0.21066535
255	0x3e38f89e	0.1806359

stages.1.0.pwconv2.bias f4 [16]
0	0xb7104a11	-8.600314e-06
1	0x36f26433	7.2238267e-06
2	0x3529edce	6.330346e-07
3	0x35e12c13	1.6776634e-06
4	0x356fb9bb	8.930471e-07
5	0x35b14372	1.3207157e-06
6	0x35f7bcca	1.8457879e-06
7	0x369681f1	4.4854755e-06
8	0x364d6572	3.060643e-06
9	0x34e81b3c	4.3233183e-07
10	0x330e026c	3.3064154e-08
11	0xb680ac52	-3.834758e-06
12	0xb4e32c33	-4.2314204e-07
13	0x34c525ce	3.6721616e-07
14	0xb649049c	-2.9954017e-06
15	0xb5a23de1	-1.208795e-06

stages.2.0.gamma f4 [32]
0	0x3c0df479	0.008664244
1	0x3c6e4b9f	0.014544397
2	0x3c71a9cc	0.014749955
3	0x3b9f54ba	0.004862395
4	0x3c9464c0	0.018114448
5	0x3be7370c	0.0070561226
6	0x3bba82c3	0.0056918575
7	0x3bdad9e3	0.006678806
8	0x3c80eb0c	0.01573708
9	0x3c87e937	0.016590698
10	0x3c9758cc	0.018474959
11	0x3b578d0a	0.0032890462
12	0x3c9a0a83	0.01880384
13	0x3c699ef8	0.0142590925
14	0x3b431f9c	0.002977348
15	0x3c92c317	0.017915292
16	0x3c5a5177	0.013325087
17	0x3c868203	0.016419416
18	0x3c84c6ff	0.01620817
19	0xbb960be0	-0.0045790523
20	0x3c31156d	0.010808331
21	0x3cb593f5	0.022165278
22	0x3c824dd8	0.01590626
23	0x3c20d646	0.009816712
24	0x3c7847a6	0.015153801
25	0x3c5de2a3	0.013542804
26	0x3b8b516d	0.00425165
27	0x3c9a3171	0.018822404
28	0x3c83fe6d	0.01611253
29	0x3cb1969b	0.02167826
30	0x3b230205	0.002487303
31	0x3b8662a4	0.0041011143

stages.2.0.dwconv.bias f4 [32]
0	0x3683859b	3.919658e-06
1	0xb64d6750	-3.0607516e-06
2	0x36f9bf57	7.443053e-06
3	0x375c5c13	1.313446e-05
4	0x379ed277	1.8933073e-05
5	0x363bfe2e	2.8013123e-06
6	0x368f9bfb	4.2798906e-06
7	0xb59a6498	-1.1503171e-06
8	0x36b3fc76	5.364006e-06
9	0x362a9898	2.5420795e-06
10	0x35e95692	1.7385048e-06
11	0x360c6ed1	2.092613e-06
12	0x368f0400	4.2621978e-06
13	0x36186a74	2.271173e-06
14	0x3726326d	9.906112e-06
15	0x36b98e97	5.5300293e-06
16	0x376f7db3	1.4274777e-05
17	0xb640a8f1	-2.8708566e-06
18	0xb6d46e92	-6.3309644e-06
19	0xb4a1318b	-3.0024634e-07
20	0x36f8506e	7.400339e-06
21	0xb577c598	-9.2302207e-07
22	0xb66d18a4	-3.5330095e-06
23	0x37223d52	9.67023e-06
24	0x372872e8	1.0040334e-05
25	0xb72eef19	-1.0426877e-05
26	0xb5f04208	-1.7900611e-06
27	0xb708eca5	-8.16133e-06
28	0x368c39ae	4.17904e-06
29	0x35824b97	9.707754e-07
30	0xb589b870	-1.0260974e-06
31	0xb636cf02	-2.7240608e-06

stages.2.0.norm.weight f4 [32]
0	0x3f7c116f	0.984641
1	0x3f7c26e4	0.9849684
2	0x3f7c3f44	0.98534036
3	0x3f7bfc32	0.98431695
4	0x3f7c1c08	0.9848027
5	0x3f7c1005	0.98461944
6	0x3f7cac20	0.9870014
7	0x3f7be0dc	0.98389983
8	0x3f7bede0	0.98409843
9	0x3f7bed18	0.9840865
10	0x3f7bc627	0.9834923
11	0x3f7c0c88	0.9845662
12	0x3f7c46ae	0.9854535
13	0x3f7c36bb	0.9852101
14	0x3f7be543	0.983967
15	0x3f7be54f	0.9839677
16	0x3f7be923	0.98402613
17	0x3f7be67b	0.9839856
18	0x3f7be42f	0.98395056
19	0x3f7bb973	0.9832985
20	0x3f7bb553	0.98323554
21	0x3f7c203d	0.9848669
22	0x3f7bf112	0.9841472
23	0x3f7c29cb	0.9850127
24	0x3f7c087b	0.9845044
25	0x3f7c182e	0.98474395
26	0x3f7c55b0	0.9856825
27	0x3f7bec80	0.98407745
28	0x3f7c0e42	0.98459256
29	0x3f7c66f0	0.9859457
30	0x3f7c10fe	0.9846343
31	0x3f7c1f11	0.98484904

stages.2.0.norm.bias f4 [32]
0	0x3bed9033	0.007249856
1	0x3b5dab4e	0.003382403
2	0xbba1e21e	-0.0049402853
3	0xbbb3a404	-0.0054821987
4	0xbbc65d70	-0.006053619
5	0xbb637705	-0.0034708392
6	0x3c1aa765	0.009439324
7	0x3a364bc3	0.00069540384
8	0x3bbb47b3	0.0057153343
9	0x3bc2f0e4	0.0059491266
10	0x3c4f1dd1	0.012641386
11	0xbb9e4344	-0.004829796
12	0xba803812	-0.0009782335
13	0xbaae332e	-0.0013290399
14	0xbbae59da	-0.0053207697
15	0xbc0d1ce2	-0.008612843
16	0xbbe14734	-0.006874943
17	0x3c6288bf	0.013826548
18	0xbb07245a	-0.0020621032
19	0x3c6ed321	0.014576704
20	0xb9e68a63	-0.00043972125
21	0xbb358b2a	-0.0027701356
22	0x3baadf4e	0.0052146083
23	0xbc128216	-0.008942148
24	0x3bd747b0	0.006569825
25	0xbae38407	-0.0017358073
26	0xbae3bc20	-0.0017374791
27	0xbbc3ce5b	-0.005975527
28	0x3b67b6c1	0.0035356733
29	0x3aa5791e	0.0012624597
30	0xbc29d7a6	-0.010366356
31	0x3a826e7f	0.0009951143

stages.2.0.norm.running_mean f4 [32]
0	0xba40fbbe	-0.0007361731
1	0x3c4f6830	0.012659118
2	0xbc590f39	-0.013248258
3	0x3c7ca302	0.0154197235
4	0xbb8b4d2d	-0.0042511434
5	0xbcea626c	-0.028611384
6	0x3b289751	0.0025724957
7	0x3c400ac4	0.011721317
8	0xbb8d8a7a	-0.004319486
9	0x3c20eb4b	0.009821723
10	0x3d1498af	0.036278423
11	0xbcac08c4	-0.021000274
12	0xbc8263f7	-0.015916808
13	0x3d3b8469	0.045780573
14	0xb92bb4e5	-0.0001637522
15	0xbb834bcc	-0.0040068384
16	0xbc8c5c04	-0.01713372
17	0x3d09c188	0.03363183
18	0x3af8ffb7	0.0018997107
19	0x3d876200	0.06610489
20	0x389ad31d	7.382615e-05
21	0xbc04cb12	-0.008105056
22	0xbd26b7ec	-0.040702745
23	0xbd13fa74	-0.036127523
24	0xbc1628c4	-0.009164993
25	0xbbb83764	-0.0056218375
26	0xbc8ad088	-0.016945139
27	0x3c0b4137	0.008499435
28	0xbc0a3158	-0.008434616
29	0x3da82146	0.082094714
30	0xbc5d0745	-0.013490503
31	0x3c49eeca	0.012324998

stages.2.0.norm.running_var f4 [32]
0	0x40069147	2.102617
1	0x4019a6d9	2.4008086
2	0x3f3ba783	0.7330248
3	0x3f1517a2	0.58239186
4	0x3f0b8749	0.54503304
5	0x408c266b	4.3796897
6	0x3e7ea713	0.24868421
7	0x3f9fc1f5	1.2481066
8	0x3f06bf36	0.52635515
9	0x3f654f35	0.89573985
10	0x402817a4	2.626443
11	0x3fda841c	1.7071567
12	0x40007241	2.0069735
13	0x40ce9ab7	6.456386
14	0x3fd1d027	1.6391648
15	0x4016413a	2.347731
16	0x3f14535f	0.57939714
17	0x40b23852	5.569375
18	0x3e96d8cd	0.2946228
19	0x40a3d560	5.1197968
20	0x4002213b	2.0332782
21	0x3fc17036	1.5112369
22	0x4065b7d0	3.589344
23	0x3f840d06	1.0316474
24	0x3f57c3a6	0.8428291
25	0x3fe283a0	1.7696419
26	0x40654122	3.5821004
27	0x3ff8d3b0	1.9439602
28	0x4090505b	4.509809
29	0x40c45868	6.135792
30	0x3ee438ca	0.44574577
31	0x3fc3528d	1.5259567
