saved_models/polygen_myconvnext_2022_01_18_00_58_55.pt (torch, 132181 bytes, 134 tensors)

connection_layers.0.weight f4 [8, 1]
-0.6572448 0.40210867 -1.7140684 0.34273043 -2.0792155 2.2862895 3.8402808 -1.5373974
00000000: 3241 28bf 30e1 cd3e 9866 dbbf 5d7a af3e
00000010: de11 05c0 9152 1240 29c7 7540 70c9 c4bf

connection_layers.0.bias f4 [8]
1.4719698e-05 3.780347e-05 1.0101558e-05 3.15081e-05 5.1473326e-06 8.471952e-06 2.398703e-06 8.279781e-06
00000000: 9ff4 7637 2b8f 1e38 dc79 2937 9127 0438
00000010: 40b7 ac36 c222 0e37 67f9 2036 63e9 0a37

connection_layers.1.weight f4 [16, 8]
0.09738734 -0.04516739 0.23009558 0.1732865 -0.010663497 -0.14069848 0.21288157 0.2328887
-0.91818607 0.28733882 0.10093393 -0.21433622 -0.0010591754 -0.42383197 -0.30994838 0.10137435
0.053432558 -0.17756882 -0.15571311 0.26327533 -0.10189686 0.9594512 0.3988923 0.53893894
-0.8370555 -0.23548728 -0.258026 0.27960607 0.36285073 -0.07438777 0.008335757 -0.018890528
0.28816774 0.6408049 0.14836961 0.23283786 0.07108994 -0.4249378 0.22884373 0.5670356
0.46488816 0.009551405 0.13046528 -0.7159223 -0.40859082 0.11535801 -0.3991547 0.91803235
-0.85039437 -0.7015657 0.1417885 0.019801898 0.2223776 -0.38826877 -0.21457446 0.6020621
-0.7963653 0.3834535 0.027391287 -0.17962945 0.06489013 0.30135635 0.20412248 -0.26260635
0.5012057 0.25706744 -0.24524952 -0.006079084 -0.02259754 -0.1614279 -0.20415413 -0.087872826
-0.09118491 -0.28054464 -0.8691612 0.26070875 0.82088846 -0.24898385 -0.56455827 0.5087218
-0.3082344 -0.009236585 0.38634926 0.078347996 1.0565629 -0.40713415 -0.33499137 -0.004525693
0.18469222 0.078964956 0.02915551 0.08940651 -0.1494778 0.29856318 -0.35393104 -0.50502324
0.47744837 -0.44677544 -0.2790082 0.11806307 -0.04673987 -0.57867813 0.35063428 0.48001644
0.1410219 0.088603765 0.4601365 0.19408193 0.4061889 0.41643324 1.0557798 -0.009664129
0.03726718 -0.11083558 -0.88039327 0.008428433 -0.5476201 0.7215494 -0.20339327 -0.00045371207
-1.0640918 0.019042622 -0.022138529 0.6029988 0.36506146 0.27673957 0.1828513 -0.2624514
00000000: 0473 c73d 7101 39bd 2d9e 6b3e 0472 313e
00000010: f3b5 2ebc 4313 10be a0fd 593e 607a 6e3e
00000020: 3e0e 6bbf 131e 933e 73b6 ce3d f47a 5bbe
00000030: 07d4 8aba 8100 d9be 8eb1 9ebe 5b9d cf3d
00000040: 19dc 5a3d 9ad4 35be 4273 1fbe 06cc 863e
00000050: 4daf d0bd 989e 753f 9d3b cc3e e7f7 093f
00000060: 4549 56bf 9423 71be fc1b 84be 8728 8f3e
00000070: 92c7 b93e 9d58 98bd b392 083c 4fc0 9abc
00000080: b98a 933e ca0b 243f 34ee 173e 0c6d 6e3e
00000090: 9a97 913d 7391 d9be 0356 6a3e 3f29 113f
000000a0: d205 ee3e 7f7d 1c3c b198 053e af46 37bf
000000b0: d132 d1be d240 ec3d 015e ccbe 2b04 6b3f
000000c0: 72b3 59bf cf99 33bf 0131 113e 9737 a23c
000000d0: f4b6 633e 2acb c6be 68b9 5bbe be20 1a3f
000000e0: 99de 4bbf 0454 c43e b163 e03c c8f0 37be
000000f0: 1ee5 843d 614b 9a3e 7c05 513e 5774 86be
00000100: 044f 003f 589e 833e b122 7bbe 0d33 c7bb
00000110: 7a1e b9bc 5b4d 25be c80d 51be abf6 b3bd
00000120: 27bf babd 8ca3 8fbe 5981 5ebf 9e7b 853e
00000130: bf25 523f 9ff5 7ebe e486 10bf 983b 023f
00000140: e6d0 9dbe 0c55 17bc 92cf c53e ea74 a03d
00000150: 743d 873f e373 d0be fd83 abbe 444c 94bb
00000160: f51f 3d3e 61b8 a13d 89d7 ee3c c31a b73d
00000170: b510 19be 46dd 983e 7336 b5be 3449 01bf
00000180: 1d74 f43e c0bf e4be 2ada 8ebe 0dcb f13d
00000190: 4e72 3fbd 4024 14bf 5686 b33e b7c4 f53e
000001a0: 0c68 103e e475 b53d 0397 eb3e 6abd 463e
000001b0: fef7 cf3e bd36 d53e cb23 873f 4b56 1ebc
000001c0: 78a5 183d c4fd e2bd 7461 61bf 6917 0a3c
000001d0: d530 0cbf 76b7 383f 5346 50be 34e0 edb9
000001e0: 2934 88bf 46ff 9b3c dc5b b5bc 215e 1a3f
000001f0: 56e9 ba3e cfb0 8d3e 5f3d 3b3e 0860 86be

connection_layers.1.bias f4 [16]
-0.0020521334 -0.0020171085 -0.00299471 -0.013457471 0.0072910497 -0.0013450242 -0.0013867194 -0.0030566442
0.0010814836 0.004479476 0.012601441 0.016879342 -0.0020991564 -0.006705102 -0.0009797297 -0.014984963
00000000: 167d 06bb 7731 04bb e642 44bb b97c 5cbc
00000010: c2e9 ee3b 864b b0ba 95c2 b5ba fb51 48bb
00000020: 91c0 8d3a 91c8 923b 4676 4e3c 8c46 8a3c
00000030: 0092 09bb 79b6 dbbb 466a 80ba 7e83 75bc

connection_layers.2.weight f4 [32, 16]
0.052550107 0.03446474 0.05243358 0.015136222 -0.2237351 -0.06787217 0.068997085 0.029629707
-0.3009683 0.075951874 -0.26142448 -0.07881236 -0.23533024 0.69574344 -0.053114317 0.84503525
0.23686992 -0.29374972 0.0010969981 -0.3159441 -0.26263392 0.021036144 0.4306865 0.1926816
0.18755357 -0.010392861 0.06905317 -0.2538635 -0.4183353 0.16114062 -0.12280291 0.32965353
-0.34114856 -0.11882245 -0.5652548 -0.10482907 -0.21307951 -0.00032607402 0.688768 -0.09530764
0.10879448 -0.2476852 -0.04417505 -0.13840148 0.21397188 -0.29641747 0.003581226 0.30546567
-0.00080145133 -0.33958793 -0.039518323 0.39273244 -0.002391597 0.33066577 0.3795947 0.6075182
-0.09105293 0.074700624 0.31083483 0.41072068 -0.0976493 -0.39180648 -0.35584906 -0.04131471
-0.030937383 -0.05039551 -0.2338649 0.12498744 0.20792717 -0.17137967 0.29051027 0.04746884
-0.04525608 0.06592369 -0.08571394 0.23227307 -0.0375278 -0.35473377 -0.5253823 0.14832073
-0.3325727 -0.09935029 -0.36540338 0.011115158 -0.19434512 0.48241982 -0.53980446 -0.43364748
0.2129662 0.42013007 -0.24896689 -0.1858851 -0.04189168 -0.21259008 -0.49804157 -0.13437271
0.0014479711 0.0071683098 -0.11960422 -0.5786214 0.005945368 0.1513421 -0.4585493 -0.40860397
-0.016457578 -0.34689772 -0.2755351 -0.3638975 -0.0009122848 -0.32941762 0.39634275 -0.15706918
0.031900585 0.034515474 0.4493406 0.28356242 -0.21859486 -0.04201994 0.40960202 0.07391038
-0.01721337 0.26158932 0.66299945 0.5106076 0.13219526 0.021977264 -0.03926077 -0.036240827
-0.09323951 0.14825022 0.23058882 0.16827655 0.0694491 -0.3361091 0.1381899 -0.11371781
-0.032362536 -0.041286435 -0.39331958 0.1037237 -0.03868456 0.66453636 0.43260285 0.39675316
-0.22970164 0.11368047 0.2660882 -0.25081486 -0.0010872228 -0.21362728 -0.0038145515 0.10020681
-0.045063112 -0.5500726 0.16304672 -0.24343228 0.012533413 0.00069362664 -0.1760993 0.061651416
-0.35429624 0.6884572 -0.41439983 0.10277979 -0.055662077 0.27452502 0.2070417 0.4508252
-0.22360173 0.017834641 0.094095625 0.012089038 0.57487416 0.359843 0.47838044 0.11144454
0.038152754 -0.026322532 0.43719265 0.04444485 -0.26506007 -0.5692636 0.037340086 0.13154119
-0.3124063 0.34661645 -0.40736866 -0.07209931 -0.23471506 -0.10593277 -0.0074171466 -0.49086466
0.00040173883 0.13459623 -0.5815324 -0.25634712 -0.009337245 0.33377653 -0.84127635 0.07871442
0.42846632 0.36090806 -0.059768993 0.23442557 -0.026612543 -0.050644618 0.5224246 -0.21101573
0.026362259 -0.23991407 -0.19537713 -0.47516647 -0.022338321 0.09122659 -0.37970555 -0.04008323
0.04144069 0.124988645 -0.46765575 -0.4170021 0.08508458 0.34971562 0.45401675 0.5077946
0.73268294 0.30950898 -0.6404781 0.3269009 -0.0323684 -0.5470314 0.015121816 -0.32706296
-0.43972734 0.27027592 -0.12542032 0.001601741 -0.21413867 -0.56743425 0.2999887 0.27601057
0.031809308 0.25665644 -0.2865582 0.2450017 -0.1573048 0.07583003 0.20505562 0.053270474
0.19598612 -0.32016224 0.14096215 0.31146348 0.643518 -0.32671574 -0.30052778 -0.09618874
00000000: c83e 573d e62a 0d3d 98c4 563d ebfd 773c
00000010: d01a 65be 9000 8bbd 584e 8d3d 00ba f23c
00000020: 8418 9abe a88c 9b3d 6ed9 85be 6068 a1bd
00000030: 69fa 70be 3e1c 323f 668e 59bd 3b54 583f
00000040: 078e 723e 5d66 96be 26c9 8f3a 6dc3 a1be
00000050: f477 86be fe53 ac3c f182 dc3e 534e 453e
00000060: 0b0e 403e d246 2abc c06b 8d3d 66fa 81be
00000070: 0b30 d6be 0c02 253e 1880 fbbd 59c8 a83e
00000080: 06ab aebe 2f59 f3bd 8ab4 10bf a0b0 d6bd
00000090: 8431 5abe eaf4 aab9 1a53 303f a730 c3bd
000000a0: a4cf de3d 30a1 7dbe e6f0 34bd 1eb9 0dbe
000000b0: 721b 5b3e 08c4 97be 01b3 6a3b ff65 9c3e
000000c0: 7d18 52ba 78de adbe f7dd 21bd 3a14 c93e
000000d0: 57bc 1cbb 064d a93e 3d5a c23e 5086 1b3f
000000e0: f579 babd a4fc 983d be25 9f3e fb49 d23e
000000f0: 5bfc c7bd dc9a c8be d931 b6be 9d39 29bd
00000100: 6570 fdbc 866b 4ebd 487a 6fbe 6af9 ff3d
00000110: dcea 543e 277e 2fbe c3bd 943e b06e 423d
00000120: 705e 39bd 0003 873d ca8a afbd fed8 6d3e
00000130: c0b6 19bd aa9f b5be 747f 06bf 64e1 173e
00000140: f846 aabe 2a78 cbbd 2716 bbbe 5a1c 363c
00000150: 6802 47be bbff f63e a030 0abf 0b07 debe
00000160: d013 5a3e 4a1b d73e 2df1 7ebe aa58 3ebe
00000170: 9c96 2bbd 37b1 59be 4eff febe 0099 09be
00000180: d9c9 bd3a 24e4 ea3b 0ff3 f4bd 8820 14bf
00000190: 5dd1 c23b 6cf9 1a3e f9c6 eabe 8a34 d1be
000001a0: 0bd2 86bc 949c b1be f012 8dbe c650 babe
000001b0: 6626 6fba 6da9 a8be 70ed ca3e bed6 20be
000001c0: 30aa 023d 1960 0d3d f90f e63e 182f 913e
000001d0: 55d7 5fbe 1a1d 2cbd 5bb7 d13e 535e 973d
000001e0: 0e03 8dbc 09ef 853e 55ba 293f 2eb7 023f
000001f0: 325e 073e aa09 b43c e7cf 20bd 4371 14bd
00000200: 5bf4 bebd e8ce 173e 7a1f 6c3e b050 2c3e
00000210: 543b 8e3d 7e16 acbe a781 0d3e e2e4 e8bd
00000220: 948e 04bd f71b 29bd 2f61 c9be 176d d43d
00000230: b473 1ebd 0e1f 2a3f 1f7e dd3e 3b23 cb3e
00000240: e836 6bbe 4ed1 e83d b63c 883e ce6a 80be
00000250: 2581 8eba 1cc1 5abe 8efd 79bb 3a39 cd3d
00000260: 1994 38bd 8fd1 0cbf b8f5 263e 5046 79be
00000270: f258 4d3c 7fd4 353a 6053 34be 3286 7c3d
00000280: 5166 b5be bb3e 303f 372c d4be 367e d23d
00000290: ebfd 63bd 8b8e 8c3e bd02 543e 90d2 e63e
000002a0: daf7 64be f419 923c 35b5 c03d 1a11 463c
000002b0: f42a 133f 573d b83e 48ee f43e 093d e43d
000002c0: 1046 1c3d 5aa2 d7bc b7d7 df3e ce0b 363d
000002d0: f4b5 87be 42bb 11bf ebf1 183d bcb2 063e
000002e0: b8f3 9fbe b677 b13e a092 d0be cea8 93bd
000002f0: 2559 70be 48f3 d8bd 890b f3bb 9d52 fbbe
00000300: 79a0 d239 98d3 093e 4fdf 14bf ee3f 83be
00000310: 3efb 18bc c2e4 aa3e e35d 57bf 0735 a13d
00000320: f05f db3e f1c8 b83e 55d0 74bd 420d 703e
00000330: 8c02 dabc bb70 4fbd 9ebd 053f 8214 58be
00000340: aaf5 d73c 09ac 75be f110 48be 0549 f3be
00000350: dbfe b6bc 02d5 ba3d c468 c2be 502e 24bd
00000360: b7bd 293d 0cfa ff3d 9370 efbe 4d81 d5be
00000370: d340 ae3d ed0d b33e e274 e83e d4fe 013f
00000380: 1c91 3b3f f677 9e3e 5ff6 23bf 8e5f a73e
00000390: ba94 04bd 400a 0cbf 7ec1 773c cc74 a7be
000003a0: f123 e1be 9b61 8a3e 2f6e 00be 82f1 d13a
000003b0: 2b47 5bbe 5f43 11bf 1e98 993e 4251 8d3e
000003c0: 7a4a 023d 7968 833e c2b7 92be bae1 7a3e
000003d0: 8214 21be c64c 9b3d 1afa 513e 2432 5a3d
000003e0: 96b0 483e 4eec a3be 6258 103e 2478 9f3e
000003f0: 98bd 243f 4947 a7be c7de 99be 9afe c4bd

connection_layers.2.bias f4 [32]
0.01578286 0.0036358647 -0.003301286 0.0048217615 0.0012260639 -0.0039102193 0.0022000438 0.0029402818
0.0020650923 -0.00055998686 0.0005884333 0.006146125 -0.0017846645 -5.496279e-05 0.0014083401 0.0005791498
-0.0024170033 -0.014687965 0.010756527 -0.00063968636 0.006096999 0.00021557896 0.0028000486 0.006972862
0.004126349 0.0006382626 0.0007516831 0.00326001 -0.0025155656 0.0086930785 -0.00033590966 0.012506593
00000000: 0e4b 813c b047 6e3b 635a 58bb deff 9d3b
00000010: e1b3 a03a 4c21 80bb 9c2e 103b beb1 403b
00000020: 8056 073b 15cc 12ba 1741 1a3a 6f65 c93b
00000030: 67eb e9ba d987 66b8 0d98 b83a 16d2 173a
00000040: 9666 1ebb caa5 70bc 253c 303c a0b0 27ba
00000050: 56c9 c73b 090d 6239 0581 373b 9b7c e43b
00000060: 5336 873b 1451 273a 990c 453a e4a5 553b
00000070: 30dc 24bb 6a6d 0e3c 081d b0b9 74e8 4c3c

norm_layers.0.weight f4 [8]
0.95550674 0.9555079 0.95550436 0.9555079 0.9555071 0.95550793 0.95550305 0.9555051
00000000: 179c 743f 2a9c 743f ef9b 743f 2a9c 743f
00000010: 1d9c 743f 2b9c 743f d99b 743f fb9b 743f

norm_layers.0.bias f4 [8]
0.012503149 0.0054918337 -0.018851308 0.0033034594 -0.009889751 -5.0912484e-05 0.024044992 -0.016698437
00000000: 02da 4c3c d7f4 b33b 0f6e 9abc da7e 583b
00000010: 9f08 22bc dd8a 55b8 01fa c43c 29cb 88bc

norm_layers.0.running_mean f4 [8]
-0.042090055 0.02580422 -0.109807104 0.022000099 -0.13327512 0.14655213 0.24604197 -0.098482326
00000000: 9f66 2cbd 5f63 d33c 8ce2 e0bd 8d39 b43c
00000010: 4679 08be c311 163e 6df2 7b3e 1ab1 c9bd

norm_layers.0.running_var f4 [8]
0.025904572 0.009697908 0.17615263 0.0070466907 0.2594713 0.31369227 0.8842136 0.14169696
00000000: d335 d43c f9e3 1e3c 5b61 343e ede7 e63b
00000010: 6cd9 843e 469c a03e d35b 623f 0219 113e

norm_layers.1.weight f4 [8]
0.9556482 0.9549292 0.95504886 0.9552394 0.95619714 0.9563788 0.95621264 0.9560393
00000000: 5ca5 743f 3d76 743f 157e 743f 928a 743f
00000010: 56c9 743f 3ed5 743f 5aca 743f febe 743f

norm_layers.1.bias f4 [8]
0.022428628 0.00942736 0.0042675133 -0.008635364 0.0003449536 -0.009834659 -0.02353308 -0.004679982
00000000: 3ebc b73c 3775 1a3c 7fd6 8b3b 577b 0dbc
00000010: e3da b439 8d21 21bc 72c8 c0bc 895a 99bb

norm_layers.1.running_mean f4 [8]
0.00069522735 -0.0004940429 -0.0050763316 -8.074557e-05 0.00043382062 -0.0013516798 -0.004905696 0.00037890376
00000000: eb3f 363a a882 01ba 5b57 a6bb f355 a9b8
00000010: 6b72 e339 d92a b1ba f6bf a0bb 9aa7 c639

norm_layers.1.running_var f4 [8]
5.828047e-06 8.878695e-05 0.00041509664 7.758947e-06 1.2165889e-06 1.6694412e-05 9.429403e-05 5.1675547e-06
00000000: 8b8e c336 2133 ba38 54a1 d939 6c2c 0237
00000010: ad49 a335 fa0a 8c37 b9bf c538 f564 ad36

norm_layers.2.weight f4 [16]
0.95614725 0.95616424 0.9548888 0.95539266 0.9557859 0.95519304 0.9557618 0.9554343
0.95568687 0.95576817 0.9521588 0.9562695 0.95489615 0.9559951 0.9563551 0.9570127
00000000: 11c6 743f 2ec7 743f 9873 743f 9d94 743f
00000010: 62ae 743f 8887 743f ceac 743f 5897 743f
00000020: e5a7 743f 39ad 743f aec0 733f 14ce 743f
00000030: 1374 743f 18bc 743f b0d3 743f c9fe 743f

norm_layers.2.bias f4 [16]
0.010267425 0.00628995 0.014038151 0.020442076 -0.011413806 0.0002157476 -0.0089231655 0.011291519
0.0047609494 0.008672273 0.009174515 -0.011606922 -0.0127839185 0.01617976 -0.0067442805 0.004370925
00000000: b438 283c ed1b ce3b 4600 663c 2476 a73c
00000010: f900 3bbc 4e3a 6239 7832 12bc 1000 393c
00000020: bd01 9c3b 2616 0e3c b450 163c f62a 3ebc
00000030: a473 51bc 6b8b 843c 20ff dcbb fa39 8f3b

norm_layers.2.running_mean f4 [16]
-9.584609e-05 -0.0004959785 0.004041828 -0.00020169007 0.0002625722 0.0004308205 -0.00027007607 -8.2276005e-05
-0.0017386408 0.00083201105 0.017612033 -0.0010829223 -0.015953977 1.2373184e-05 6.8943e-05 -0.00013971992
00000000: fa00 c9b8 8e04 02ba 5071 843b c47c 53b9
00000010: d8a9 8939 c0df e139 ff98 8db9 988b acb8
00000020: 1be3 e3ba 511b 5a3a 1c47 903c d8f0 8dba
00000030: eab1 82bc 6c96 4f37 7e95 9038 c881 12b9

norm_layers.2.running_var f4 [16]
3.368991e-08 2.3498735e-06 0.00013871933 2.1486272e-07 2.549855e-07 5.090674e-07 1.687852e-06 1.0639965e-05
5.5875794e-06 7.2381436e-06 0.0006468136 1.2645534e-06 0.00047536564 2.8973948e-10 2.8942586e-07 2.0765314e-07
00000000: 73b2 1033 85b2 1d36 3075 1139 04b5 6634
00000010: f1e4 8834 d8a6 0835 278a e235 4d82 3237
00000020: f17c bb36 2edf f236 ed8e 293a b9b9 a935
00000030: 7f3a f939 3549 9f2f 6362 9b34 43f7 5e34

stages.0.0.gamma f4 [8]
0.002972855 0.019496746 0.0151311075 0.0015455456 0.0007634513 0.003333992 0.005999989 0.0019118129
00000000: 3bd4 423b a4b7 9f3c 77e8 773c e893 ca3a
00000010: 5922 483a 1b7f 5a3b 8e9b c43b cc95 fa3a

stages.0.0.dwconv.bias f4 [8]
3.2933233e-06 6.438247e-07 4.3017453e-06 2.0340167e-06 1.503629e-06 4.881599e-06 4.768692e-06 4.467738e-06
00000000: dd02 5d36 4cd3 2c35 b657 9036 2480 0836
00000010: 4dd0 c935 9ecc a336 c102 a036 94e9 9536

stages.0.0.norm.weight f4 [8]
0.9567899 0.95521677 0.9554921 0.9545091 0.95609444 0.95672727 0.955806 0.9569017
00000000: 2ff0 743f 1689 743f 219b 743f b55a 743f
00000010: 9bc2 743f 14ec 743f b4af 743f 83f7 743f

stages.0.0.norm.bias f4 [8]
-0.0053529716 0.025721142 0.0006485686 -0.022896333 0.019234193 0.01903591 0.025207505 -0.025993679
00000000: fb67 afbb 25b5 d23c b404 2a3a 1791 bbbc
00000010: 0791 9d3c 32f1 9b3c f87f ce3c b2f0 d4bc

stages.0.0.norm.running_mean f4 [8]
-0.0067613157 0.009791708 0.0018858408 -0.0128497295 -0.023777492 0.006150972 0.0077822534 -0.0040133633
00000000: 078e ddbb 666d 203c 512e f73a ac87 52bc
00000010: 04c9 c2bc 188e c93b 4602 ff3b 8882 83bb

stages.0.0.norm.running_var f4 [8]
1.4480214 1.3924445 0.75780934 1.7330742 1.2504013 0.8272687 0.4413655 1.2567308
00000000: c458 b93f 9f3b b23f cbff 413f 60d5 dd3f
00000010: 260d a03f e2c7 533f a9fa e13e 8edc a03f

stages.0.0.pwconv1.weight f4 [16, 8]
-0.010200265 -0.1635872 -0.5003781 0.060878597 -0.6599042 -0.65682656 0.6361915 0.69697887
0.8189942 -0.18791139 -0.087909445 0.5987275 -0.26649183 -0.008796221 0.78827673 -0.6947964
0.33862782 -0.37765065 -0.2171427 -0.08175524 -0.3953356 0.22528967 -0.03640948 -0.104835525
-0.26171368 -0.1353598 0.33649674 -0.76741654 0.19242978 0.0014337868 0.09701826 0.11351364
1.0350422 -0.037783068 -0.0014497004 0.26945487 0.81197476 -0.19289668 -0.1772219 0.031128861
0.67811227 0.20673338 -0.60077596 0.25484523 -0.39551133 0.13484721 -0.19593793 -0.85029083
-0.0968428 -0.21924825 0.24326889 -0.45059523 -0.6364133 0.24985644 -0.91246444 0.16350044
0.11671551 -0.6797765 0.13291574 -0.012858587 1.0480098 0.7025353 -0.8885109 -0.012103274
-0.5104825 -0.67167336 0.55154604 -0.3474816 -0.48412085 0.1128776 0.5877995 -0.57644236
-0.2063863 0.17408153 -0.24756148 0.47348794 0.1747586 0.92183316 -0.05710988 -0.8160347
0.065175876 -0.52875453 -0.8857054 -0.01253501 0.2382538 1.0719966 -0.156522 -1.1619937
0.11075817 0.65973574 0.3407056 -0.10652971 0.022822902 0.17064102 -0.6778739 -0.14411281
-0.1920305 0.4030886 0.678542 0.061565474 -0.4421977 -0.3555011 1.1914082 0.22237639
-0.033415046 -0.65766615 0.43191534 0.1482769 -0.08730054 -0.12407949 -0.5867047 0.6729874
0.23773322 0.021783339 0.042065542 -0.4555047 0.5354622 0.5997352 0.18981989 -0.11748254
-0.30621767 -0.084940255 0.00968898 0.15440196 0.23076761 -0.28069198 0.105132416 0.0076991334
00000000: 031f 27bc 6783 27be c718 00bf d65b 793d
00000010: 7bef 28bf c925 28bf 72dd 223f 356d 323f
00000020: 9ba9 513f d86b 40be de09 b4bd 3546 193f
00000030: 9e71 88be 061e 10bc 81cc 493f 2dde 31bf
00000040: a060 ad3e 6d5b c1be a85a 5ebe 4b6f a7bd
00000050: 6e69 cabe 56b2 663e 1b22 15bd 02b4 d6bd
00000060: 56ff 85be c29b 0abe 4d49 ac3e 6975 44bf
00000070: 500c 453e e7ed bb3a 82b1 c63d d779 e83d
00000080: 437c 843f 6bc2 1abd e003 beba fdf5 893e
00000090: 94dd 4f3f b586 45be a879 35be f401 ff3c
000000a0: c498 2d3f eab1 533e 74cc 19bf 137b 823e
000000b0: 7680 cabe 6315 0a3e f4a3 48be a9ac 59bf
000000c0: 8555 c6bd 9d82 60be 7b1b 793e 6bb4 e6be
000000d0: fbeb 22bf 5eda 7f3e 4597 69bf a96c 273e
000000e0: 8b08 ef3d d505 2ebf 101b 083e d3ac 52bc
000000f0: 2f25 863f 5ad9 333f 7375 63bf d04c 46bc
00000100: fbae 02bf c9f2 2bbf 1f32 0d3f 1ce9 b1be
00000110: b0de f7be 5f2c e73d 077a 163f ba91 13bf
00000120: ee56 53be 6e42 323e c280 7dbe 036d f23e
00000130: ebf3 323e 42fd 6b3f 0dec 69bd a6e7 50bf
00000140: ee7a 853d 755c 07bf 97bd 62bf a55f 4dbc
00000150: cef8 733e 2f37 893f 4e47 20be 36bc 94bf
00000160: 2ed5 e23d 71e4 283f f770 ae3e 402c dabd
00000170: 18f7 ba3c 85bc 2e3e 2589 2dbf 4f92 13be
00000180: a5a3 44be a161 ce3e eeb4 2d3f 142c 7c3d
00000190: bd67 e2be 3d04 b6be 1080 983f a3b6 633e
000001a0: 37de 08bd cf5c 28bf 0224 dd3e e6d5 173e
000001b0: a0ca b2bd 631d febd 4732 16bf e748 2c3f
000001c0: 5670 733e f972 b23c eb4c 2c3d e937 e9be
000001d0: 0d14 093f 3f88 193f 2560 423e b09a f0bd
000001e0: 90c8 9cbe 28f5 adbd 87be 1e3c 8c1b 1e3e
000001f0: 584e 6c3e dcb6 8fbe aa4f d73d 0349 fc3b

stages.0.0.pwconv1.bias f4 [16]
-0.0025060477 0.0070504523 -0.0016829997 0.003178195 0.0032346637 -0.01190724 0.008230164 0.008630589
0.0032170375 -0.00028655698 0.0047158846 0.017232202 0.012025594 -0.035245977 0.02636542 0.017420957
00000000: 813c 24bb 7b07 e73b 1998 dcba 4449 503b
00000010: a7fc 533b 9616 43bc cfd7 063c 5067 0d3c
00000020: efd4 523b 073d 96b9 b587 9a3b 8c2a 8d3c
00000030: ff06 453c 165e 10bd 4bfc d73c 65b6 8e3c

stages.0.0.pwconv2.weight f4 [8, 16]
0.42987543 0.24396533 -0.043618772 0.18714997 -0.068927824 -0.42266092 0.08855545 -0.0640742
-0.080781296 0.2328672 0.14873837 0.34850606 0.36071172 0.045666154 -0.13565548 -0.36557698
0.056345657 0.08298736 0.03745112 -0.13990986 -0.3812383 -0.32141754 -0.013670199 -0.1723444
-0.33898595 0.35595998 0.12906946 -0.23830308 0.021711752 0.7639856 0.41114125 -0.32460746
-0.090821475 -0.10387993 0.11400565 0.08302046 -0.038639307 0.01005561 -0.9079106 -0.14408106
0.043024346 -0.39477098 0.003739159 -0.41633627 0.39940545 0.106805444 0.09029585 -0.30254495
0.11860799 -0.07002308 -0.5897522 0.388641 0.62667954 -0.95156807 -0.5902093 -0.377962
0.2141297 -0.37491435 0.5546852 0.38166597 0.053682882 0.28862578 0.8171314 0.028351847
0.6485024 0.20948827 0.078071155 -0.15800476 -0.019340143 0.028070172 0.52693474 -0.27255997
-0.09973698 0.29824257 -0.38049617 0.7323103 0.60298693 0.70014626 -0.0046446156 -0.18930529
-0.06298221 0.0638866 -0.03281923 -0.046317127 -0.07077998 0.30422518 0.20606989 -0.32484657
0.14259025 0.32924777 -0.26196462 -0.0755267 -0.82886374 0.25769255 -0.5311599 -0.010326801
0.051020574 -0.37925816 -0.14587171 -0.1461841 0.1687447 -0.80519885 -0.32860947 -0.48169988
-0.62926674 0.8306109 -0.085655466 -0.026253859 -0.19298285 0.38896483 -0.39671654 -0.0070241285
-0.4215654 0.41729826 -0.29764166 0.10858986 -0.45916212 -0.16609062 -0.43580183 0.17552152
-0.15338995 0.72233826 0.20364097 0.2072548 0.26495203 0.14582178 -0.45028815 0.23740412
00000000: a218 dc3e 0cd2 793e 99a9 32bd 3ea4 3f3e
00000010: 082a 8dbd 0367 d8be 8f5c b53d 5639 83bd
00000020: aa70 a5bd bd74 6e3e df4e 183e 636f b23e
00000030: 35af b83e 6f0c 3b3d 45e9 0abe e82c bbbe
00000040: b4ca 663d 47f5 a93d 5866 193d 8844 0fbe
00000050: ab31 c3be d790 a4be f8f8 5fbc 0d7b 30be
00000060: 918f adbe 6340 b63e c92a 043e b905 74be
00000070: d8dc b13c 8f94 433f 1b81 d23e f332 a6be
00000080: 9c00 babd 00bf d4bd cb7b e93d a206 aa3d
00000090: 4044 1ebd 49c0 243c d46c 68bf fc89 13be
000000a0: 4c3a 303d 6c1f cabe ae0c 753b 072a d5be
000000b0: df7e cc3e d0bc da3d 08ed b83d 2ce7 9abe
000000c0: bfe8 f23d 4368 8fbd 00fa 16bf f4fb c63e
000000d0: 126e 203f f799 73bf f517 17bf 3c84 c1be
000000e0: d144 5b3e c6f4 bfbe d9ff 0d3f b969 c33e
000000f0: 95e2 5b3d c2c6 933e 862f 513f 2242 e83c
00000100: 4104 263f 1884 563e c5e3 9f3d 00cc 21be
00000110: 386f 9ebc 6bf3 e53c 32e5 063f fb8c 8bbe
00000120: e742 ccbd 40b3 983e 65d0 c2be b078 3b3f
00000130: 5a5d 1a3f c93c 333f dc31 98bb 3fd9 41be
00000140: d1fc 80bd fad6 823d 756d 06bd 07b7 3dbd
00000150: 18f5 90bd 67c3 9b3e fc03 533e 4a52 a6be
00000160: 2e03 123e 2a93 a83e 3a20 86be bead 9abd
00000170: 6a30 54bf 47f0 833e 18fa 07bf be31 29bc
00000180: f3fa 503d 202e c2be 655f 15be 49b1 15be
00000190: 69cb 2c3e 8321 4ebf 803f a8be 5ea1 f6be
000001a0: a017 21bf eaa2 543f 226c afbd 5512 d7bc
000001b0: 4c9d 45be 6626 c73e 6e1e cbbe a92a e6bb
000001c0: 6cd7 d7be 1ea8 d53e 7d64 98be 5c64 de3d
000001d0: 4c17 ebbe a913 2abe 6b21 dfbe eabb 333e
000001e0: 4112 1dbe 29eb 383f 4287 503e 9a3a 543e
000001f0: cba7 873e 4e52 153e 2b8c e6be 111a 733e

stages.0.0.pwconv2.bias f4 [8]
3.6096344e-06 1.2421083e-05 7.351716e-06 5.7035166e-08 3.052684e-07 -1.8233684e-06 2.6149842e-06 1.8829486e-06
00000000: 0c3d 7236 2564 5037 c2ae f636 d4f6 7433
00000010: c5e3 a334 76ba f4b5 167d 2f36 9fb9 fc35

stages.1.0.gamma f4 [16]
0.00025244066 0.0017842947 0.007320914 0.00081459194 0.00046304663 0.0010812427 0.0016303983 0.0044568563
0.004022516 0.002591631 0.017342737 0.0013832772 0.021421092 -1.4001821e-05 -0.00035888408 -0.0004110346
00000000: 035a 8439 ffde e93a 47e4 ef3b 578a 553a
00000010: 11c5 f239 7cb8 8d3a 17b3 d53a d20a 923b
00000020: 4fcf 833b 5ad8 293b 5b12 8e3c 154f b53a
00000030: 497b af3c 5de9 6ab7 9b28 bcb9 2180 d7b9

stages.1.0.dwconv.bias f4 [16]
8.954268e-06 8.304781e-06 3.412594e-06 5.6887916e-06 7.1414897e-06 2.7841568e-06 1.667475e-05 -5.6110696e-07
7.3046713e-06 3.514362e-06 1.1151859e-06 1.590679e-05 5.1079683e-06 5.8143195e-07 -5.030762e-07 2.1903463e-06
00000000: 4a3a 1637 c354 0b37 eb03 6536 59e2 be36
00000010: eea0 ef36 73d7 3a36 c1e0 8b37 fa9e 16b5
00000020: a61a f536 48d8 6b36 7fad 9535 926f 8537
00000030: 1d65 ab36 b313 1c35 220b 07b5 ddfd 1236

stages.1.0.norm.weight f4 [16]
0.9558844 0.95493585 0.9555475 0.9560779 0.9552423 0.95583564 0.95560336 0.95550984
0.95594305 0.95806324 0.9557283 0.9556671 0.953341 0.9556326 0.95594186 0.955581
00000000: d7b4 743f ad76 743f c39e 743f 85c1 743f
00000010: c28a 743f a5b1 743f 6ca2 743f 4b9c 743f
00000020: afb8 743f a243 753f 9caa 743f 99a6 743f
00000030: 280e 743f 57a4 743f 9bb8 743f f5a0 743f

stages.1.0.norm.bias f4 [16]
-0.018595401 0.012030849 -0.026583174 -0.024597393 -0.024305513 0.0019560868 -0.015195136 0.0012188286
-0.032326095 0.011069817 0.028364481 0.009509351 -0.003563526 -0.027970135 0.015967904 -0.031015374
00000000: 6255 98bc 0a1d 453c f5c4 d9bc 7980 c9bc
00000010: 5b1c c7bc b131 003b 05f5 78bc 1ac1 9f3a
00000020: 5e68 04bd 2d5e 353c a15c e83c 1ccd 1b3c
00000030: 0c8a 69bb a021 e5bc 1fcf 823c f413 febc

stages.1.0.norm.running_mean f4 [16]
-0.015961545 0.0001020503 -0.0656707 -0.039673142 0.035349138 0.033832993 0.006194485 -0.062605016
-0.0058874236 -0.08127224 0.03430898 -0.015439209 0.00082222495 -0.020102782 -0.010852716 -0.033432037
00000000: c9c1 82bc d603 d638 5c7e 86bd 4e80 22bd
00000010: 42ca 103d 7794 0a3d 1bfb ca3b 0f37 80bd
00000020: 4aeb c0bb 0f72 a6bd 9387 0c3d bcf4 7cbc
00000030: 958a 573a 97ae a4bc 97cf 31bc 08f0 08bd

stages.1.0.norm.running_var f4 [16]
0.45195433 0.2084693 1.6543776 0.1042081 1.0733125 3.215793 0.1454222 2.4322393
0.37986058 6.4398794 0.6695257 0.09933073 1.0946634 1.1651939 1.9687696 0.5269264
00000000: 8f66 e73e fa78 553e a5c2 d33f 0e6b d53d
00000010: 4e62 893f 8dcf 4d40 8fe9 143e cfa9 1b40
00000020: 167d c23e 7e13 ce40 0966 2b3f e96d cb3d
00000030: ee1d 8c3f 1325 953f a400 fc3f a6e4 063f

stages.1.0.pwconv1.weight f4 [32, 16]
-0.24515903 0.26252323 0.017718874 0.61474466 -0.020542555 -0.28808603 -0.3728333 0.47096768
-0.28697303 -0.094868205 0.722826 -0.24822204 -0.84912664 -0.32268912 -0.12068754 -0.5410536
-0.36210808 0.04659541 0.38824648 0.054769572 0.26873562 -0.06018545 -0.054780163 0.09865417
-0.1703973 -0.24571763 0.1519846 0.16727513 -0.19108929 -0.07649091 -0.42614892 0.7495647
0.18521331 -0.17479955 -0.019490518 -0.035704914 -0.07453438 -0.30923456 0.1600016 0.019071907
0.11163999 -0.051162347 0.33381465 0.17540944 0.29465592 -0.59178 -0.094620116 0.32132488
0.1039368 0.3235905 -0.07468896 0.15432316 -0.23125857 -0.051108908 0.034986723 0.08983301
0.13399844 -0.30835813 -0.06371519 -0.015040284 -0.13040727 -0.14553969 0.004075481 0.102860734
-0.015096208 0.124752484 -0.50833213 0.15080267 -0.21137585 0.42557234 -0.041170098 -0.26391965
-0.03802149 -0.010375183 0.09350893 0.35210365 0.55849254 -0.27042228 0.32572886 0.15483056
0.57546043 0.47694102 0.39649582 0.16972663 -0.0856351 0.048302833 0.014851982 0.010818024
0.42552334 0.21000046 0.15097214 -0.014136659 -0.30699885 -0.08130661 0.11065861 -0.8756576
0.12455102 0.097424194 -0.11244325 -0.27063712 0.391276 -0.05298756 -0.13168539 -0.082953215
0.0546062 0.43527207 0.18976323 0.003416845 -0.10015825 -0.2562036 0.42446122 -0.12020498
0.18498005 0.31662482 0.25295487 -0.32025635 -0.0057096696 0.02202675 0.27437857 0.08394196
0.05984909 -0.04681314 0.07217594 -0.15569255 0.122250356 -0.18540348 -0.4553631 0.111338906
0.28398934 0.11020894 -0.014452895 -0.22323145 0.20525052 -0.0094266115 0.06297881 0.0015431313
-0.043922927 0.0669961 0.390056 -0.09194353 -0.4621949 -0.12865838 0.082680084 -0.16580215
0.50398767 -0.010680024 -0.0148589155 0.19116607 0.09777211 -0.1288294 0.04874494 -0.15937725
0.29219472 -0.22108321 -0.0033218828 -0.31258094 -0.06476985 -0.47984946 -0.4479181 0.3718114
-0.166301 -0.017006623 -0.09092009 -0.0072884224 0.23391844 -0.17326161 0.16912153 0.6676597
0.42570695 -0.0022650983 -1.2965535 -0.023504479 0.027415195 -0.22901988 0.03725078 -0.23789686
0.3074421 -0.4804731 0.29604554 0.28078222 -0.1659553 -0.19605441 -0.16365047 -0.016900297
0.021360219 -0.23305555 -0.24676222 -0.59187526 0.19513863 -0.17367491 -0.18606827 -0.13947931
0.070760004 -0.49343154 -0.23631492 0.22913818 0.16594444 0.40682167 -0.15325938 -0.4311723
-0.17687318 -0.33379322 -0.07203046 0.3624181 0.45939726 0.0249759 0.13693908 -0.051035643
-0.21271956 -0.258313 -0.08803491 0.44325528 -0.013715506 -0.20192504 0.0457024 -0.0132530965
-0.22633003 0.3964281 -0.11842284 0.1719023 0.18824525 0.072682895 -0.20145214 0.15937707
0.590789 -0.2802705 0.0069833873 1.0539902 -0.07638168 0.163788 -0.3559156 0.1259951
-0.015891125 0.67223674 -0.111622006 -0.39367163 -0.19365737 0.02126338 0.11497785 0.44257882
-0.123077914 0.0012409482 0.0895071 -0.31374773 0.012553374 -0.6307584 -0.62615687 -0.22142063
0.7050191 0.09180199 0.046220742 0.0026152951 -0.087153934 0.1534116 0.46195287 0.3163573
00000000: f80a 7bbe 7269 863e 2c27 913c e85f 1d3f
00000010: dc48 a8bc 0380 93be 02e4 bebe ad22 f13e
00000020: 21ee 92be 434a c2bd 200b 393f eb2d 7ebe
00000030: 5d60 59bf 8237 a5be 072b f7bd 7d82 0abf
00000040: 3b66 b9be d4da 3e3d 3ec8 c63e 0f56 603d
00000050: b797 893e 0585 76bd 2a61 60bd 330b ca3d
00000060: a17c 2ebe 679d 7bbe daa1 1b3e 2c4a 2b3e
00000070: e9ac 43be 44a7 9cbd 3130 dabe 79e3 3f3f
00000080: 8fa8 3d3e a7fe 32be 94aa 9fbc 513f 12bd
00000090: 7ba5 98bd fe53 9ebe 76d7 233e b03c 9c3c
000000a0: 82a3 e43d 9c8f 51bd c1e9 aa3e 889e 333e
000000b0: 24dd 963e e57e 17bf 31c8 c1bd b284 a43e
000000c0: d1dc d43d a7ad a53e 87f6 98bd e406 1e3e
000000d0: 0ccf 6cbe 9357 51bd 3d4e 0f3d 5ffa b73d
000000e0: e336 093e 1ee1 9dbe 1c7d 82bd 866b 76bc
000000f0: 7c89 05be 5b08 15be 9d8b 853b a6a8 d23d
00000100: 1656 77bc 3b7e ff3d 0e22 02bf 046c 1a3e
00000110: e972 58be 9ee4 d93e faa1 28bd 7a20 87be
00000120: 6cbc 1bbd acfc 29bc 9c81 bf3d ee46 b43e
00000130: 5ef9 0e3f ca74 8abe efc5 a63e e78b 1e3e
00000140: 6051 133f 9d31 f43e 8001 cb3e d1cc 2d3e
00000150: 7561 afbd 31d9 453d ba55 733c 153e 313c
00000160: 32de d93e 5c0a 573e 7198 1a3e 729d 67bc
00000170: f42e 9dbe 1484 a6bd fba0 e23d 192b 60bf
00000180: 9b14 ff3d 5686 c73d a648 e6bd f390 8abe
00000190: 5455 c83e 7c09 59bd 89d8 06be 60e3 a9bd
000001a0: c0aa 5f3d fbdb de3e 4b51 423e 26ed 5f3b
000001b0: c51f cdbd 1e2d 83be fb52 d93e 072e f6bd
000001c0: 696b 3d3e a61c a23e 4d83 813e a4f8 a3be
000001d0: 2e18 bbbb 7171 b43c 597b 8c3e c3e9 ab3d
000001e0: 5224 753d 23bf 3fbd fbd0 933d de6d 1fbe
000001f0: 655e fa3d 69da 3dbe 5a25 e9be a705 e43d
00000200: 0d67 913e 3ab5 e13d d6cb 6cbc c996 64be
00000210: 312d 523e 1372 1abc 09fb 803d e542 ca3a
00000220: 87e8 33bd 4035 893d 6cb5 c73e e44c bcbd
00000230: cfa4 ecbe 06bf 03be 2d54 a93d 0ac8 29be
00000240: 5605 013f 44fb 2ebc cf72 73bc 0ac1 433e
00000250: be3c c83d dbeb 03be c6a8 473d ca33 23be
00000260: 8c9a 953e a363 62be f2b3 59bb 9c0a a0be
00000270: 0ea6 84bd d4ae f5be 8555 e5be 105e be3e
00000280: cf4a 2abe 7951 8bbc 5034 babd b8d3 eebb
00000290: 5188 6f3e 7e6b 31be 322e 2d3e bfeb 2a3f
000002a0: 43f6 d93e 0b72 14bb 77f5 a5bf 778c c0bc
000002b0: d595 e03c 3084 6abe 4694 183d 3c9b 73be
000002c0: 0d69 9d3e 9200 f6be 4893 973e b0c2 8f3e
000002d0: 30f0 29be 7dc2 48be fd93 27be 7e72 8abc
000002e0: a0fb ae3c 1da6 6ebe 3caf 7cbe 2385 17bf
000002f0: 6cd2 473e d6d7 31be ae88 3ebe aad3 0ebe
00000300: 9fea 903d 0fa3 fcbe 8afc 71be 33a3 6a3e
00000310: 57ed 293e ee4a d03e 07f0 1cbe 9ec2 dcbe
00000320: 3e1e 35be f2e6 aabe b584 93bd dd8e b93e
00000330: 1e36 eb3e 429a cc3c c239 0c3e c00a 51bd
00000340: 28d3 59be 9a41 84be a64b b4bd 5bf2 e23e
00000350: 00b7 60bc 70c5 4ebe 7132 3b3d 8423 59bc
00000360: 0fc3 67be a0f8 ca3e ad87 f2bd 2807 303e
00000370: 5dc3 403e c5da 943d 7849 4ebe be33 233e
00000380: f33d 173f 9d7f 8fbe e6d4 e43b 27e9 863f
00000390: 006e 9cbd 0bb8 273e 923a b6be dc04 013e
000003a0: 1b2e 82bc b517 2c3f 149a e4bd 548f c9be
000003b0: 1e4e 46be 8a30 ae3c 8279 eb3d b199 e23e
000003c0: 4610 fcbd 50a7 a23a 804f b73d 8ba3 a0be
000003d0: abac 4d3c 6279 21bf d14b 20bf 17bc 62be
000003e0: 227c 343f af02 bc3d f651 3d3d 5f65 2b3b
000003f0: c37d b2bd ee17 1d3e 1685 ec3e 96f9 a13e

stages.1.0.pwconv1.bias f4 [32]
0.020306712 -0.023529004 -0.013753803 0.010255951 0.028282603 -0.01122409 0.029936746 0.0029407402
-0.0072725588 -0.004389874 -0.021362001 0.018982736 -0.013080447 0.0071023996 -0.018123664 -0.001726628
0.0016215302 0.023100661 0.036128934 -0.0062005585 0.0145797515 -0.015879257 -0.008650529 0.0021508166
0.022877073 0.038475204 -0.011307973 0.006889527 0.0070621204 -0.015043954 0.009326111 -0.015402833
00000000: 435a a63c e6bf c0bc a257 61bc 9408 283c
00000010: ebb0 e73c 3fe5 37bc e83d f53c 6fb9 403b
00000020: a54e eebb efd8 8fbb 5dff aebc af81 9b3c
00000030: 5f4f 56bc 3fbb e83b 1478 94bc 0650 e2ba
00000040: 8689 d43a 993d bd3c effb 133d 0e2e cbbb
00000050: e9df 6e3c 3715 82bc f3ba 0dbc b7f4 0c3b
00000060: b368 bb3c 2d98 1d3d 1445 39bc 8bc1 e13b
00000070: 5c69 e73b eb7a 76bc 8bcc 183c 2a5c 7cbc

stages.1.0.pwconv2.weight f4 [16, 32]
-0.38441193 -0.0018718507 0.13657014 0.038548507 0.1508482 -0.28278768 0.2169235 -0.34404325
-0.10284111 0.083529115 -0.09719373 0.030792514 0.11779381 0.16531168 0.06140518 0.12554899
0.2422254 -0.28694814 -0.6336434 -0.25375992 0.12620825 -0.03052305 0.21840195 -0.31136313
-0.008576059 -0.16662183 0.09196531 0.20807137 -0.42384595 -0.16807978 0.0011577632 0.22072676
0.030774895 -0.025726335 0.00035901947 -0.17414024 -0.5040637 0.22060147 0.014644112 0.31249502
-0.09240555 -0.49879333 0.16772221 0.45849591 -0.063977376 0.032866295 -0.3377345 -0.18633741
-0.26614997 0.22165395 0.15621431 -0.37632528 0.103769064 -0.0034369032 0.074063756 -0.33987185
-0.2645205 -0.07669419 0.36687598 0.15250942 0.021279298 0.114651866 0.22236079 0.033099238
0.32216534 -0.24555641 -0.2069601 0.115039214 0.15197258 -0.2188103 0.16453259 0.11811735
-0.025954233 -0.43260375 0.15062778 -0.4597855 -0.25795817 -0.032333825 0.06290569 0.060837653
0.0013482167 0.046732914 -0.015074182 -0.17291841 0.5764722 -0.275682 -0.30687743 -0.34031537
0.2739828 0.5899601 -0.16151649 0.056051925 0.12971216 -0.009927982 -0.018873371 0.086712345
0.16543749 -0.46720862 -0.06858438 0.16836439 0.16130781 0.05060835 -0.014006315 0.2299695
0.05859817 0.35865104 -0.120239146 -0.21264513 -0.3143555 0.2712859 0.026564565 -0.099776976
-0.1461881 0.08149998 -0.22907528 -0.08939717 -0.11272227 0.110791385 -0.120109685 0.15342303
0.056466866 -0.1947948 -0.29204872 0.3057058 -0.11918139 0.001256415 -0.05918021 0.2957832
0.28590682 0.26928014 0.02428547 -0.17746365 0.06632656 -0.16611572 -0.43712482 0.011197201
-0.07699474 -0.41250458 -0.047118247 -0.117434174 0.41983557 0.07084687 -0.10014617 0.021091113
0.15623689 0.32419258 0.1455208 0.52928394 -0.017619645 0.17304364 0.05788856 0.105823025
0.28380436 0.06756546 -0.36196885 0.025342556 0.0050101653 0.17148384 -0.02192812 -0.036402266
0.12847795 -0.0060658474 -0.06789502 -0.11923157 0.077105805 0.03596158 0.15866798 0.17226295
0.12219015 0.24534965 -0.38812098 0.22285484 -0.17668746 -0.04088632 0.46915764 -0.20965596
0.27804065 0.032189123 -0.116140164 -0.009185437 -0.07074018 0.20954828 0.29591474 0.52639794
-0.051552027 -0.12389309 0.03035913 -0.093914784 -0.1252809 -0.005330987 0.10420657 0.003998925
0.14470261 -0.019655028 0.06330479 -0.005826849 -0.38313568 0.17119484 0.06899576 -0.05330809
0.24335009 -0.17961511 -0.051097002 -0.15307936 0.0687744 0.009716422 -0.02905669 0.13543488
0.017889403 0.022242678 -0.24711995 -0.15559167 0.027254447 -0.07949438 -0.1640339 -0.05726104
-0.0607651 0.26906297 0.23183142 -0.26479658 -0.01711798 -0.34572476 -0.01964138 -0.019728532
0.6153777 -0.10170492 -0.51822186 -0.3202013 0.38946587 0.14765486 0.028102936 -0.07765834
-0.0040849783 0.044689454 0.37408563 0.13464354 -0.29733026 0.00026223794 -0.39277506 -0.02971575
0.15406275 -0.20866714 -0.119455405 0.07020602 -0.14505664 0.24924083 0.23683347 -0.13793953
-0.095400825 -0.10886137 0.056054793 0.024063084 0.0295975 -0.16956331 -0.045416817 0.0739489
00000000: a4d1 c4be e358 f5ba 0bd9 0b3e 0ae5 1d3d
00000010: f377 1a3e 8cc9 90be 3221 5e3e 7026 b0be
00000020: 5c9e d2bd 5011 ab3d 820d c7bd 9540 fc3c
00000030: e23d f13d 7747 293e ff83 7b3d ea8f 003e
00000040: ef09 783e deea 92be 7436 22bf d2ec 81be
00000050: bc3c 013e 7a0b fabc c3a4 5f3e fd6a 9fbe
00000060: 9982 0cbc ea9e 2abe 4f58 bc3d a910 553e
00000070: 5602 d9be 1b1d 2cbe 16c0 973a 3206 623e
00000080: a21b fc3c 09c0 d2bc c73a bc39 d251 32be
00000090: 520a 01bf 5ae5 613e dced 6f3c 59ff 9f3e
000000a0: 1f3f bdbd d761 ffbe 5fbf 2b3e fabf ea3e
000000b0: 9206 83bd cf9e 063d 89eb acbe 3ccf 3ebe
000000c0: cf44 88be 41f9 623e a5f6 1f3e b5ad c0be
000000d0: e084 d43d ab3d 61bb bdae 973d af03 aebe
000000e0: 3b6f 87be d811 9dbd 2bd7 bb3e 6e2b 1c3e
000000f0: ec51 ae3c 99ce ea3d 8cb2 633e 1193 073d
00000100: dbf2 a43e 2473 7bbe 59ed 53be ae99 eb3d
00000110: b39e 1b3e cf0f 60be 3b7b 283e 82e7 f13d
00000120: f99d d4bc 3d7e ddbe 2b3e 1a3e 0169 ebbe
00000130: 1813 84be 7970 04bd b3d4 803d e730 793d
00000140: a5b6 b03a 036b 3f3d b4f9 76bc 8611 31be
00000150: af93 133f 3126 8dbe 0a1f 9dbe d13d aebe
00000160: 7947 8c3e a007 173f 9464 25be b496 653d
00000170: 44d3 043e faa8 22bc 549c 9abc 3e96 b13d
00000180: 7268 293e f835 efbe f875 8cbd b767 2c3e
00000190: e02d 253e b44a 4f3d be7a 65bc 207d 6b3e
000001a0: a204 703d 1ca1 b73e f13f f6bd a5bf 59be
000001b0: 34f3 a0be fce5 8a3e ee9d d93c df57 ccbd
000001c0: 55b2 15be 76e9 a63d b692 6abe dd15 b7bd
000001d0: efda e6bd 98e6 e23d 11fc f5bd ed1a 1d3e
000001e0: cd49 673d 4a78 47be 6987 95be 7885 9c3e
000001f0: 5f15 f4bd 4bae a43a f366 72bd e570 973e
00000200: 6162 923e 16df 893e 52f2 c63c 08b9 35be
00000210: 38d6 873d 3d1a 2abe d3ce dfbe 7774 373c
00000220: 6baf 9dbd cd33 d3be 10ff 40bd 5481 f0bd
00000230: b0f4 d63e 2a18 913d 6f19 cdbd 45c7 ac3c
00000240: 90fc 1f3e 92fc a53e 6803 153e 277f 073f
00000250: 1357 90bc 5a32 313e 8e1c 6d3d beb9 d83d
00000260: ce4e 913e c35f 8a3d fb53 b9be 319b cf3c
00000270: 502c a43b 7699 2f3e 9aa2 b3bc 8b1a 15bd
00000280: b98f 033e 04c4 c6bb 8b0c 8bbd ae2f f4bd
00000290: a6e9 9d3d 734c 133d dc79 223e b365 303e
000002a0: d43e fa3d f03c 7b3e cbb7 c6be 0f34 643e
000002b0: 8fed 34be 6a78 27bd 6e35 f03e 0db0 56be
000002c0: 585b 8e3e bed8 033d e5da edbd 847e 16bc
000002d0: 3ae0 90bd d393 563e 2382 973e 04c2 063f
000002e0: 3828 53bd a9bb fdbd b6b3 f83c 6556 c0bd
000002f0: a349 00be 8faf aebb 416a d53d 6a09 833b
00000300: ec2c 143e 9503 a1bc f1a5 813d 27ef bebb
00000310: 5c2a c4be b34d 2f3e a64d 8d3d 9559 5abd
00000320: c430 793e 06ed 37be 174b 51bd d6c0 1cbe
00000330: 98d9 8c3d a131 1f3c 4c08 eebc 71af 0a3e
00000340: cc8c 923c 4736 b63c 030d 7dbe 6c53 1fbe
00000350: b844 df3c f3cd a2bd 81f8 27be 8d8a 6abd
00000360: d3e4 78bd 9fc2 893e 3765 6d3e 6b93 87be
00000370: 023b 8cbc d602 b1be f6e6 a0bc bb9d a1bc
00000380: 6589 1d3f ab4a d0bd 30aa 04bf 6df1 a3be
00000390: 1268 c73e d632 173e 2138 e63c 560b 9fbd
000003a0: 48db 85bb 4a0c 373d 2788 bf3e ffdf 093e
000003b0: ac3b 98be fb7c 8939 d019 c9be 726e f3bc
000003c0: a0c2 1d3e d7ac 55be 09a5 f4bd 2cc8 8f3d
000003d0: ba89 14be fd38 7f3e 7984 723e 0540 0dbe
000003e0: 8261 c3bd b6f2 debd b699 653d f21f c53c
000003f0: 7576 f23c 01a2 2dbe fc06 3abd 8572 973d

stages.1.0.pwconv2.bias f4 [16]
3.5405597e-07 4.6565942e-06 9.4531536e-08 2.399936e-07 8.481381e-07 4.2761903e-06 -2.116038e-06 4.079671e-07
1.022729e-05 2.0232021e-06 1.8369271e-06 -8.0367516e-07 2.8695406e-06 -3.8913857e-08 -1.2202016e-06 -4.777594e-07
00000000: 1515 be34 d73f 9c36 4301 cb33 78d8 8034
00000010: 9bab 6335 327c 8f36 4201 0eb6 9206 db34
00000020: e095 2b37 59c6 0736 568c f635 23bc 57b5
00000030: 5592 4036 3d22 27b3 cfc5 a3b5 603f 00b5

stages.2.0.gamma f4 [32]
0.042687822 0.034477342 0.038306672 0.00678145 0.03306994 0.021694694 -0.018238187 -0.0041537127
0.014865015 0.014329711 0.0422243 0.044338644 0.043114327 0.02122327 -0.004575793 0.035485152
0.0040912516 -0.0023059603 -0.0008114769 0.048467148 0.048920374 0.033712693 -0.021544872 0.023065234
0.026749676 0.035514906 0.013498217 0.01790332 0.041131556 0.04097204 -0.018017825 0.0016273203
00000000: 6dd9 2e3d 1d38 0d3d 75e7 1c3d ed36 de3b
00000010: 5874 073d 12b9 b13c 4068 95bc de1b 88bb
00000020: 648c 733c 2ac7 6a3c 63f3 2c3d 709c 353d
00000030: a698 303d 6cdc ad3c 89f0 95bb e158 113d
00000040: e80f 863b 981f 17bb 4bb9 54ba 7d85 463d
00000050: bb60 483d 5216 0a3d df7e b0bc 4df3 bc3c
00000060: 2322 db3c 1478 113d a027 5d3c fca9 923c
00000070: 9079 283d 4cd2 273d 1e9a 93bc cf4b d53a

stages.2.0.dwconv.bias f4 [32]
2.5727926e-05 2.837147e-06 5.448895e-06 6.901921e-06 1.7206072e-06 1.2335432e-06 5.3758613e-06 1.03485334e-07
6.4408086e-06 -8.9782003e-07 2.6833932e-06 9.194314e-06 5.5382507e-06 8.9932666e-07 6.6783346e-06 5.8325145e-06
3.506487e-06 -4.1756505e-07 5.6044273e-06 2.2319925e-06 3.9381766e-06 1.4071692e-06 8.534777e-06 7.488517e-06
7.570352e-06 2.4026129e-05 6.122026e-06 7.291319e-06 4.806604e-06 1.0909644e-05 3.44978e-06 4.1601565e-06
00000000: 4dd2 d737 d065 3e36 a7d5 b636 0d97 e736
00000010: 9def e635 3990 a535 4c62 b436 aa3b de33
00000020: 201e d836 b901 71b5 5814 3436 4741 1a37
00000030: 36d5 b936 4269 7135 7516 e036 ebb4 c336
00000040: fd50 6b36 b42d e0b4 aa0d bc36 57c9 1536
00000050: ae24 8436 f7dd bc35 9730 0f37 df45 fb36
00000060: d404 fe36 b88b c937 ce6b cd36 f4a7 f436
00000070: 6a48 a136 9008 3737 c582 6736 7997 8b36

stages.2.0.norm.weight f4 [32]
0.95625234 0.9549405 0.9557176 0.95587534 0.95575297 0.9556182 0.95544237 0.9556475
0.95577514 0.95558333 0.9558622 0.95595896 0.9558757 0.9560458 0.9565172 0.9549356
0.95556116 0.9563416 0.95492053 0.95604223 0.9556294 0.95585674 0.9554384 0.9557974
0.95553875 0.95620304 0.95579255 0.9552804 0.9558204 0.95560116 0.9557313 0.95518
00000000: f4cc 743f fb76 743f e9a9 743f 3fb4 743f
00000010: 3aac 743f 65a3 743f df97 743f 51a5 743f
00000020: aead 743f 1ca1 743f 63b3 743f bab9 743f
00000030: 45b4 743f 6bbf 743f 50de 743f a976 743f
00000040: a89f 743f ced2 743f ac75 743f 2fbf 743f
00000050: 21a4 743f 07b3 743f 9c97 743f 23af 743f
00000060: 309e 743f b9c9 743f d2ae 743f 428d 743f
00000070: a5b0 743f 47a2 743f ceaa 743f ad86 743f

stages.2.0.norm.bias f4 [32]
0.016076678 -0.040464316 0.032350555 0.033650387 0.015357586 -0.029840395 -0.013873535 0.014011742
0.013042902 -0.015097839 -0.012403994 0.025848733 0.035553187 0.033586554 -0.005202871 -0.02947254
0.041451063 0.0402179 0.042453054 0.0037781445 -0.036289666 0.0063565215 -0.0185063 -0.026890922
-0.024338594 -0.035103366 0.03611955 -0.024000766 -0.025498455 0.010214454 0.028277976 -0.0003500513
00000000: 3db3 833c e9bd 25bd 0482 043d fdd4 093d
00000010: 629e 7b3c d873 f4bc d34d 63bc 8191 653c
00000020: e5b1 553c ed5c 77bc 1f3a 4bbc b9c0 d33c
00000030: 38a0 113d 0e92 093d d87c aabb 6570 f1bc
00000040: 97c8 293d 86bb 243d 41e3 2d3d bf9a 773b
00000050: 79a4 14bd 5e4a d03b 869a 97bc 5a4a dcbc
00000060: bb61 c7bc 8cc8 0fbd 18f2 133d 419d c4bc
00000070: 23e2 d0bc 865a 273c 37a7 e73c 1787 b7b9

stages.2.0.norm.running_mean f4 [32]
-0.04305845 -0.066956714 0.055178665 -0.022071974 0.015035634 0.004364427 0.005925129 0.075509295
0.004358476 -0.005202858 -0.011736998 0.03354464 0.006626607 0.033689763 -0.02917622 -0.029711481
0.001953572 0.08729937 0.06698213 -0.018417366 -0.001288504 0.06959552 -0.0016845047 0.011305519
-0.037414964 -0.0043411227 0.012411269 -0.017962232 0.0013128613 -0.016022762 0.0074341167 -0.014990666
00000000: 0f5e 30bd 9a20 89bd 0603 623d 49d0 b4bc
00000010: 0558 763c 7803 8f3b 9627 c23b 9ea4 9a3d
00000020: 8cd1 8e3b bc7c aabb 8a4c 40bc 1b66 093d
00000030: 0224 d93b 47fe 093d f802 efbc 7e65 f3bc
00000040: 8007 003b 03ca b23d ed2d 893d 04e0 96bc
00000050: 05e3 a8ba 1988 8e3d 99ca dcba c93a 393c
00000060: 6f40 19bd fa3f 8ebb a358 4b3c 8825 93bc
00000070: 5114 ac3a 2b42 83bc e499 f33b 699b 75bc

stages.2.0.norm.running_var f4 [32]
0.05526055 1.3225546 0.5386537 0.5553772 0.049986515 1.6188806 0.31562456 2.4204772
0.11955908 0.2741186 0.99271846 0.35675827 1.8679794 2.5882168 2.0861263 0.5578572
0.300843 0.37341234 0.2998173 3.0772002 1.0240912 0.7048067 0.369354 0.42354175
0.6613656 0.02822141 1.4069219 0.27763796 0.21002859 0.13136421 1.4442415 0.5645621
00000000: e358 623d 7849 a93f 35e5 093f 332d 0e3f
00000010: a9be 4c3d 7b37 cf3f 8b99 a13e 19e9 1a40
00000020: 64db f43d 4659 8c3e cc22 7e3f 05a9 b63e
00000030: f319 ef3f 58a5 2540 1883 0540 bbcf 0e3f
00000040: 1808 9a3e e72f bf3e a781 993e d9f0 4440
00000050: 6c15 833f 366e 343f f81b bd3e 77da d83e
00000060: 424f 293f 9630 e73c 0416 b43f 9026 8e3e
00000070: bc11 573e 5784 063e e8dc b83f 2487 103f

stages.2.0.pwconv1.weight f4 [64, 32]
0.323334 0.0551036 0.40655985 -0.12242419 0.17160667 -0.40540543 0.21351503 0.015789604
0.071339265 -0.39361647 0.32326037 -0.0028310826 0.027072256 -0.1997314 -0.35189334 0.0057551926
0.0006378414 -0.041515335 0.14376453 -0.097056456 -0.064123 0.13153811 0.03073191 -0.019158347
-0.21944037 -0.44025606 0.036908023 -0.06986728 -0.09229034 0.13933419 0.16203167 -0.26236275
-0.20043167 -0.046392813 -0.15245317 0.1725102 -0.058783535 0.15990427 0.06407639 0.108589746
-0.37327147 0.33937937 0.21317585 0.057535492 -0.0007006864 0.21481438 0.30302858 0.17217834
0.4130667 0.2450106 -0.023066416 0.25266144 -0.34625277 0.10512971 0.08499491 0.00018356512
-0.20654699 -0.61675155 0.006538686 0.12582533 0.21074152 0.09366058 0.06513926 -0.00060327764
0.070010014 0.030079056 -0.095363155 0.025412655 -0.10272894 -0.16369267 -0.054220226 0.34299827
-0.017836636 0.28649315 -0.1437917 -0.36547264 -0.017994033 -0.20223334 -0.15925051 0.09728208
0.19301453 -0.22545393 0.33768517 0.38733253 -0.00327053 -0.37162957 0.02113161 0.00034832433
-0.068565875 0.280223 -0.112362295 0.24892527 -0.009948389 0.27075025 -0.03308887 -0.27906558
-0.1617632 -0.21126314 0.19737536 0.017186785 -0.054081902 0.21281801 0.11844765 -0.023811508
0.18627557 0.13871357 0.0032739888 -0.1680434 -0.1447502 -0.1011275 -0.23671617 0.066153996
-0.00089771225 -0.21923822 -0.003494609 -0.28315336 -0.15390885 -0.4772543 0.007104072 0.055646654
-0.13069782 -0.0054918104 -0.045118295 0.11761988 0.251483 0.16396874 -0.1542594 0.2897152
0.24858177 0.018896816 0.17833205 -0.006680617 -0.04107552 0.0027173692 -0.41221562 -0.10237342
-0.133299 0.011726353 0.05818205 -0.33175275 -0.27911958 -0.4532996 0.12228605 0.019672576
-0.39874825 -0.07138233 0.49193975 0.15224892 -0.053958748 0.31829813 0.17453282 0.28095612
-0.18796533 -0.0071425415 0.014105289 0.08785593 -0.015137711 -0.3069453 -0.28750473 -0.12013322
-0.3025892 0.33572093 -0.06818131 0.13104586 -0.105433054 -0.08015815 -0.28454882 -0.05143531
-0.19201851 -0.009552209 -0.07169216 0.11645717 0.15430541 -0.06722971 -0.00607789 0.3375279
-0.0066237664 -0.026172556 0.022541918 -0.05723511 0.108509324 -0.21336046 0.012541114 -0.38941696
-0.08283638 0.018289128 0.45016968 0.046268646 0.004140898 -0.19016023 0.004788453 0.16154487
-0.13055262 -0.048679367 0.26904503 -0.28810593 0.643779 0.2577847 0.26285693 -0.4204336
0.010958177 -0.17622533 -0.0026381188 0.038953792 0.20024656 -0.5402619 0.35495117 0.28131288
-0.0004269793 -0.30244935 -0.15379007 -0.17295012 0.0132674165 -0.21121287 -0.3323225 -0.13205698
0.049143028 0.0023216305 0.014458638 -0.003829426 0.07240796 -0.23160017 0.13043918 0.012317549
0.011570886 -0.013183779 0.114639156 0.24803063 0.08929274 0.2532365 -0.27686688 0.0059977523
0.0044247857 0.2546094 -0.13396889 0.007241917 0.2949531 -0.14808056 0.19991915 0.04240852
0.073164016 -0.07069431 0.30484217 -0.03399083 -0.040317684 -0.013044695 0.24768561 -0.20206174
0.028849905 -0.34924576 -0.19985358 -0.020634437 -0.21831687 -0.14958964 0.28682724 0.39705232
00000000: 098c a53e 50b4 613d 9d28 d03e 89b9 fabd
00000010: a9b9 2f3e 4d91 cfbe afa3 5a3e 3359 813c
00000020: 521a 923d 1988 c9be 6282 a53e af89 39bb
00000030: a3c6 dd3c 6386 4cbe 5d2b b4be 0e96 bc3b
00000040: d034 273a fc0b 2abd 0237 133e 89c5 c6bd
00000050: eb52 83bd edb1 063e 7dc1 fb3c f7f1 9cbc
00000060: fab4 60be 3e69 e1be de2c 173d 9416 8fbd
00000070: b802 bdbd 9fad 0e3e a1eb 253e 6954 86be
00000080: f63d 4dbe 6406 3ebd af1c 1cbe 84a6 303e
00000090: 01c7 70bd f2bd 233e 7b3a 833d 4d64 de3d
000000a0: 701d bfbe 22c3 ad3e c54a 5a3e 56aa 6b3d
000000b0: 45ae 37ba 4df8 5b3e 9026 9b3e 854f 303e
000000c0: 7a7d d33e 0fe4 7a3e c8f5 bcbc d75c 813e
000000d0: 0b48 b1be 3f4e d73d d011 ae3d 637b 4039
000000e0: 0e81 53be 6ee3 1dbf 7942 d63b 5bd8 003e
000000f0: a0cc 573e 1ed1 bf3d bb67 853d 4725 1eba
00000100: 6961 8f3d 5a68 f63c c24d c3bd 332e d03c
00000110: 8d63 d2bd 0d9f 27be 0716 5ebd 789d af3e
00000120: 231e 92bc 3baf 923e 223e 13be 3b1f bbbe
00000130: 3968 93bc 4216 4fbe 9112 23be d43b c73d
00000140: 9aa5 453e 65dd 66be 12e5 ac3e 7350 c63e
00000150: 6356 56bb 3b46 bebe 331c ad3c 4d9f b639
00000160: 446c 8cbd 6479 8f3e 341e e6bd 44e6 7e3e
00000170: 91fe 22bc c79f 8a3e 3288 07bd afe1 8ebe
00000180: 41a5 25be 5d55 58be c41c 4a3e 4dcb 8c3c
00000190: fc84 5dbd f7ec 593e ae94 f23d 5a10 c3bc
000001a0: 06bf 3e3e ee0a 0e3e 6b90 563b 9213 2cbe
000001b0: 6539 14be ef1b cfbd b965 72be bf7b 873d
000001c0: 7354 6bba fc7f 60be cf05 65bb 7af9 90be
000001d0: 489a 1dbe ad5a f4be 46c9 e83b bfed 633d
000001e0: a6d5 05be a5f4 b3bb f6cd 38bd b1e2 f03d
000001f0: 61c2 803e 6ce7 273e 2df6 1dbe 8d55 943e
00000200: 388c 7e3e 7fcd 9a3c ad9c 363e 14e9 dabb
00000210: ce3e 28bd e415 323b ed0d d3be 28a9 d1bd
00000220: 887f 08be e41f 403c 4d50 6e3d 7fdb a9be
00000230: c3e8 8ebe e316 e8be 1c71 fa3d 6228 a13c
00000240: bb28 ccbe e630 92bd 87df fb3e 24e7 1b3e
00000250: d903 5dbd f9f7 a23e bbb8 323e 7bd9 8f3e
00000260: fc79 40be fb0b eabb df19 673c cfed b33d
00000270: 2904 78bc ef27 9dbe d233 93be 6808 f6bd
00000280: f9ec 9abe 9de3 ab3e a5a2 8bbd e330 063e
00000290: 49ed d7bd f529 a4bd 62b0 91be d5ad 52bd
000002a0: 80a0 44be de80 1cbc 57d3 92bd 1981 ee3d
000002b0: 3d02 1e3e bbaf 89bd 0929 c7bb 75d0 ac3e
000002c0: 2e0c d9bb d467 d6bc d4a9 b83c 5d6f 6abd
000002d0: 233a de3d 2a7b 5abe 3f79 4d3c a961 c7be
000002e0: 1fa6 a9bd 15d3 953c a47c e63e 3184 3d3d
000002f0: 5fb0 873b 5db9 42be 75e8 9c3b 056c 253e
00000300: 96af 05be 0464 47bd 45c0 893e 9f82 93be
00000310: b3ce 243f 5bfc 833e 2f95 863e 1343 d7be
00000320: ed89 333c 6a74 34be 4ae4 2cbb 038e 1f3d
00000330: 6f0d 4d3e 9b4e 0abf 29bc b53e 3e08 903e
00000340: 31dc dfb9 a4da 9abe 257b 1dbe d619 31be
00000350: 945f 593c 3048 58be 2d26 aabe f239 07be
00000360: 334a 493d 7f26 183b ece3 6c3c 1bf7 7abb
00000370: a04a 943d 9828 6dbe d991 053e 8ccf 493c
00000380: d093 3d3c c700 58bc efc7 ea3d befb 7d3e
00000390: 1ddf b63d 37a8 813e 7fc1 8dbe cb88 c43b
000003a0: cbfd 903b 2a5c 823e 242f 09be 9a4d ed3b
000003b0: 1804 973e 6ea2 17be 9bb7 4c3e 8eb4 2d3d
000003c0: 04d7 953d 2ec8 90bd 4614 9c3e f839 0bbd
000003d0: 2824 25bd 6bb9 55bc 4ca1 7d3e 46e9 4ebe
000003e0: a356 ec3c 57d0 b2be 6ba6 4cbe 8d09 a9bc
000003f0: 758e 5fbe 072e 19be 05db 923e 714a cb3e
