saved_models/polygen_myconvnext_2022_01_19_18_37_31.pt (torch, 132644 bytes, 125 tensors)

connection_layers.0.weight f4 [8, 1]
000000 6d 8d a7 3f 2f 84 7c 3e d9 c9 95 bf a3 92 dc 3c
       1.3090035 0.24659799 -1.1702224 0.02692539
000010 9c f7 6b be e7 03 23 c0 c3 2c b7 3e 8d b4 e7 3f
       -0.23043674 -2.5471132 0.35776338 1.8101975

connection_layers.0.bias f4 [8]
000000 32 0e 16 37 5f a6 79 38 f0 9f 8a 37 6f 45 01 3a
       8.944002e-06 5.952117e-05 1.6525359e-05 0.0004931306
000010 ce 8a 7d 38 bc 13 04 37 5b a9 29 38 08 0c db 36
       6.0449172e-05 7.872408e-06 4.0450464e-05 6.528109e-06

connection_layers.1.weight f4 [16, 8]
000000 6a 7e 00 bd 8e 81 8d bd 0b 3c 24 3e 4e d3 d0 3e
       -0.031370558 -0.06909476 0.1603853 0.40786213
000010 45 f4 83 3c 99 95 37 3e 53 fc c0 3e 36 6e f2 3e
       0.016107688 0.1792816 0.37692508 0.4734971
000020 5f 8f 0d 3f 53 35 4a be b9 31 a8 be 36 cb 10 be
       0.5529689 -0.19746904 -0.32850435 -0.14140019
000030 a8 78 fb 3e 0a e7 e3 3e 16 65 a0 bd 92 71 d8 3d
       0.4911549 0.44512206 -0.078317806 0.10568537
000040 8a 4f c9 3d fd 6b 21 bb ee 33 73 3a 20 d6 40 3d
       0.09829624 -0.0024631016 0.00092774525 0.047079206
000050 18 af d4 3a d8 76 37 bf 29 46 8b 3e e2 01 e3 3b
       0.0016226498 -0.71665716 0.27201965 0.0069277147
000060 96 a7 69 3d 00 49 2f be 75 61 24 3a 82 14 9b be
       0.057044588 -0.17117691 0.0006270626 -0.30289084
000070 b1 fb cc be 59 71 46 bc d0 7a 85 3e 23 83 d8 3e
       -0.40035775 -0.012111985 0.2607026 0.4228755
000080 10 f5 cb be dd 6e 26 bf b0 b5 8e 3b f4 9d 34 bf
       -0.39835405 -0.65012914 0.004355155 -0.7055352
000090 e5 d4 09 bd 98 d6 d8 bd d8 52 a8 3d ef 48 90 be
       -0.033650298 -0.105878055 0.08218926 -0.28180644
0000a0 de f6 9f bc 0f fb 26 bf 8d 45 0c 3e 01 7c a2 3e
       -0.019526895 -0.65226835 0.13698407 0.31735232
0000b0 67 b5 80 bb a3 b3 43 3f 0f 44 a4 3e 07 15 49 3f
       -0.003927875 0.7644598 0.32083175 0.7854771
0000c0 f7 9e f3 bc ac 74 32 3e e4 c5 21 3e 21 26 93 be
       -0.029738886 0.1742732 0.15798146 -0.28740028
0000d0 99 0c 19 3b da 46 18 3e 28 35 57 3e e3 86 5d 3f
       0.0023353456 0.14870778 0.21016371 0.86533946
0000e0 0c dc 24 3d 20 e2 8b 3e 4b b8 12 be 58 fa f3 3e
       0.040248916 0.27320957 -0.14328115 0.47651935
0000f0 fd ca fe 3d 43 f9 6d bd 0b 44 95 be 17 e6 5e bd
       0.12441061 -0.058099043 -0.29153475 -0.05441865
000100 bb 5f 8c 3b d6 9f 26 3e 89 6c 07 bf 0e 05 65 be
       0.004283873 0.1627191 -0.52899987 -0.2236521
000110 c9 8a 7b 3c 70 4a e7 be 06 1f af 3c 8a bb 19 3d
       0.015352913 -0.4517398 0.021377098 0.037532367
000120 89 66 cf bd 2d 32 a5 bd 3b 08 ab be 08 26 01 3d
       -0.10126979 -0.08066211 -0.33404717 0.03153041
000130 55 27 51 bd 08 77 cb 3e 49 a0 d6 3e b1 2d d3 bc
       -0.0510629 0.3973925 0.41919163 -0.025778623
000140 2a 3d 13 3d 1d 6e 77 bf c2 ea 8d bb 0f a5 0c 3c
       0.035947002 -0.96652395 -0.004330964 0.008584275
000150 33 f7 04 3f 77 17 11 3f 19 bf f7 3b 2d 39 4e bb
       0.51939696 0.5667643 0.0075606224 -0.0031467185
000160 1e 32 cf 3e 17 92 8d bb c4 71 a7 3e 07 50 89 3e
       0.40467924 -0.004320394 0.32703984 0.2681887
000170 99 22 ff 3e 5e 41 26 be d1 ab 70 3e b8 10 a6 3e
       0.49831083 -0.16235873 0.23503043 0.3243463
000180 54 b2 ff 3c f3 3b e9 be 19 57 b8 be 4b 9c 8c bc
       0.031212963 -0.4555355 -0.3600395 -0.01716437
000190 17 f6 5d 3f bc cd 0b 3f 23 25 11 bf e9 f3 6a bb
       0.8670363 0.546108 -0.5669729 -0.0035850948
0001a0 9b e9 8d 3c 7f 05 ac bd 1d aa ab bb 2a 7b 32 be
       0.017323306 -0.08399486 -0.005238785 -0.17429796
0001b0 bf 6f 7e bb 8d 17 a8 3c a4 7b cf 3e 9e ad 70 3e
       -0.003882393 0.020519042 0.40524018 0.2350373
0001c0 40 62 a0 be ae a3 23 be 85 e5 a1 be 10 2d b6 bc
       -0.3132496 -0.15980408 -0.31620422 -0.022238284
0001d0 64 fd 86 3d a4 cd 5f 3b 06 72 66 3e 41 b1 ae bd
       0.06591299 0.003414967 0.22504434 -0.08529902
0001e0 97 ca 45 bd 74 94 b9 3d ea 3a a0 3e 5f 74 0f bd
       -0.048288908 0.09061518 0.31294948 -0.03502309
0001f0 35 a5 0e bf 80 6f 15 3e 77 a2 58 3d 5c 00 01 bf
       -0.55720836 0.14593315 0.052889314 -0.50391173

connection_layers.1.bias f4 [16]
000000 bb ba b2 bc d9 71 65 bb 43 c0 16 b8 88 c4 83 bc
       -0.021817556 -0.0035010485 -3.5941845e-05 -0.016084924
000010 b0 21 74 bb 69 50 84 bc 12 68 df bb 4f 81 a5 3b
       -0.0037251525 -0.016151624 -0.006817826 0.005050815
000020 a2 d3 85 3c 33 9a 06 3d d9 af 3e 3a 49 a7 c1 bb
       0.016336266 0.0328619 0.0007274128 -0.0059098345
000030 f8 99 3f bb 01 ba 0c bc 95 d9 be bd 7f 9c 9e ba
       -0.002923606 -0.008589269 -0.09318844 -0.0012101083

connection_layers.2.weight f4 [32, 16]
000000 40 31 2d 3e 73 8e 88 bd 29 dc 3a 3a 29 e3 41 3d
       0.16913319 -0.06667795 0.00071281433 0.047335777
000010 83 fd 05 bc 91 e3 c9 3d 56 05 1c 3d a3 e2 b8 3e
       -0.008178118 0.09857858 0.038091026 0.3611041
000020 0d fa 49 be a8 eb d2 be 36 9e ac bb c1 4b d6 bb
       -0.19724293 -0.41195416 -0.0052678837 -0.0065397923
000030 47 1a 72 bc 9e 7d 95 be d7 d8 fa b9 93 a5 80 bd
       -0.014776773 -0.291974 -0.00047845274 -0.06281581
000040 73 c4 ed 3a 9c fa 26 bd 5f ac a4 be 35 92 36 3e
       0.0018140211 -0.040766343 -0.3216276 0.17829211
000050 45 66 dc bd a8 00 8b 3e 47 17 66 be cd 91 c4 38
       -0.10761694 0.27148938 -0.22469817 9.373166e-05
000060 2c fa 8e b9 7e fd e6 bd b6 eb 8e bd c0 bd 40 bd
       -0.00027270743 -0.112788185 -0.06978552 -0.04705596
000070 4a 76 f5 3e 9a 62 6f 3e 1e 8e bc bd 12 00 00 3d
       0.4794181 0.23377457 -0.09206794 0.031250067
000080 9d 31 07 3f 07 8e e9 b8 ac 2c 0d 3a 1f e3 ef 3e
       0.5281008 -0.000111367604 0.000538538 0.46852967
000090 39 2a ea bd c2 98 7e 3d 8f 0e 43 bc 4d 01 3f 39
       -0.114338346 0.0621574 -0.0119053265 0.00018215664
0000a0 2b bb 98 b6 de b7 a3 bd 56 fd 3d be 51 a8 0f 3d
       -4.551742e-06 -0.07994054 -0.18553671 0.03507263
0000b0 f1 bc b3 be e0 aa ac 3a d3 61 b7 3e 5b 47 3e be
       -0.35105088 0.0013173483 0.3581682 -0.18581907
0000c0 0f 30 85 38 36 b1 d9 be 2d 2d 0b be 11 4d 46 bc
       6.350886e-05 -0.42518014 -0.13591452 -0.012103335
0000d0 05 85 64 be fb 99 b3 3e 08 3f 55 3e c9 af 5d b9
       -0.22316368 0.35078415 0.20824826 -0.00021141687
0000e0 74 0d 32 bf 39 1b 02 3e 6c 9a 5e 3e 62 7f b1 bd
       -0.6955178 0.12705697 0.21738595 -0.086668745
0000f0 e2 ee a0 ba 18 99 fe bd 17 63 c2 3e cb 7c 9c 3d
       -0.0012278224 -0.12431544 0.37966225 0.0764099
000100 17 a2 03 ba 5e 63 30 ba 1e 77 85 3e f5 83 9e bd
       -0.00050214067 -0.0006728674 0.26067442 -0.077400126
000110 65 6c 9e b8 75 a2 d8 3e 05 30 4c 3e 64 57 8e b9
       -7.554217e-05 0.42311445 0.19940193 -0.00027149462
000120 36 0a 10 b9 5f f5 22 3d a5 a5 31 be 6e d9 94 ba
       -0.00013736714 0.039784785 -0.17348345 -0.0011356303
000130 02 86 c4 3c 46 60 a3 be 59 95 6f bc ee f2 95 3d
       0.023989681 -0.31909388 -0.01462301 0.07321726
000140 eb 56 79 3a e6 8d 81 3e 0f b1 26 3e 91 4c d5 be
       0.0009511548 0.25303572 0.1627848 -0.41659978
000150 5a 22 30 3a 41 ef eb 3d 38 29 1f bb 6c b6 85 3d
       0.0006718986 0.115202434 -0.0024286043 0.06528935
000160 82 64 a0 be b1 9b ed 3a ac 32 ad 3b 54 da 89 3a
       -0.3132668 0.0018128065 0.0052855816 0.0010517337
000170 3e 57 ea bc f3 ae 05 3d ac 1d c8 3b 30 91 d3 3d
       -0.028606053 0.032637548 0.006107053 0.10330427
000180 20 5d e6 3e 1f 8e 5d 39 70 1b c6 39 e6 dc 2f 3f
       0.44992924 0.00021129147 0.00037785945 0.6869644
000190 c6 58 b9 3d 18 53 92 bb 5d bf 7b 3e 56 de d3 3e
       0.09050135 -0.004465472 0.24584718 0.41380566
0001a0 c7 ed 58 3e b0 1b c0 3a 57 a5 30 b9 28 6c 0e ba
       0.21184455 0.0014656689 -0.00016846262 -0.00054329867
0001b0 5c 1a 0b be 78 42 75 3d 2e 43 93 3e 48 98 15 be
       -0.13584274 0.059877843 0.28762192 -0.14608872
0001c0 d8 f8 e2 bd 4c 49 d1 be 12 20 fe b9 67 fc fc b9
       -0.110826194 -0.40876234 -0.0004847055 -0.0004825324
0001d0 a9 38 13 3b cc 3d cd 3d 65 8a d4 ba 22 7a 72 3d
       0.0022464192 0.100215524 -0.0016215561 0.059198506
0001e0 84 fa 52 3e 5a 0d 5a be 9c 2f a8 3c 1f 0b 81 3f
       0.20603377 -0.21294156 0.020530514 1.0081519
0001f0 c6 c1 42 be 76 75 9e b8 b1 8b c6 be a0 f6 07 3e
       -0.19019231 -7.555906e-05 -0.3877845 0.13277674
000200 3a d2 0d 3b de 9c a4 be e8 19 38 3f 5b fa 2d ba
       0.0021640197 -0.3215093 0.7191453 -0.0006636732
000210 9c e4 ec 3c 10 85 3f bc 5d 21 19 bd 30 0c 8a 3d
       0.028917603 -0.011689439 -0.037385333 0.06740606
000220 9d a0 11 bd bd 3c 18 3f 2d 0c 2a 3c 20 25 c1 3e
       -0.035553563 0.5946768 0.0103788795 0.37723637
000230 1e c1 3b be 43 7d e7 bc a0 43 77 bb 00 81 af 3d
       -0.18335387 -0.028257972 -0.0037729517 0.08569527
000240 76 9a f2 be 79 d6 f0 3d ad 20 d3 be 31 5f 17 be
       -0.4738347 0.117596574 -0.41235867 -0.14782406
000250 84 08 85 3b 60 3c 0b 3e ac d8 b1 bb d6 11 84 b9
       0.004059853 0.1359725 -0.0054274406 -0.0002519029
000260 31 a4 6b ba 7d 43 f5 bd c5 d6 ab 3e 15 cf e8 bd
       -0.0008989005 -0.11975763 0.33562294 -0.11367623
000270 ed 22 3e 3e c5 06 26 3d 73 ba 21 3e 36 d9 1e 3d
       0.1856801 0.0405338 0.15793781 0.038781367
000280 0e 9b 14 be 0d 51 d4 3e 5c f5 c0 3e 98 f9 9e b8
       -0.14512274 0.41468087 0.37687194 -7.5805176e-05
000290 c6 5d 37 3e 77 99 b2 3e f1 ff 8b 3e 31 1d b6 3c
       0.17906865 0.3488271 0.27343705 0.022230716
0002a0 f5 0f 9a 37 52 62 3a bd 31 78 7a bd 81 2a d1 3e
       1.8365661e-05 -0.04550392 -0.06114978 0.4085274
0002b0 39 cf f0 bd 54 27 0c 3e 5f 58 cb be 85 08 91 3e
       -0.117582746 0.13686877 -0.3971586 0.28326812
0002c0 02 8d b7 bd 96 66 85 be f8 bf bc 3d bc d8 7d be
       -0.08962442 -0.2605483 0.09216303 -0.24789709
0002d0 ba 69 b5 3d cf 7b 35 3a 61 0f 15 3f 74 50 14 b9
       0.08858056 0.0006923051 0.5822659 -0.00014144351
0002e0 c5 13 43 be ab 5b 51 be b6 90 d5 3d ea 44 3b 3f
       -0.1905051 -0.20445125 0.10427992 0.7315203
0002f0 0b e4 34 ba 3c 8c be bc 17 bd 34 b9 a4 4b 2f be
       -0.0006900436 -0.023260228 -0.00017236579 -0.17118698
000300 df 9a 08 3d 1c f3 e7 be b5 28 d0 3e 14 8d e5 be
       0.03335082 -0.45302665 0.40656057 -0.44834197
000310 ce 2d 98 bb ee a5 9a 3b 1d 8c 7d be fb bf 08 3d
       -0.004644132 0.0047194874 -0.2476048 0.03338621
000320 f6 b7 b2 be e9 7e ef bb db a5 c3 bb f0 37 ad bc
       -0.34905976 -0.00730883 -0.0059706992 -0.021144837
000330 29 f0 0d bf 9c 21 9d ba cd 86 7a 39 e5 3f ad bd
       -0.5544458 -0.0011988166 0.00023892075 -0.084594525
000340 3a d2 86 bc c6 dd b8 bd d1 55 22 3e da 4e 34 ba
       -0.016457666 -0.09026675 0.15853049 -0.0006878205
000350 c5 53 ed bd eb ab 02 3f 98 15 63 3e 62 77 d4 3e
       -0.115882434 0.51043576 0.22176206 0.41497332
000360 85 7f d4 b9 92 95 a6 3c 28 6a 90 ba 97 6a 36 bb
       -0.000405308 0.020334993 -0.0011017965 -0.0027834529
000370 fc 91 fb 3d 17 20 a7 ba 6a 7d 66 bd 77 ef 18 bd
       0.12283704 -0.0012750652 -0.056271948 -0.037337746
000380 ca 6d 40 be 8e b4 8a 3a e7 e9 f3 bd cf 00 49 ba
       -0.18791881 0.0010582374 -0.11909848 -0.0007667662
000390 11 26 19 3d 8f 94 d8 be 24 be 2c bf e2 2f 7c be
       0.03738982 -0.4230084 -0.6747763 -0.24627641
0003a0 52 06 51 3e ec b6 80 bf 25 4d d2 3d 8e 6d a2 39
       0.20412567 -1.0055823 0.102686204 0.00030980672
0003b0 6c 34 bc 3d 23 4f d9 3e c4 20 6e 3e 73 e1 71 3d
       0.09189686 0.4244319 0.23254687 0.059052896
0003c0 b5 f9 0b bc 9a b5 2b 3f e6 37 23 be 42 e3 fd bc
       -0.0085434215 0.67073977 -0.15939292 -0.030992154
0003d0 af 58 9d 3e 85 4e ba bd bc a6 95 39 5d 65 be 3e
       0.30731723 -0.09097008 0.0002854372 0.3718671
0003e0 9b 1d 53 38 fe 7b 83 3e db c8 6e bc 98 0d 42 be
       5.0333892e-05 0.25680536 -0.014574255 -0.18950498
0003f0 ea 56 61 38 4c 35 4c be 69 37 d8 3e 55 a3 e2 be
       5.3725125e-05 -0.19942206 0.42229775 -0.44265237

connection_layers.2.bias f4 [32]
000000 ff d8 f6 bc 25 74 d0 3b c8 6e b0 3b 67 95 00 3c
       -0.030132769 0.0063615018 0.0053843 0.00784812
000010 97 78 3c 3c af 8e 25 3c ab 5b 1d bc ad ec 94 3b
       0.01150336 0.010104819 -0.009604375 0.0045448155
000020 f0 7c e1 bb 12 ef 2c bc 33 90 3d bb ee 0e 93 3a
       -0.006881349 -0.010555046 -0.002892506 0.0011219659
000030 6c 4e d4 3b 43 dd 8e bb a7 a4 d3 ba cd b3 58 bb
       0.006479075 -0.0043598725 -0.0016147093 -0.0033066154
000040 d5 d1 c2 bb af ac f8 bb 54 16 a6 3c dd 7d 23 bb
       -0.005945424 -0.007588945 0.020274319 -0.0024946847
000050 89 67 b2 3a 4d 28 d5 3a 69 2a 9c bc 5c 89 98 ba
       0.0013611178 0.0016262621 -0.019063191 -0.0011637616
000060 08 98 a5 39 51 b8 77 3a 78 01 0d 3c 80 56 9c 3c
       0.00031584525 0.00094497675 0.008606307 0.019084215
000070 53 a7 1d bc a2 82 3d 3c e9 67 0b 3b a6 7c 1e 3b
       -0.009622413 0.01156679 0.0021271652 0.0024183183

norm_layers.0.weight f4 [8]
000000 6e 52 4e 3f 40 55 4e 3f 49 53 4e 3f 0b 55 4e 3f
       0.8059453 0.8059883 0.80595833 0.80598515
000010 8f 3f 4e 3f 1a 4f 4e 3f 29 3d 4e 3f 3f 4c 4e 3f
       0.8056573 0.8058945 0.80562073 0.8058509

norm_layers.0.bias f4 [8]
000000 93 c2 3e 3d 60 c5 a6 bc af 6c 26 3d 02 33 92 3c
       0.04657228 -0.020357788 0.040630993 0.017846588
000010 06 a6 ce 3d 55 fe 71 3d ce e0 dd bd e0 f3 94 3d
       0.1009026 0.05908044 -0.10833894 0.07273078

norm_layers.0.running_mean f4 [8]
000000 0e 4f ac 3d 3a 54 82 3c 1e fe 99 bd 7c b9 11 3b
       0.08413516 0.015909303 -0.07519172 0.0022235801
000010 da aa 71 bc 27 9e 27 be 8b ae bc 3c 33 45 ee 3d
       -0.014750207 -0.16368924 0.023032447 0.116342925

norm_layers.0.running_var f4 [8]
000000 9c 09 d3 3d 51 ac 6f 3b 47 a9 a8 3d ac e8 36 38
       0.10304567 0.0036571214 0.08235412 4.3608874e-05
000010 ca 49 51 3b 18 c3 c7 3e f6 3a fc 3b 2d ca 49 3e
       0.003193485 0.39016032 0.0076974584 0.1970603

norm_layers.1.weight f4 [8]
000000 72 42 53 3f 2b 7d 51 3f 2f db 4e 3f 43 f5 51 3f
       0.8252326 0.81831616 0.808032 0.82014865
000010 4c dd 4e 3f 3b 3b 50 3f 3a 10 54 3f 40 b8 4f 3f
       0.8080642 0.8134038 0.8283726 0.8114052

norm_layers.1.bias f4 [8]
000000 48 fb 3d 3d 29 6f 2c 3d 85 ac 0d 3d 33 50 1f 39
       0.04638222 0.042098198 0.034588356 0.00015193298
000010 9c f9 2d bc 0d 93 7a bc 5e 2e 56 bd 0e 53 df bc
       -0.010618594 -0.015293849 -0.052290313 -0.027261283

norm_layers.1.running_mean f4 [8]
000000 31 73 14 3b 80 1e 43 b8 7c 8d 93 b7 8d 56 ce ba
       0.0022651667 -4.652003e-05 -1.758965e-05 -0.0015742347
000010 91 f2 6e 39 70 a6 25 ba 87 f8 88 3a bb 5d ec b9
       0.00022787812 -0.00063190516 0.0010450043 -0.00045083262

norm_layers.1.running_var f4 [8]
000000 fd 0f 05 37 9b 2d 32 37 11 26 1f 33 c7 15 cf 37
       7.93114e-06 1.0620245e-05 3.7054694e-08 2.4686464e-05
000010 15 db 8d 33 02 11 41 36 94 37 ba 36 40 54 a0 35
       6.605675e-08 2.876914e-06 5.549702e-06 1.1945449e-06

norm_layers.2.weight f4 [16]
000000 e4 65 4e 3f 94 91 4e 3f a9 55 4e 3f 10 24 4e 3f
       0.8062422 0.80690885 0.8059946 0.80523777
000010 a2 7a 4e 3f 4c 83 4e 3f 8d d6 4e 3f 11 3b 4e 3f
       0.8065587 0.80669093 0.8079613 0.8055888
000020 93 70 4e 3f 1f 25 4e 3f 43 5a 4e 3f 2d dc 4e 3f
       0.80640525 0.8052539 0.8060648 0.8080471
000030 5a 26 4e 3f b9 8c 4e 3f 86 19 4e 3f 11 87 4e 3f
       0.8052727 0.80683476 0.80507696 0.80674845

norm_layers.2.bias f4 [16]
000000 7d cf 86 bb 33 91 95 3b 87 b8 49 b8 fe 06 20 bc
       -0.00411409 0.0045644282 -4.809399e-05 -0.009767292
000010 a4 8c d7 3b 4c 47 48 b9 02 6d 74 bc 87 ad 3e bc
       0.006578045 -0.00019100046 -0.014918568 -0.011638052
000020 f7 c5 52 bc 24 d6 7f 3b af 4a 85 3b f4 96 1f 3c
       -0.012864581 0.003903755 0.004067741 0.00974058
000030 84 06 25 3b 29 56 64 3b 6f 51 84 3b 04 5f 8c 3c
       0.0025180886 0.0034841395 0.004038028 0.01713515

norm_layers.2.running_mean f4 [16]
000000 5c aa a2 b7 03 00 90 b6 f9 ff b3 b6 03 00 90 b6
       -1.9391235e-05 -4.291536e-06 -5.364415e-06 -4.291536e-06
000010 e8 13 06 38 96 f2 d7 38 0e 00 6a b7 c9 36 29 34
       3.196663e-05 0.00010297184 -1.39475e-05 1.5759282e-07
000020 fc 4a 45 a1 81 79 66 38 a0 53 0b b8 a8 e8 26 b8
       -6.6845437e-19 5.4949433e-05 -3.3218064e-05 -3.9794162e-05
000030 2b 2c 11 b2 88 cd 71 37 0d 28 85 36 17 54 ee bb
       -8.4501535e-09 1.4412573e-05 3.9683714e-06 -0.007273208

norm_layers.2.running_var f4 [16]
000000 31 5f 89 30 53 26 99 2f b0 dd 96 30 20 29 64 2f
       9.995117e-10 2.785777e-10 1.0976944e-09 2.075109e-10
000010 12 7d b8 31 3a 5b a7 32 73 1d 80 30 7d 2b db 2e
       5.3693237e-09 1.9482844e-08 9.321596e-10 9.966692e-11
000020 1b 87 d2 2c 7b 6e 13 32 6c 42 92 30 7e b9 fc 30
       5.9835587e-12 8.5816465e-09 1.0641776e-09 1.8388133e-09
000030 1b 4b 88 30 32 00 94 31 d1 c4 eb 2f ec 60 5b 38
       9.916649e-10 4.307389e-09 4.2886097e-10 5.2303934e-05

stages.0.0.gamma f4 [8]
000000 3e 71 69 3b 4e ba 7b 3c ff bd 21 ba 2f 57 85 3c
       0.0035620476 0.015364243 -0.0006169974 0.016276924
000010 45 05 87 3a 4d e8 d4 3b d7 b4 c7 3b 2d fb 10 3b
       0.0010301253 0.006497419 0.006094556 0.0022122369

stages.0.0.norm.weight f4 [8]
000000 c5 e4 52 3f c2 0c 51 3f e9 bf 58 3f f6 ac 52 3f
       0.82380325 0.8166009 0.8466783 0.8229517
000010 08 4c 54 3f 1e 75 55 3f a9 d6 50 3f 25 a8 50 3f
       0.82928514 0.8338183 0.81577545 0.8150657

stages.0.0.norm.bias f4 [8]
000000 34 b5 ee bb ac e2 a4 3b b4 fc d7 3c ce 9a 03 3d
       -0.0072847847 0.005031904 0.026365615 0.032130055
000010 ae f7 18 bc b7 32 bc 3c 70 22 74 3c e0 4f 72 bc
       -0.009336395 0.022973401 0.014900789 -0.0147895515

stages.0.0.norm.running_mean f4 [8]
000000 67 b9 f2 bc 15 8d 82 3c c7 36 39 3c 7a c6 89 bc
       -0.029629422 0.015936414 0.011304564 -0.016818274
000010 9b 09 1e be f8 d8 57 bc f6 4f e3 bd 60 b7 15 3e
       -0.15433352 -0.013174288 -0.11099236 0.14620733

stages.0.0.norm.running_var f4 [8]
000000 71 6e 69 3e e2 2e 9e 3f f4 b9 03 3f d9 3a de 3e
       0.22796036 1.2358057 0.51455617 0.43404272
000010 97 e2 3a 3f a4 9f 7f 3e 44 c3 bb 3e c3 e6 85 3f
       0.73002 0.24963242 0.36672413 1.0461048

stages.0.0.pwconv1.weight f4 [16, 8]
000000 77 35 23 bd 6f d5 81 bc a9 06 4d bf 99 79 21 3e
       -0.03984591 -0.015848843 -0.8008829 0.15769042
000010 f1 c9 2a 3e d1 0c ff bd 90 97 26 be 0a 35 a3 be
       0.16678597 -0.124536164 -0.16268754 -0.31876403
000020 fa bc 22 bf 58 57 e9 be c3 7c b6 3c 3a 67 8f 3d
       -0.63569605 -0.4557445 0.022276288 0.07002111
000030 ca e8 f1 be 92 76 43 bd 82 59 72 3e 71 8d 6d 3c
       -0.47247916 -0.0477205 0.23666957 0.014499054
000040 c0 f5 db be 69 ee 6d 3e 59 d3 1e 3f d7 e4 59 3f
       -0.4296093 0.23235478 0.6204124 0.85114807
000050 f9 fc af be 6e b8 d2 3d b3 9a 52 be e4 29 41 3e
       -0.3437269 0.102890834 -0.20566826 0.18863636
000060 31 40 8d bf a8 87 0f 3f c0 56 c1 3c 42 a8 9d 3e
       -1.1035215 0.5606637 0.023600936 0.30792433
000070 1e e5 47 3e 50 cb 0c bd 4e d7 e7 3e 14 21 5a be
       0.19520995 -0.03437358 0.45281452 -0.21301681
000080 aa de e9 3d c0 9b c5 3e 9b 94 19 3e ff 93 5a bf
       0.11419423 0.3859539 0.14998095 -0.85382074
000090 c7 c5 7c bd 75 e4 ce bd 8a 0b d0 be 44 23 3c bf
       -0.061712053 -0.101021685 -0.40633804 -0.7349131
0000a0 65 b4 2c 3c 6f 89 e1 be 01 11 0f bf 20 82 06 bf
       0.010541056 -0.44050166 -0.5588532 -0.52542305
0000b0 46 f9 a2 bf c7 82 75 3f 17 7b 72 3e 3a bc 75 be
       -1.2732322 0.95902675 0.23679768 -0.23997584
0000c0 1f 56 3d 3b 31 e0 6e be e2 bc 70 3c ee e7 fa 3d
       0.0028890444 -0.2332771 0.014693471 0.12251268
0000d0 7b 02 8f be 63 d9 86 3e 88 a8 28 bf 3a 41 15 be
       -0.2793158 0.26337728 -0.6588216 -0.14575663
0000e0 3c 5f d4 be 13 76 20 bd 52 29 09 bf aa 00 5e 3d
       -0.41478908 -0.039175104 -0.53578675 0.054199852
0000f0 ad 7e cd bd f0 e3 ca 3d cb ee e2 3b 20 f9 e2 be
       -0.10033927 0.09906757 0.006925439 -0.44330692
000100 48 ee c4 3e 54 32 c4 bc 70 7f a7 bd 26 44 62 3d
       0.38463044 -0.02394978 -0.08178604 0.055240773
000110 97 8d 55 be 5c 12 dd 3e 48 16 94 3c ce a8 a6 be
       -0.20854793 0.4317807 0.01807703 -0.32550663
000120 56 62 bd bb 0b 57 02 3f c3 2c 32 be 57 ce 64 3e
       -0.005779545 0.5091407 -0.17399888 0.22344337
000130 45 7d 80 bd a7 7c 5a bd 74 7f bc be 4a 8a a9 3d
       -0.06273893 -0.053341534 -0.3681599 0.0827833
000140 4b 04 38 be 6c 61 45 bc a4 bf 14 3f 1b e6 54 3e
       -0.17970388 -0.012047153 0.5810492 0.20790903
000150 b9 a6 b6 bd 02 45 b6 bd 91 04 68 3e 5a 6b 11 bf
       -0.089185186 -0.08899881 0.22657992 -0.5680443
000160 b0 93 4e 3d 0f 1a 19 bc 2d 8a d6 bd 62 ba 71 3f
       0.050433815 -0.009344592 -0.10475574 0.9442502
000170 ee f9 11 bd cc 2f 45 bf 7d 1e c4 3b d4 a9 ab bd
       -0.035638742 -0.7702606 0.00598508 -0.083820015
000180 57 90 68 bc 5c 82 25 be ef 2f 91 bd e5 14 ea 3e
       -0.01419457 -0.1616301 -0.07089221 0.45719066
000190 fc 56 25 bf 4f 13 29 bf b3 e8 6b be 37 80 5d 3e
       -0.6458585 -0.6604509 -0.23037986 0.21630941
0001a0 55 f1 02 3f 4c 7b 94 3e 28 06 29 bf e8 71 be 3b
       0.51149493 0.29000318 -0.6602502 0.0058119185
0001b0 43 c7 ec 3d 8d 98 46 3c fa 01 13 3d 26 9c 20 3c
       0.11561444 0.012121332 0.035890557 0.009802854
0001c0 2f 4d 19 bf 3f f8 e5 bc 48 86 f1 bd a7 23 23 3e
       -0.598834 -0.028072475 -0.1179319 0.15931569
0001d0 4f 6f 39 3f c9 e6 97 3e 77 23 02 3f 38 45 82 3e
       0.7243547 0.29668263 0.50835365 0.25443435
0001e0 0b 92 3c 3e 23 02 4f be 0d 02 21 3e ff b2 5c be
       0.18415086 -0.20215659 0.15723439 -0.21552657
0001f0 85 95 7e 3e 04 d9 cf 3d a9 56 07 bf 07 50 71 bf
       0.24861725 0.10148814 -0.5286661 -0.9426274

stages.0.0.pwconv1.bias f4 [16]
000000 82 28 05 bd 63 79 ce 3a 60 47 43 bb 9b 2b 5b 3c
       -0.032509334 0.0015752729 -0.0029797181 0.013377096
000010 97 05 f7 bc 8f eb a2 bb 30 a3 d5 bb 7c a8 29 3c
       -0.030154033 -0.0049719284 -0.0065196976 0.010355111
000020 74 c3 20 3d 5f 65 03 3d 45 72 3b 3d cc 78 e9 3b
       0.0392489 0.032079097 0.045763273 0.007124996
000030 6e bd 2d bc 8d f7 c7 bc 8f 3f fc ba 8d 8f 4b bc
       -0.010604246 -0.024410034 -0.0019245016 -0.012424362

stages.0.0.pwconv2.weight f4 [8, 16]
000000 c9 ca 02 be ce c0 84 3e 4d 81 f2 3d e9 7f 78 be
       -0.12772669 0.25928348 0.118410684 -0.24267544
000010 35 1b e2 3d f5 c0 99 bd 38 f0 19 3e 0d b6 ad bb
       0.110403456 -0.07507507 0.15033042 -0.005301243
000020 6c 28 8e 3c a1 cc 2e be 9e c5 dc be 90 81 c4 3e
       0.017353259 -0.17070247 -0.4311952 0.38380098
000030 db 09 90 3d d1 0d 55 3e 4a cd 45 3f c7 57 11 3f
       0.0703313 0.20806052 0.7726637 0.5677456
000040 04 1c 5b be 25 b8 df 3e 84 0c 73 3d 8a 41 f4 bc
       -0.21397406 0.4369518 0.059338108 -0.029816408
000050 5b c0 d4 3d 29 9e 6d bd ae 11 83 bc 4f 26 29 bd
       0.103882514 -0.05801216 -0.015999641 -0.0412963
000060 1a c5 b3 be 00 60 3c 3e 04 44 5d bd 49 dc 82 be
       -0.35111314 0.18395996 -0.054019943 -0.2555869
000070 05 46 01 3f 9e 08 2b bd 63 ba a0 bd 07 a6 38 bd
       0.50497466 -0.041756265 -0.078480504 -0.04508021
000080 16 da 97 bd e6 4c 03 3f 00 6a b1 bd 8e 0e ce be
       -0.074146435 0.5128921 -0.08662796 -0.4024548
000090 7e db 62 be 0b 3a 76 3e 2d 7c 56 bd 3d 56 12 3a
       -0.22154042 0.24045579 -0.052364517 0.00055823085
0000a0 15 db 09 3b f1 3a 43 3e 20 1d a1 3d f1 eb 30 be
       0.0021035124 0.19065453 0.07866883 -0.17277505
0000b0 c6 f7 89 3d 28 7e 64 3a a3 f7 22 3e bd 35 b3 3b
       0.06736712 0.00087163085 0.15914778 0.0054690526
0000c0 b5 8d 91 3e fe 56 e6 be 9c eb dd be 90 bc 4c 3e
       0.28428426 -0.44988245 -0.43343818 0.19993806
0000d0 e8 0c 03 3e a4 4f 7c be 0a 18 69 be 8b 88 9d bb
       0.12797892 -0.24639755 -0.22763076 -0.004807537
0000e0 73 1e 27 3d 8b 92 9b 3e 29 05 1a be d3 17 46 3e
       0.040800523 0.3038524 -0.15041031 0.19345026
0000f0 c5 e5 8b bd c3 27 bf bc d0 67 32 3e 46 df cb bd
       -0.068309344 -0.02333439 0.17422414 -0.099546954
000100 d3 1d 81 3e aa c9 05 bd 0e 0f b4 3d 16 1d 93 bd
       0.25218067 -0.032663025 0.08791934 -0.07183282
000110 44 92 ac 3e f8 e5 21 be 23 7b cf be d8 41 07 3d
       0.33705342 -0.15810382 -0.40523633 0.033021778
000120 e1 bd ee 3d 84 af 83 3b 3c 15 c1 3c 0c 17 1d 3f
       0.1165731 0.004018726 0.023569696 0.6136329
000130 14 0c 22 bc 1c c0 3f 3e 8f 54 ba bd 5a e2 87 3d
       -0.009890575 0.18725628 -0.090981595 0.0663497
000140 67 14 11 be 7f 28 86 3d d8 3a d2 3e 17 ee ea be
       -0.14167939 0.06550693 0.4106052 -0.45884773
000150 84 29 34 be de 12 6a 3c 5b 23 21 bd 71 d3 d3 bb
       -0.17593962 0.014286725 -0.03934036 -0.0064644148
000160 d4 59 c0 3b f3 19 88 3e 35 eb 0b 3c 2e 9c b6 bd
       0.0058700833 0.26582298 0.008539964 -0.08916508
000170 44 03 b8 be ce 49 8c be 7b 46 20 3e 67 5c be bd
       -0.3593999 -0.27400059 0.15651886 -0.09294968
000180 b0 d9 8c 3e 43 72 bd bc 62 f7 99 ba fd f6 3b be
       0.27509832 -0.023125773 -0.00117467 -0.18355937
000190 73 2f 75 be 77 82 fc bd da 17 3f bd 5e 8c ae 3c
       -0.23943882 -0.12329572 -0.046653606 0.021307167
0001a0 8b c2 0d 3d 72 4b 59 3e f5 7d a3 bb 1b 28 a9 3d
       0.03460936 0.21220186 -0.0049893805 0.08259603
0001b0 1e e0 9e bd 97 6e f8 3d bc f4 c1 3e a4 ff ea 3d
       -0.07757591 0.12130468 0.3788203 0.11474541
0001c0 5e 38 16 3c 2f c6 ca 3c 83 c9 73 3c e5 f5 f9 bb
       0.009168712 0.024752704 0.014879587 -0.00762819
0001d0 61 48 52 bd 5a 92 e2 3e 64 67 23 bb 44 02 f4 3d
       -0.051338557 0.44252282 -0.0024933452 0.11914495
0001e0 89 dd 91 3e a9 ad 5d 3d 42 8a d8 be e0 51 8b be
       0.2848933 0.054120693 -0.42292982 -0.27210903
0001f0 6c d3 67 bd 5b c6 5b ba 10 88 7e be 62 d7 43 be
       -0.056598112 -0.0008383744 -0.24856591 -0.19125131

stages.0.0.pwconv2.bias f4 [8]
000000 85 4a 6d 36 2d 2e 9c 35 cf 9d 22 35 67 26 20 37
       3.5359128e-06 1.1636345e-06 6.0579345e-07 9.545684e-06
000010 ca aa 5d 35 1b 8c 56 37 83 df f2 36 bb 60 46 36
       8.2577446e-07 1.2788015e-05 7.238182e-06 2.9560604e-06

stages.1.0.gamma f4 [16]
000000 07 c6 f8 b8 ce 82 54 38 09 45 f0 b8 48 fe 8a b8
       -0.00011862447 5.066656e-05 -0.000114569506 -6.627716e-05
000010 fb 7f c5 b9 cf 34 07 3a c5 ec eb b8 d5 56 18 38
       -0.0003767012 0.00051577104 -0.00011249775 3.6320493e-05
000020 61 25 d4 36 24 7b a3 39 c3 44 c1 38 b4 b7 20 39
       6.322444e-06 0.0003118153 9.215765e-05 0.00015327224
000030 af 89 4c 39 93 7c 27 b9 6c 8c 96 38 27 e6 d5 3c
       0.00019506247 -0.00015972769 7.178713e-05 0.026110722

stages.1.0.norm.weight f4 [16]
000000 db 93 4e 3f e0 90 4f 3f fa 22 4e 3f ee d9 4e 3f
       0.8069436 0.81080437 0.8052212 0.80801284
000010 39 5b 4e 3f 13 8c 4e 3f f2 74 4f 3f ae 9a 4e 3f
       0.80607945 0.80682486 0.8103782 0.8070477
000020 e7 01 51 3f 3a 39 4f 3f 3c d9 4e 3f f3 9a 4f 3f
       0.8164353 0.80946696 0.80800223 0.8109581
000030 92 4f 4e 3f d5 70 4e 3f f7 e0 53 3f cb cc 4f 3f
       0.80590165 0.8064092 0.82765144 0.81171864

stages.1.0.norm.bias f4 [16]
000000 8e da 16 3d 4a 35 21 3c 12 53 11 bd ad 6f 04 bb
       0.036829524 0.009839365 -0.035479613 -0.0020208166
000010 e7 b1 c9 b8 34 c9 0d bd 0d b9 01 3d d5 d5 bc 3c
       -9.617564e-05 -0.03461571 0.03167062 0.023051182
000020 4f 86 8d 3d 69 3a 45 3d 30 15 03 bd 01 65 07 3d
       0.06910383 0.048151407 -0.032002628 0.03305531
000030 83 12 a8 bc e4 cf 73 3c cd e0 82 bd 81 df 57 bd
       -0.02051664 0.014881108 -0.063905336 -0.052703384

stages.1.0.norm.running_mean f4 [16]
000000 42 60 a3 bb d5 ff 97 bb 3d c5 6a b9 81 e8 7c 3c
       -0.00498584 -0.004638652 -0.00022389456 0.015436293
000010 39 5f 19 3d 9f 1d c2 3d de 23 42 bd 22 5f 84 bc
       0.037444327 0.09478306 -0.047397487 -0.016158644
000020 75 ef 59 bc 60 6f 90 bc c7 7b 5a bd 90 30 76 3a
       -0.01330172 -0.017631233 -0.0533407 0.00093913916
000030 65 c7 c6 3c 88 07 78 bc 7c c9 80 3e ee f0 3b 3d
       0.024265 -0.015138514 0.2515372 0.045884065

stages.1.0.norm.running_var f4 [16]
000000 50 e4 e6 3d 7e 3d bd 3d a8 2c 92 3e 60 99 cc 3d
       0.11274016 0.09240244 0.28549695 0.099901915
000010 e4 cc a0 3e c3 8b 81 3e 37 b8 93 3e 46 01 13 3d
       0.3140632 0.25301942 0.28851482 0.035889886
000020 94 eb 0d 3d 12 0b 15 3d e1 1e 87 3e fc 60 89 3e
       0.034648493 0.03638751 0.26390746 0.26831806
000030 c8 34 17 3e 04 b5 d6 3b fb e0 24 3c b6 2c df 3c
       0.14766228 0.0065523405 0.010063405 0.027243

stages.1.0.pwconv1.weight f4 [32, 16]
000000 e8 57 09 3c 7c 09 be 3d 78 f7 65 bd 9a 07 01 bc
       0.008382775 0.09279153 -0.056144208 -0.0078753475
000010 75 d7 e8 bc 08 ad 78 be 3c d9 ee bd 98 35 fb 3e
       -0.02842305 -0.24284756 -0.11662528 0.49064326
000020 e5 e2 a4 3e 1f 62 78 3d 50 3f 2e be 24 79 4c 3d
       0.32204357 0.06064045 -0.1701634 0.049920216
000030 f6 5d 2f bc 67 40 6b bd 49 92 60 bc 25 29 18 3e
       -0.010703554 -0.057434466 -0.013706752 0.14859445
000040 d9 1f e3 be b7 f3 62 3e 8d 3a 1e 3a bb ee d5 bd
       -0.44360235 0.22163282 0.00060359464 -0.10445925
000050 a5 bc 8d 3c 04 ff fa 39 47 6f 08 3f 31 04 90 ba
       0.017301867 0.00047873717 0.53294796 -0.0010987577
000060 3e aa 28 be 7e 00 0b 3e a6 fa b8 be db 8c 2f 3f
       -0.16471192 0.13574407 -0.3612873 0.68574303
000070 02 7e 0f be 40 6d a4 3b 3b bf 05 3e a9 51 81 3b
       -0.14012912 0.0050179064 0.1306123 0.003946502
000080 3f 76 e8 3d f4 bc c4 3a c7 b4 32 be 68 03 ac 3c
       0.11350679 0.0015009926 -0.17451774 0.020997718
000090 70 58 92 bd ea 11 18 3d 45 cd 54 bd f5 ee b5 3c
       -0.07145774 0.03712646 -0.051953573 0.02220867
0000a0 39 b1 a4 be 0f 0a be bc 2a 8c c0 bc 9d ba 71 bd
       -0.3216646 -0.023198156 -0.023504335 -0.05901586
0000b0 8d c1 8b be 0c ee 39 bc 60 bb 27 3e 00 aa 12 bf
       -0.27296105 -0.011348259 0.16380072 -0.5729065
0000c0 11 57 98 3e 6f e1 01 bc 63 c3 d8 be df 0d ad 3d
       0.29753926 -0.007927283 -0.42336568 0.08449911
0000d0 3c 42 eb 3d 33 ab 21 3c 11 d0 8c 3e 92 f8 05 3f
       0.114872426 0.009867477 0.27502492 0.52332413
0000e0 61 08 87 bc 33 b2 9e 3e e3 0a c8 3e 4c e0 91 be
       -0.016483488 0.3099533 0.39070806 -0.28491437
0000f0 78 8f 90 bc b5 ec 91 be a0 23 3f bd ef 56 20 bf
       -0.017646536 -0.28500906 -0.046664834 -0.6263265
000100 a9 ff ce ba 96 2c 92 3d 82 ce e4 3d 13 c9 4f 3e
       -0.0015792745 0.0713741 0.11172201 0.20291547
000110 32 fd 79 bc 8e 8a df 3e ed b0 72 3c 2c 8f e2 bd
       -0.01525812 0.43660396 0.01481269 -0.11062464
000120 34 ef bd 3c eb 09 87 3d f7 7c 2b 3e 0b 7b c8 be
       0.02318535 0.065936886 0.16746889 -0.39156374
000130 c2 c5 79 3e 90 65 8e 3c 16 98 e6 3d e8 7d 24 bd
       0.24391845 0.017382413 0.11259477 -0.040159136
000140 6e 19 c3 3c e3 39 b0 bb 08 8d 67 3c ce 1c ad bd
       0.023815837 -0.0053779944 0.014132746 -0.0845276
000150 3f 7d 95 bd eb be 88 be c5 eb bf 3e 78 b8 08 be
       -0.072992794 -0.2670816 0.37484565 -0.13351619
000160 b1 76 a5 bb e3 6c 46 3a 6c da ce 3b d2 c3 dc be
       -0.0050495495 0.0007569326 0.006312659 -0.4311815
000170 9f cd 8a 3d c6 6c 10 be b6 8e 68 bd d7 97 04 3f
       0.067775 -0.14103994 -0.056776725 0.5179419
000180 c7 7d 25 3e a2 3f 35 3e b8 71 f9 b9 56 d3 d6 bb
       0.16161261 0.17700055 -0.00047577708 -0.006555955
000190 d2 f4 0c 3e 66 2f 0d 3c d7 e4 50 be 99 2a b2 be
       0.13765267 0.008617258 -0.20399795 -0.34798124
0001a0 87 ea 01 3f 34 fd 88 bc bd 01 49 bd d7 17 92 be
       0.50748485 -0.0167223 -0.049073923 -0.28533813
0001b0 39 a5 d1 bb 89 2b 84 3e 0e b2 0c bd c1 d9 2b bc
       -0.00639787 0.25814465 -0.034349494 -0.010488928
0001c0 7f ed 2f be 07 6c 6c bc 8a 5d 55 3e 27 61 10 be
       -0.17180441 -0.014430053 0.20836464 -0.1409956
0001d0 b5 91 36 bd 85 93 c7 3d b2 0c 87 be 71 ec f8 bd
       -0.04457255 0.09744934 -0.26376873 -0.121544726
0001e0 eb bd e7 3c 4f fe b0 be fe 52 5d 3e 88 a1 e8 be
       0.028288802 -0.34569022 0.2161369 -0.4543574
0001f0 58 4d 31 3e bc c7 03 be e2 d2 3d bd c2 07 1d be
       0.1731466 -0.12869161 -0.04634369 -0.1533499
000200 4b 1a ed 3c 6a 1c 27 3d d6 0c 72 3e 2d d4 80 bc
       0.028943202 0.040798582 0.23637709 -0.015726173
000210 04 7a ee be c7 7a 9d 3d 49 65 5d bd 4a 33 86 3c
       -0.46577466 0.076894335 -0.05405167 0.016381878
000220 30 f6 5b bd 53 fb bd be a5 62 94 be b5 18 4f bd
       -0.05370158 -0.37105808 -0.2898151 -0.05056067
000230 18 c9 90 3d a0 6c b7 be 51 ea 99 3d ac 58 34 3e
       0.070696056 -0.35825062 0.075153954 0.1761195
000240 1f 49 29 3e af 8f 3b 3e 31 82 bb 3d b3 5f a2 3d
       0.165318 0.1831653 0.091556914 0.079284094
000250 d8 09 11 be ec 64 0c be d8 8d 39 3e a9 37 0a 3d
       -0.14163911 -0.13710374 0.18120515 0.033744488
000260 b3 50 b0 3e 76 ee c0 3d 20 08 d5 be 1f 53 da 3b
       0.3443657 0.09420483 -0.4160776 0.006662741
000270 3f fb d5 bd 86 2a ec 3e 6e df a4 be ac 9d c0 be
       -0.10448312 0.46126193 -0.32201713 -0.37620294
000280 dd 08 0c 3d 77 d6 90 be 1a b8 26 3d ec fa 52 3d
       0.03418814 -0.28288624 0.040702917 0.05150883
000290 30 f3 de bd 6e e2 cb be 46 be 91 3e 31 49 46 3e
       -0.10886228 -0.3982119 0.2846548 0.19363858
0002a0 c6 aa bb bc 72 75 aa bd aa 05 d5 bd 6f 4a dc 3d
       -0.02290858 -0.08323182 -0.10401471 0.107563846
0002b0 26 42 29 3d 1c 7a 38 3d c5 24 b8 be ab a9 ff 3e
       0.04132285 0.045038328 -0.35965553 0.49934134
0002c0 25 b7 f5 bd 2c aa 9b 3e 92 55 03 bc 1f ea 98 3e
       -0.11997823 0.30403268 -0.008016007 0.2986612
0002d0 52 67 e2 3e 6f e0 0f be b8 73 2f 3e e9 d6 41 ba
       0.44219452 -0.14050458 0.17133987 -0.000739439
0002e0 1d 76 40 39 70 2e 67 3a 5d 95 db 3c 0f 1b 0c 3e
       0.00018354548 0.00088188704 0.02680462 0.13682197
0002f0 96 f6 0e 3d 32 47 79 bc 14 cd 95 3e a9 8e bc bc
       0.03490313 -0.015214728 0.29258025 -0.023017244
000300 e2 19 11 3f 1a 82 f3 bc d2 a3 9c 3c b7 f0 0e 3e
       0.5668012 -0.029725123 0.019121084 0.13959013
000310 87 a3 6b bd 23 4a 86 3e 4f fa 0e 3d 3c 10 47 3e
       -0.057529 0.26228437 0.03490668 0.19439787
000320 d5 1a b0 be 9c e9 5c be b7 ae 70 3d 72 ed cb be
       -0.3439547 -0.2157349 0.05876037 -0.39829594
000330 73 81 ff bc 48 40 26 bf af 3f ea bc 59 17 b4 bb
       -0.031189656 -0.64941835 -0.02859482 -0.0054959473
000340 81 b3 6e 3c 65 c2 58 bd 3d 86 48 3e 50 98 8a be
       0.014569164 -0.052919764 0.19582458 -0.2706933
000350 34 25 46 3c eb 38 e2 3e 86 36 c0 3c aa e1 f4 be
       0.012093831 0.4418405 0.023463499 -0.47828418
000360 bc cb 0d 3f 87 23 01 3e af e8 00 bd c4 cc d6 bb
       0.55389 0.12611209 -0.031471904 -0.0065551717
000370 71 f7 c6 3c a7 23 87 be f1 98 9c 3e eb 0c 97 3e
       0.024287911 -0.26394388 0.30585435 0.29502043
000380 79 a8 7f 3c 28 87 75 39 cd 2c f0 3b c8 78 f2 3d
       0.015604132 0.0002341537 0.0073295594 0.118394434
000390 82 f4 88 bd ad fe bc bb a0 80 b6 3e 78 07 41 be
       -0.06687261 -0.0057676644 0.35645008 -0.18850505
0003a0 25 d8 14 3d d8 3d 08 be 6a 8f a1 be 78 f1 83 bb
       0.036338944 -0.13304842 -0.3155473 -0.004026588
0003b0 ed 32 00 bc c1 1e 19 be 39 bd 28 3d a6 67 48 ba
       -0.007824642 -0.14953138 0.04119608 -0.00076448394
0003c0 1b c0 87 bb 90 29 eb bd 76 68 0c 3c f0 52 85 3d
       -0.004142774 -0.11482537 0.008569827 0.0650996
0003d0 23 02 06 3f 78 94 aa be a2 fb 06 bc 8b 57 01 3b
       0.5234701 -0.33316398 -0.008238705 0.0019736018
0003e0 d1 8b bf 3d 5d c1 94 be 63 26 2b be 0f a6 74 bd
       0.0935284 -0.29053774 -0.16713862 -0.05972868
0003f0 f6 63 94 bd 2f 82 2c 3e dd 67 d4 3d d6 f9 ca bc
       -0.072456285 0.16846536 0.10371373 -0.024777334

stages.1.0.pwconv1.bias f4 [32]
000000 49 59 eb 3b 33 19 57 3d fa 0b 27 bc 40 dd 1d 3d
       0.0071822745 0.052514266 -0.0101957265 0.03854108
000010 a5 8d 06 3c bf a8 7e 3b 3b 39 9a 3c df f0 7b 3c
       0.008212482 0.0038857905 0.018826118 0.015377252
000020 c4 fd 01 bd b9 73 87 3d 0f 0f b4 3c 93 77 31 3d
       -0.03173615 0.06613869 0.021979837 0.043326925
000030 60 0d ec 3c b7 80 b2 3c 34 28 16 3c 21 89 3c 3c
       0.028814971 0.021789892 0.009164859 0.011507303
000040 92 32 02 bc 61 a5 ad ba d5 7c 07 3d 0c 49 21 ba
       -0.007946627 -0.0013248139 0.033078033 -0.00061525474
000050 0c fe 0f bb e5 a2 38 bd b2 4e 9c bb 3d ba b2 3b
       -0.0021971492 -0.045077223 -0.0047701234 0.0054543302
000060 92 f6 30 ba f7 6c 0d 3d 6f e9 3e bd 4a 3a 14 3c
       -0.0006750609 0.034527745 -0.04660934 0.0090471
000070 12 ef a0 bc 2e 57 ef ba b0 e8 35 bd 5c 71 da bc
       -0.019645248 -0.0018260235 -0.04441136 -0.026665382

stages.1.0.pwconv2.weight f4 [16, 32]
000000 51 f0 0a bd d1 bd 44 3b cc b7 8a 3e 01 1c 99 bb
       -0.03392059 0.0030020366 0.2709335 -0.004672528
000010 bd d6 1e bd 12 ac c6 3c e1 fe 20 3c 89 29 0c ba
       -0.03877901 0.024251971 0.009826393 -0.00053467654
000020 8d 31 c7 3a e1 39 aa bd 77 a0 2d bb fe 39 43 bd
       0.0015197262 -0.08311821 -0.002649335 -0.047662728
000030 20 8c 86 3e 8f e4 93 3e 4a c0 95 bd 67 d3 8b 3b
       0.26278782 0.28885314 -0.07312067 0.0042671445
000040 4d 8a 7d bd d7 1d 21 3e 77 df f5 3d 91 5b 8b 3e
       -0.061899472 0.15734039 0.12005513 0.27218297
000050 21 2b 1e bc bb 9e b7 bb 9b 1a b5 3d 09 98 a5 be
       -0.009653837 -0.005603639 0.08842965 -0.32342556
000060 c6 5f 18 3d a5 45 6d 3b 87 b6 d9 ba 37 0a 55 be
       0.03720071 0.0036204841 -0.0016610184 -0.20804678
000070 c6 79 08 3c d7 5b 45 be 74 46 15 36 97 39 ad 3d
       0.008329814 -0.19273315 2.224374e-06 0.0845825
000080 4b 02 2f 3d 9e bc 12 3c ec 4a 16 bf dd a0 48 3b
       0.042726796 0.008956103 -0.5870807 0.003061346
000090 f6 1c 36 be c9 42 91 bd 09 7a 69 3e 0f b7 17 3e
       -0.17784485 -0.070928164 0.22800459 0.14815925
0000a0 62 3a e6 bc 68 60 19 3e 1b 77 9d 3d 10 12 5a 3d
       -0.028104011 0.14978182 0.07688733 0.053239882
0000b0 ed 35 74 be 87 97 25 3b 99 a8 38 3c 1d ee bb 3a
       -0.23848696 0.002526732 0.011270666 0.0014337931
0000c0 98 9d cf 3c f0 dd 84 3c 66 cc 50 b9 c0 ce 23 3b
       0.025343701 0.01621911 -0.0001991257 0.0024995059
0000d0 fc 9d dd 3e 6d 32 01 bc a6 af 9a 3c c4 0f 6a 3e
       0.43284595 -0.007885558 0.018882584 0.22857577
0000e0 91 4a de bd ca 70 45 be 28 f7 90 3e 94 2a 48 be
       -0.10854066 -0.19281307 0.28313565 -0.19547492
0000f0 69 77 d1 3a 5b 3d 85 3c c0 d3 87 b7 61 cd 96 ba
       0.0015981022 0.016264608 -1.6191858e-05 -0.00115053
000100 a5 b7 5c bb ba b6 a1 38 cf 72 5e be 8b 66 74 3d
       -0.0033678797 7.711114e-05 -0.21723484 0.059668105
000110 dc 4d 43 3e 72 c1 44 bb c2 76 d9 bd 01 f8 3b ba
       0.1907267 -0.003002253 -0.106183544 -0.00071704393
000120 5a 4a 91 3a 15 c5 7a ba 4f b6 e7 38 57 82 2d 3e
       0.001108478 -0.00095661107 0.00011048896 0.16944252
000130 fd 4d 3b 3c cd 64 5f 3e 8b 03 34 bd 89 ad 28 bb
       0.011432168 0.21815796 -0.04394869 -0.00257382
000140 03 7b 32 ba 2e f7 d0 bd 41 39 24 39 d2 91 6a bb
       -0.00068084913 -0.10203396 0.00015661588 -0.0035792482
000150 b0 5d be 3d 7a b2 9d 38 ca e7 33 3b ec 31 d0 38
       0.09295213 7.519587e-05 0.002745139 9.9275116e-05
000160 f7 dd 9e be 53 0b d3 bd 75 ad b5 3e 10 40 46 bb
       -0.3102872 -0.10304894 0.354839 -0.0030250587
000170 65 15 b2 b9 28 03 d8 3d 89 59 7e be 8d 42 3c bb
       -0.00033966746 0.10547477 -0.24838842 -0.002872619
000180 06 59 11 3b 27 2f bb ba 49 19 ac 39 11 24 1f 3a
       0.0022178306 -0.001428102 0.00032825235 0.0006070743
000190 de 64 ab 3d 87 1d a1 39 06 29 a6 3a 11 ff 8d b8
       0.08368848 0.00030730313 0.0012677021 -6.770914e-05
0001a0 d2 fa 88 bc b5 21 29 3a 43 ed 7d be 28 f5 40 3a
       -0.016721163 0.0006451861 -0.2479754 0.000736075
0001b0 2e 27 73 3e f4 25 a3 3c 41 1a 91 bd 52 e6 49 b9
       0.23745415 0.019915558 -0.07085086 -0.00019254655
0001c0 21 72 7c ba 1d 21 21 3a 35 6e 25 3c 5c 89 29 3a
       -0.00096300436 0.0006146597 0.010097076 0.00064673065
0001d0 68 79 46 3e 10 d6 c9 3c a6 79 0a be df e7 2e be
       0.1938225 0.024638206 -0.13522968 -0.1708064
0001e0 70 ef 2e bd 91 4c a0 bc ed 7d 84 3e 0d 8a e0 3a
       -0.042708814 -0.01956776 0.25877324 0.0017130986
0001f0 13 8f 40 39 43 c0 83 3a 66 a9 45 ba 81 84 d5 ba
       0.00018363846 0.0010051805 -0.0007540196 -0.00162901
000200 27 ab 2d bc 75 16 62 be 3a 8f 0b bd 58 2d 08 be
       -0.010599888 -0.22078879 -0.03407214 -0.13298547
000210 93 7a 35 bd da e8 e9 ba d0 b9 d5 3d 69 b1 06 3c
       -0.04430635 -0.0017845884 0.104358315 0.008221009
000220 26 fa fb bb d1 69 81 3e 3d 23 62 bd 49 b3 1f 3e
       -0.007689732 0.25276044 -0.055209387 0.15595736
000230 c6 05 08 ba 14 ad 4a be 95 ab 23 bd 47 b4 f3 3a
       -0.00051888486 -0.19792587 -0.039958555 0.0018593156
000240 6f 59 25 bc 78 6f 92 3c 42 52 89 ba 27 df 31 bd
       -0.010092123 0.017875418 -0.0010476785 -0.043425705
000250 99 68 3b 3d ad ff 15 3e 7a 65 1e 3b e4 b1 80 3b
       0.04575405 0.14648314 0.0024169371 0.003927456
000260 6b 86 21 bb 15 a9 00 be 03 e1 1f 3d b9 9d 4c bb
       -0.002464677 -0.125645 0.039032947 -0.003122194
000270 69 b1 32 be 41 25 56 3a 09 94 a7 bc c8 b0 5a 3e
       -0.17450489 0.00081690034 -0.02045633 0.21356499
000280 d3 5a c8 bc 75 63 80 ba 52 e1 b2 3c 12 61 c1 3c
       -0.02445737 -0.0009795266 0.021835957 0.023605857
000290 b4 43 08 be e6 b0 73 be aa 86 21 3e 6f 8c a9 3e
       -0.13307077 -0.2379795 0.15774027 0.33114955
0002a0 a2 74 20 bc 06 45 c3 3d 34 2f b4 3c 85 5d 0e bd
       -0.009793432 0.095346496 0.021995164 -0.034757156
0002b0 16 08 9e 3c 39 95 c9 bd 71 f6 98 bd bd 6a 44 3b
       0.019290965 -0.09842915 -0.0746888 0.0029970848
0002c0 bc 7a 00 bc 5a c8 bf 3d 5b b2 01 3f b4 6c 92 bb
       -0.007841762 0.09364386 0.50662774 -0.004468525
0002d0 d0 ff 72 3c 31 70 1f 3b 59 94 cd 3d 1f c1 ab bc
       0.014831498 0.0024328346 0.10038061 -0.02096611
0002e0 8a fe 0c bd e6 25 d2 3d 77 c3 c9 3d 81 26 1f 3c
       -0.034422435 0.10261135 0.09851735 0.00971377
0002f0 20 49 be be e9 fc 8c 3e b0 cb bf bb d0 5b 84 3e
       -0.37165165 0.27536705 -0.005853139 0.25851297
000300 e5 cb 44 be 51 8a 63 bc 56 c3 21 3c 69 4d cf bd
       -0.19218405 -0.013887958 0.009873232 -0.10122187
000310 1c 46 94 bd c7 a3 87 bd 38 c9 86 3e 21 29 b6 3d
       -0.07239935 -0.06623035 0.26325393 0.088945635
000320 d5 70 4b 3b f9 4e d3 3b 91 08 88 bd 22 83 77 3d
       0.0031042595 0.0064486233 -0.06642259 0.060427792
000330 b1 31 25 bb 96 0c 9e bc 99 15 92 bd a7 9f 96 3d
       -0.002520662 -0.01929311 -0.07133026 0.0735467
000340 64 db 04 3c 64 ec 00 be 16 a4 5a bb 5a c7 f4 3b
       0.008108947 -0.12590176 -0.0033361963 0.0074700536
000350 5a 65 e2 3d 1d 3e 84 3e 95 ce 40 3e 38 41 39 bb
       0.110544875 0.2582864 0.18828805 -0.0028267633
000360 4c 91 09 bb a8 f7 09 bd 07 42 c3 3d c4 eb 8d 3c
       -0.0020991145 -0.03368345 0.09534078 0.017324336
000370 07 b7 b6 3e a2 0f 1a bc ee 9c 76 3b 51 42 c6 3a
       0.35686514 -0.009403141 0.0037630158 0.0015125965
000380 2c 09 64 3e 99 1a 04 b9 bd b0 20 3a 68 e4 bc 39
       0.22269124 -0.0001259841 0.00061298517 0.0003602833
000390 f0 cc 04 ba 18 79 29 3d 0e 29 75 39 d0 79 44 3f
       -0.00050659385 0.04137525 0.00023380315 0.7674837
0003a0 76 15 7a bd c1 0c 5e bd 59 95 b2 bc 2d 8a 03 3a
       -0.061055623 -0.05421138 -0.02179973 0.0005017843
0003b0 18 ca 8b b9 7d 6c df 3d 86 63 a2 3d bb c7 33 bd
       -0.00026662718 0.10909364 0.07929139 -0.04389165
0003c0 6a 7d 70 b9 95 77 09 3a 02 9c 1c 38 65 0e b0 be
       -0.00022934904 0.00052439544 3.7338592e-05 -0.34385982
0003d0 77 a6 9e 3a 0c 96 dc 3b fa ee 98 3a 18 1a 28 ba
       0.0012104054 0.006731754 0.00116679 -0.00064125797
0003e0 5b 8e 00 3a d9 9c 51 3a df 3a c2 bc b3 d4 e7 39
       0.0004904025 0.00079960894 -0.023709713 0.00044218227
0003f0 53 13 69 be c6 f4 01 be 00 20 88 be 10 fb b2 b9
       -0.22761278 -0.1269103 -0.26586914 -0.00034137862

stages.1.0.pwconv2.bias f4 [16]
000000 ec f0 b1 b3 bf f0 7e b2 a9 6d 5f b4 92 31 8a b2
       -8.286028e-08 -1.4839485e-08 -2.0808388e-07 -1.6087856e-08
000010 e6 46 1c b5 fe f5 75 34 2e 82 3f b4 26 5d 8d b2
       -5.82177e-07 2.2906895e-07 -1.783562e-07 -1.645692e-08
000020 e6 2b 8b 32 14 81 eb 34 76 2e 9d 33 d8 32 56 33
       1.6201692e-08 4.3866078e-07 7.3193334e-08 4.9872e-08
000030 bc 8b cd 34 29 af 20 34 88 6d d0 32 6b cc 35 37
       3.8285896e-07 1.4964884e-07 2.4264196e-08 1.08360355e-05

stages.2.0.gamma f4 [32]
000000 65 47 c1 bd 75 74 01 be cb 9e 06 3e 60 75 b6 bd
       -0.094374456 -0.12642081 0.13146512 -0.08909106
000010 1e 84 08 3e fb 51 ff bc 9d c3 08 3e 33 88 29 3e
       0.13331649 -0.031167021 0.1335587 0.16555862
000020 2b 3f 13 be 12 95 02 be 82 e6 a0 3d 91 df 15 bc
       -0.14379565 -0.12752178 0.07856466 -0.009147541
000030 ff 8c ec bd e6 40 d4 bd 21 2e 71 3d 68 a5 65 bd
       -0.1155033 -0.10363941 0.058881883 -0.056065947
000040 f9 b6 f5 3d b8 96 d4 3d 8d ae ce bd fd ba 09 be
       0.1199779 0.1038031 -0.10091887 -0.13450237
000050 99 3c fc bd 63 39 f7 bd 3d f1 ed bd 83 7e 00 3e
       -0.123162456 -0.120714925 -0.11618278 0.1254826
000060 4a ba 05 3e c1 f2 15 3e fb e4 1c 3e 6b 6f f2 bd
       0.13059345 0.14643385 0.15321724 -0.118376575
000070 4e 22 ee bd c1 d0 dc 3d 6d c9 bd bd 12 04 07 3e
       -0.11627637 0.10782004 -0.092669345 0.13185146

stages.2.0.norm.weight f4 [32]
000000 7e d8 4e 3f f7 6f 4e 3f 31 c6 4e 3f 35 7f 4e 3f
       0.8079909 0.80639595 0.80771166 0.8066285
000010 01 9b 4e 3f 59 b1 4e 3f e6 5a 4e 3f d4 8f 4f 3f
       0.8070527 0.8073936 0.8060745 0.8107884
000020 7a ea 4e 3f b2 62 4e 3f e4 38 4e 3f 7d 64 4e 3f
       0.8082653 0.8061935 0.8055556 0.8062208
000030 5e 64 4e 3f 80 df 4e 3f e4 10 4f 3f 89 57 4e 3f
       0.806219 0.80809784 0.8088515 0.8060232
000040 f4 a7 4e 3f e0 be 4e 3f 31 ad 4e 3f ad 6c 4e 3f
       0.80725026 0.8076 0.8073302 0.80634576
000050 6b 48 4e 3f 89 7f 4e 3f 99 89 4e 3f bc 6a 4e 3f
       0.8057925 0.80663353 0.8067871 0.80631614
000060 42 a5 4e 3f 69 3c 4e 3f 70 de 4e 3f 53 53 4f 3f
       0.80720913 0.8056093 0.8080816 0.8098652
000070 f4 ea 4e 3f 59 16 4e 3f e0 6a 4e 3f 58 57 4e 3f
       0.8082726 0.8050285 0.8063183 0.80602026

stages.2.0.norm.bias f4 [32]
000000 66 4a ec 3c 4a 8c f5 bc 98 a7 b0 ba dc fc 53 3c
       0.02884407 -0.029974122 -0.0013477681 0.012938704
000010 9a 59 92 bb 10 75 85 bc 87 c3 06 3d eb e6 59 3d
       -0.0044662477 -0.016291171 0.032901313 0.053198736
000020 0b 66 dc 3b 9b bb 4a bd 07 ae 07 3b bc 32 0f bc
       0.0067260317 -0.04949532 0.0020703094 -0.008740123
000030 ca bc ba 3c bb 29 8f bb 2a 8d 66 bc 5d 7c e4 3b
       0.0227951 -0.0043689883 -0.014071742 0.006972833
000040 8f 21 79 bc c5 aa ef 3b b5 3c 14 bd 54 ed 00 3c
       -0.015205755 0.0073140585 -0.036190707 0.007869083
000050 54 29 e0 bb 9e a9 6c bb cf 3a 82 bd 28 3e 27 3c
       -0.006840864 -0.0036111842 -0.06358873 0.01020769
000060 63 2c 26 3d 8e 69 21 3c fe f4 71 3b d4 26 4a bd
       0.040569674 0.009851826 0.0036919708 -0.049353436
000070 80 0b ca 3b 2e d6 c0 bb fe 14 2a bd 87 2e 43 3c
       0.0061659217 -0.005884907 -0.041523926 0.011912948

stages.2.0.norm.running_mean f4 [32]
000000 a0 de 4a 3d 01 ee 0e bc c2 64 45 bc d6 44 d9 bb
       0.049528718 -0.008723737 -0.012047948 -0.0066305203
000010 d2 65 d5 3b d7 77 32 bd 02 3b b9 bc 98 a3 00 3c
       0.006512382 -0.04357132 -0.022611145 0.007851504
000020 41 1f c0 b7 ab cc e3 bb 30 7a 85 3a 97 9c 85 b9
       -2.2902737e-05 -0.0069518886 0.001018351 -0.00025484405
000030 b3 66 8c 3c 2e 30 4f bc 8e ea 25 3c b7 2a c5 3b
       0.017138815 -0.012645764 0.010126723 0.006017055
000040 26 1c 44 3c 3b 5a 0a 3d e6 3f 8d bc 24 4a 79 3a
       0.011969602 0.033777457 -0.017242383 0.0009509644
000050 43 a3 5a 3b 01 2c a9 bb 88 65 06 bc 99 1d 87 bb
       0.0033361472 -0.0051627164 -0.008202918 -0.0041234014
000060 54 c8 86 3b 5d 45 65 ba 01 2a 7c bc 7d 8f 81 bd
       0.0041132364 -0.00087459927 -0.015390874 -0.06326196
000070 f1 89 a0 3c 29 1b c5 3a 1c 71 4c 3a 87 ef 4e bb
       0.019597026 0.0015038002 0.0007798837 -0.0031575875

stages.2.0.norm.running_var f4 [32]
000000 16 7f 19 3b ab ee e1 39 39 67 c9 3c f6 28 35 3a
       0.0023421696 0.00043093166 0.024585353 0.00069107057
000010 80 31 6b 3b 02 04 55 3c 98 25 81 3c 16 56 66 3b
       0.0035887659 0.013001444 0.015764996 0.0035146526
000020 1d 5c 31 3b f0 29 06 3b 50 c1 e7 3c 3d 44 a3 3c
       0.002706296 0.0020471774 0.02829042 0.01993
000030 0f 9e ca 3b cb 59 95 3a ae 37 5a 3b 2d 4f a8 3d
       0.006183393 0.0011394558 0.0033297348 0.082182266
000040 5d b4 8d 3a 31 d0 30 3a c9 d4 63 3a 63 87 34 38
       0.0010811199 0.000674489 0.000869107 4.3041433e-05
000050 9c 9a 50 3c fa af 89 3a d9 51 33 39 cc 96 b8 3b
       0.012732174 0.0010504716 0.00017101261 0.0056332108
000060 00 09 b2 3d b3 5e 18 3d ed f0 b3 3b 0f ce 2c 3e
       0.08693123 0.037199687 0.005491367 0.1687548
000070 34 a7 92 3b 9f e6 85 39 be 87 5e 3c 45 96 52 3d
       0.0044754986 0.00025539563 0.013582168 0.05141284
