saved_models/polygen_myconvnext_2022_01_19_20_37_47.pt (torch, 132644 bytes, 125 tensors)

connection_layers.0.weight f4 [8, 1]
-1.1442538 -0.026975337 -1.8579489 0.27140117 0.227768 2.6523683 1.5591272 0.16682631
00000000: e976 92bf 62fb dcbc 45d1 edbf 18f5 8a3e
00000010: 043c 693e 67c0 2940 7b91 c73f 84d4 2a3e

connection_layers.0.bias f4 [8]
2.309755e-05 0.0010184335 1.3258432e-05 0.00010823831 0.00012081547 1.1384915e-05 1.993069e-05 0.0001750191
00000000: 9cc1 c137 f57c 853a 8870 5e37 00fe e238
00000010: 505e fd38 d601 3f37 d530 a737 5585 3739

connection_layers.1.weight f4 [16, 8]
0.12045669 -0.45723197 0.5395639 0.07104928 -0.16365641 0.45012966 -0.05588846 0.009022203
0.001002765 -0.3797083 0.23547 -0.27891618 0.07416842 0.19086383 -0.79776376 0.2895373
-0.76590115 -0.5759567 0.2522999 0.029768277 0.22177927 -0.475851 0.051028356 -0.34322813
0.64733696 0.46147367 0.018585108 -0.5138046 -0.043565698 -0.4553457 -0.07498128 -0.39289597
0.2207314 -0.32511178 -0.34544912 -0.061122373 -0.43884346 0.14138258 -0.06809294 0.037052035
0.054284565 -0.14829373 0.38759828 -0.012198296 0.021103159 0.25628778 -0.13079421 -1.09522
0.14735468 0.31547818 0.22369038 -0.5638876 -0.1519118 0.4063127 -0.3631146 -0.5585641
0.16959806 0.8496705 0.48822063 -0.00068109116 0.002073202 -0.0002544897 0.100278474 -1.2320404
0.21175183 -0.28563508 0.055848148 -0.15903099 0.45175076 0.052305136 0.25889075 -0.0772763
0.38528928 0.5458721 0.13227084 0.06803067 -0.48564988 -0.108999 -0.3176371 0.033022672
-0.26962054 0.023850694 0.004212445 -0.11837627 -0.050286938 0.056734268 0.64184487 -0.14039807
0.31202102 0.31516755 0.16679592 0.013613263 0.18857993 0.2244036 -0.015562927 0.52453834
0.08031541 1.0554545 0.48064345 -0.027917672 -0.29957342 -0.016359955 -0.5477463 -0.11321796
0.1163894 0.09808002 -0.107211664 0.2332703 0.61954033 -0.38734153 -0.25857943 -0.019869776
-0.46374202 0.42532933 0.00296692 -0.0982284 0.60806555 0.48654288 0.021522818 0.21867433
0.036313348 0.15881473 0.69652647 -0.34001017 0.012048991 -0.017970972 0.3270642 -0.55268675
00000000: ffb1 f63d 4f1a eabe dc20 0a3f 4982 913d
00000010: 8c95 27be 6577 e63e 4ceb 64bd ddd1 133c
00000020: 366f 833a 2069 c2be 0c1f 713e 1ace 8ebe
00000030: 9de5 973d cf71 433e 3f3a 4cbf 3c3e 943e
00000040: 1912 44bf e671 13bf 742d 813e 9adc f33c
00000050: 1b1a 633e bea2 f3be 1c03 513d 99bb afbe
00000060: e0b7 253f 4746 ec3e cc3f 983c b388 03bf
00000070: f271 32bd 1223 e9be c98f 99bd a929 c9be
00000080: 6a07 623e 0d75 a6be b5de b0be 745b 7abd
00000090: 17b0 e0be 98c6 103e 5074 8bbd e0c3 173d
000000a0: 7e59 5e3d 50da 17be 4873 c63e 5ddb 47bc
000000b0: 88e0 ac3c 2738 833e ebee 05be 2b30 8cbf
000000c0: 25e4 163e 5b86 a13e 170f 653e f05a 10bf
000000d0: c48e 1bbe 3808 d03e 28ea b9be 0ffe 0ebf
000000e0: 1dab 2d3e 0284 593f 0ef8 f93e 418b 32ba
000000f0: 8fde 073b 086d 85b9 cd5e cd3d 80b3 9dbf
00000100: 79d5 583e c33e 92be 07c1 643d 05d9 22be
00000110: e04b e73e e93d 563d 548d 843e 0943 9ebd
00000120: a344 c53e 46be 0b3f 0272 073e aa53 8b3d
00000130: 1aa7 f8be de3a dfbd 54a1 a2be c842 073d
00000140: b40b 8abe 8862 c33c 8d08 8a3b 426f f2bd
00000150: adf9 4dbd 3162 683d f24f 243f 83c4 0fbe
00000160: 38c1 9f3e a45d a13e 8dcc 2a3e 2a0a 5f3c
00000170: 191b 413e 0fca 653e a6fb 7ebc 2548 063f
00000180: 687c a43d 2219 873f e616 f63e 9ab3 e4bc
00000190: b061 99be 5005 86bc 1a39 0cbf d1de e7bd
000001a0: 915d ee3d 2dde c83d ca91 dbbd 69de 6e3e
000001b0: 329a 1e3f a151 c6be 8664 84be f1c5 a2bc
000001c0: 986f edbe c4c4 d93e a870 423b f92b c9bd
000001d0: 2faa 1b3f 261c f93e 9f50 b03c 2aec 5f3e
000001e0: 4ebd 143d 54a0 223e 8f4f 323f d015 aebe
000001f0: 2269 453c dc37 93bc f574 a73e e17c 0dbf

connection_layers.1.bias f4 [16]
0.009542726 -0.008778434 0.025044713 -0.016412076 0.0017942778 -0.001986224 -0.0018031449 -0.010147612
-0.05313084 -0.040040996 -0.008343732 0.0085166795 -0.0061081178 0.026246192 -0.00734207 -0.018958854
00000000: 1859 1c3c 6cd3 0fbc 922a cd3c 9e72 86bc
00000010: f92d eb3a 4f2b 02bb 8157 ecba 2b42 26bc
00000020: b99f 59bd 0702 24bd 26b4 08bc 8b89 0b3c
00000030: 9b26 c8bb 4102 d73c bf95 f0bb 994f 9bbc

connection_layers.2.weight f4 [32, 16]
-0.06053076 0.18229727 -0.00030714882 0.37202924 -0.14359763 0.48382792 -0.41154134 -0.108508386
-0.65813303 -0.023289539 0.07262615 -0.2071459 -0.16805883 -0.33171943 -0.013070403 -0.035974175
-0.013010333 0.02390937 9.618827e-05 -0.0011516176 -0.0012070461 0.008500036 -0.27376485 -0.13017578
0.063007735 0.14906795 0.51424706 0.015187971 0.015520582 -0.08989904 -0.03775361 0.006799194
-0.0021268784 0.007853022 -0.21076171 0.0087333955 -0.25845832 0.74526846 0.004884445 -0.00029994623
0.1284757 -0.25902689 -0.38137597 -0.06434692 0.0044067143 0.32131407 0.575846 0.0028181085
-0.8253107 0.017287195 0.0015408451 0.00017179697 -0.21597402 0.10140891 -0.126814 -0.092478104
-0.56022733 -0.1051143 0.003935196 0.0881337 0.13274825 -0.24828188 -0.23731208 -0.1380082
0.60117555 -0.20861827 -0.0007227424 0.13910513 0.013504497 -0.0045048636 -0.11757523 -0.0027252217
0.0033140609 0.14710471 -0.011868014 -0.035566986 0.14279911 -0.21186396 -0.116355926 0.11381676
0.009677716 0.04805708 -0.11255143 0.027715033 -0.0018534006 -0.08720058 0.35914382 0.25724566
0.17648618 -0.045022834 0.42361802 0.20926787 0.16283531 -0.74931026 0.040396564 0.09994822
0.059835088 -0.05162258 -0.06322121 -0.03191525 -0.011465708 0.072572015 0.12730041 0.6714796
0.010835647 -0.017964488 0.39922538 0.14998652 -0.12338897 -0.0069139777 0.0034318364 -0.045903742
-0.12804611 0.012734758 -0.15234719 -0.007555464 0.33877763 -0.38192797 -0.45183328 0.08252523
-0.048338655 -0.113806754 -0.005647765 -0.00082266564 -0.124216184 -0.0136408415 -0.06427417 0.19812989
-0.05091149 -0.095809296 0.43306518 0.00012650593 0.25567034 -0.1921944 -0.0014665886 -0.0012585076
0.09975105 0.73476607 -0.30308896 -0.0017250573 -0.0038903395 0.29160666 -0.12761065 -0.24579701
0.017452225 0.007993499 -0.563447 0.044357795 0.18791945 0.062557444 0.16462572 -0.02582808
-0.17256974 0.015662437 0.0057393652 0.40872818 -0.32564768 0.43968523 -0.30134186 -0.18374053
0.09025934 -0.2507196 0.1970301 0.24460207 -0.06822539 -0.0034738646 0.21459341 -0.57842946
0.46614584 -0.51505 -0.015463637 -0.6654487 0.026767535 0.025299309 -0.0688842 -0.07598832
0.37616268 0.3043465 0.0004788146 -0.10555037 -0.0014234249 0.28183898 0.01161213 -0.06988949
-0.46745336 0.0073755537 -0.00036017798 -0.2760471 -0.005969056 0.15980998 -0.1995176 -0.11396686
0.5031064 0.0148132695 0.55240214 -0.0014559536 0.24102673 0.4197901 0.006979311 0.26280937
-0.21326542 0.13288361 -0.0008167591 0.015928589 -0.3737429 0.4551463 -0.18781842 0.07795076
-0.41058892 0.26154342 0.017343113 0.45764473 -0.1443878 -0.11876619 0.14018485 0.23095581
0.24500413 0.007345769 -0.0995919 0.2620165 -0.048220538 -0.12923874 0.029445082 -0.0037251948
-0.2676355 0.26660052 -0.21159308 0.18095115 0.12792999 0.073089555 0.056499656 0.17194496
0.30513895 -0.029089132 -0.0038412753 0.003813443 0.36110255 -0.08965436 0.054687675 0.096430875
0.012186579 -0.5632519 -0.24518539 0.14012782 0.1471101 -0.14484972 0.43564874 -0.44157854
0.25395826 0.00044104998 0.16517799 0.39011014 -0.008249336 0.008589468 0.11275009 -0.14764042
00000000: 1aef 77bd 23ac 3a3e d108 a1b9 9e7a be3e
00000010: 420b 13be 4bb8 f73e 8cb5 d2be a539 debd
00000020: 687b 28bf b4c9 bebc 05bd 943d 0e1e 54be
00000030: 9d17 2cbe 21d7 a9be 3e25 56bc a859 13bd
00000040: 4b29 55bc 95dd c33c afb8 c938 e0f1 96ba
00000050: bf35 9eba bc43 0b3c e82a 8cbe cd4c 05be
00000060: 330a 813d 45a5 183e b2a5 033f f8d6 783c
00000070: 0a4a 7e3c fd1c b8bd 88a3 1abd c6cb de3b
00000080: 1963 0bbb f6a9 003c ebd1 57be 8416 0f3c
00000090: a654 84be eac9 3e3f b20d a03b 1a42 9db9
000000a0: 228f 033e 2c9f 84be b643 c3be 51c8 83bd
000000b0: 3366 903b 4783 a43e a56a 133f 04b0 383b
000000c0: 9047 53bf e09d 8d3c 2ff6 c93a 6624 3439
000000d0: 4b28 5dbe 79af cf3d 87db 01be 2965 bdbd
000000e0: 0f6b 0fbf 2b46 d7bd d1f2 803b 717f b43d
000000f0: 28ef 073e 9b3d 7ebe f001 73be 0652 0dbe
00000100: a4e6 193f 07a0 55be 6c76 3dba 9371 0e3e
00000110: f741 5d3c 899d 93bb 48cb f0bd a299 32bb
00000120: b730 593b 9ea2 163e 0f72 42bc b0ae 11bd
00000130: ee39 123e def2 58be 044c eebd c318 e93d
00000140: 488f 1e3c 80d7 443d 5d81 e6bd a30a e33c
00000150: ceed f2ba 3896 b2bd b3e1 b73e b4b5 833e
00000160: cbb8 343e dd69 38bd 76e4 d83e 514a 563e
00000170: 4dbe 263e ccd2 3fbf de76 253d a7b1 cc3d
00000180: a315 753d 3372 53bd 1f7a 81bd 91b9 02bd
00000190: aada 3bbc a3a0 943d 0a5b 023e 16e6 2b3f
000001a0: ff87 313c 432a 93bc 4567 cc3e 1196 193e
000001b0: 5bb3 fcbd a68e e2bb a9e8 603b 9005 3cbd
000001c0: 851e 03be 72a5 503c e700 1cbe d393 f7bb
000001d0: 4374 ad3e 108c c3be b156 e7be fd02 a93d
000001e0: c1fe 45bd 8413 e9bd e310 b9bb 28a8 57ba
000001f0: 0e65 febd d67d 5fbc 2da2 83bd 90e2 4a3e
00000200: 9188 50bd aa37 c4bd b8ba dd3e ada6 0439
00000210: 39e7 823e 9cce 44be 8c3a c0ba 82f4 a4ba
00000220: 474a cc3d a119 3c3f 7a2e 9bbe 511b e2ba
00000230: 11f5 7ebb 784d 953e 5eac 02be 36b2 7bbe
00000240: f8f7 8e3c 2af7 023c 103e 10bf 85b0 353d
00000250: f56d 403e 1e1e 803d a593 283e 6995 d3bc
00000260: 1fb6 30be 834e 803c 4911 bc3b d244 d13e
00000270: 4bbb a6be 6c1e e13e 7b49 9abe 7a26 3cbe
00000280: e4d9 b83d 525e 80be 42c2 493e f778 7a3e
00000290: c1b9 8bbd c7a9 63bb 60be 5b3e f413 14bf
000002a0: abaa ee3e 51da 03bf 325b 7dbc d95a 2abf
000002b0: 9747 db3c 7f40 cf3c 2913 8dbd c49f 9bbd
000002c0: 6598 c03e 4ed3 9b3e 6809 fb39 cb2a d8bd
000002d0: 3792 baba 334d 903e ce40 3e3c 3922 8fbd
000002e0: 0c56 efbe a1ae f13b 45d6 bcb9 0c56 8dbe
000002f0: 1298 c3bb 3aa5 233e 574e 4cbe 7567 e9bd
00000300: 95cb 003f 5bb3 723c 3a6a 0d3f b2d5 beba
00000310: b6cf 763e baee d63e b4b2 e43b f38e 863e
00000320: 4062 5abe a412 083e c61b 56ba ac7c 823c
00000330: 3b5b bfbe f008 e93e 7953 40be a6a4 9f3d
00000340: b638 d2be 05e9 853e 2513 8e3c 6950 ea3e
00000350: 65da 13be b03b f3bd 9e8c 0f3e ae7f 6c3e
00000360: 5de2 7a3e c7b4 f03b d7f6 cbbd 0727 863e
00000370: e682 45bd 2957 04be d036 f13c 6622 74bb
00000380: 8507 89be dd7f 883e dbab 58be 424b 393e
00000390: 1400 033e faaf 953d 2f6c 673d 5712 303e
000003a0: 2c3b 9c3e 554c eebc e8bd 7bbb f5ea 793b
000003b0: 6fe2 b83e b59c b7bd 2f00 603d 8d7d c53d
000003c0: 38aa 473c 4731 10bf e111 7bbe ab7d 0f3e
000003d0: 08a4 163e 7c53 14be 5a0d df3e 9516 e2be
000003e0: d106 823e ba3c e739 6b24 293e 84bc c73e
000003f0: 3928 07bc d7ba 0c3c 85e9 e63d 0d2f 17be

connection_layers.2.bias f4 [32]
-0.007277535 -0.0062977867 0.00096073945 0.0038969426 0.01056876 0.022074 -0.015680365 -0.01287303
0.012938927 0.013980556 0.020812819 0.020396175 -0.00793578 -0.005912528 -0.039239276 0.017060043
0.025365667 -0.011420953 -0.017092621 0.0036928717 -0.031193456 -0.0006358419 -0.0010426271 -0.035845503
0.024147322 -0.011855371 0.025104301 -0.0024658677 -0.010562479 0.02399361 0.016434941 -0.018379336
00000000: 6378 eebb aa5d cebb 22da 7b3a d963 7f3b
00000010: 9828 2d3c 89d4 b43c 1c74 80bc 67e9 52bc
00000020: cbfd 533c b40e 653c a57f aa3c e115 a73c
00000030: 1305 02bc e1bd c1bb 5db9 20bd 81c1 8b3c
00000040: a9cb cf3c f31e 3bbc d305 8cbc 1b04 723b
00000050: 6b89 ffbc a1ae 26ba c3a8 88ba bcd2 12bd
00000060: 9bd0 c53c 083d 42bc 89a7 cd3c 659a 21bb
00000070: 3f0e 2dbc 3f8e c43c 92a2 863c 4390 96bc

norm_layers.0.weight f4 [8]
0.80599684 0.80599225 0.8058937 0.8059965 0.8060009 0.80588347 0.8059961 0.8059875
00000000: cf55 4e3f 8255 4e3f 0d4f 4e3f c955 4e3f
00000010: 1356 4e3f 614e 4e3f c355 4e3f 3255 4e3f

norm_layers.0.bias f4 [8]
0.014272261 0.015268558 0.07318161 0.015356855 -0.027524957 -0.06666731 -0.020057293 -0.030844802
00000000: 34d6 693c f928 7a3c 3de0 953d 519b 7b3c
00000010: 057c e1bc df88 88bd 314f a4bc 3dae fcbc

norm_layers.0.running_mean f4 [8]
-0.07346963 -0.00071384537 -0.119319625 0.017540615 0.014749649 0.17036788 0.10016021 0.010891277
00000000: 3f77 96bd 5a21 3bba d95d f4bd 56b1 8f3c
00000010: 83a8 713c eb74 2e3e cc20 cd3d 5471 323c

norm_layers.0.running_var f4 [8]
0.07869471 4.37332e-05 0.20747556 0.0044272537 0.0031181655 0.42283052 0.14610429 0.0016728189
00000000: b12a a13d 2a6e 3738 7974 543e 7f12 913b
00000010: 235a 4c3b 3e7d d83e 5d9c 153e 7d42 db3a

norm_layers.1.weight f4 [8]
0.8399464 0.8175068 0.80863327 0.80751014 0.8251382 0.81205887 0.8159544 0.8083609
00000000: ba06 573f 2048 513f 9702 4f3f fcb8 4e3f
00000010: 423c 533f 17e3 4f3f 63e2 503f bdf0 4e3f

norm_layers.1.bias f4 [8]
-0.04590639 -0.029356617 -0.02004627 0.035940107 0.011914142 -0.007153738 -0.02218598 0.030166952
00000000: 5708 3cbd 4a7d f0bc 1338 a4bc ef35 133d
00000010: 8933 433c e769 eabb 5fbf b5bc af20 f73c

norm_layers.1.running_mean f4 [8]
-0.0018078544 -0.0001652195 6.177174e-05 -0.00033428817 7.673898e-05 -0.0003291058 0.00029378055 0.003463036
00000000: 87f5 ecba c63e 2db9 738b 8138 6643 afb9
00000010: edee a038 d58b acb9 8f06 9a39 1af4 623b

norm_layers.1.running_var f4 [8]
2.2817699e-06 8.485973e-07 1.0564403e-07 1.1287759e-06 2.138023e-06 3.6609529e-06 1.141402e-06 6.2167084e-05
00000000: 8220 1936 2acb 6335 6bde e233 7280 9735
00000010: f57a 0f36 b1ae 7536 4632 9935 b35f 8238

norm_layers.2.weight f4 [16]
0.8069026 0.80859816 0.80658466 0.8064531 0.80640316 0.8118874 0.8055245 0.80600005
0.80958366 0.8097344 0.80813795 0.8070656 0.80592877 0.8074497 0.8070349 0.8051785
00000000: 2b91 4e3f 4a00 4f3f 557c 4e3f b673 4e3f
00000010: 7070 4e3f dad7 4f3f db36 4e3f 0556 4e3f
00000020: e040 4f3f c14a 4f3f 21e2 4e3f da9b 4e3f
00000030: 5951 4e3f 06b5 4e3f d799 4e3f 2e20 4e3f

norm_layers.2.bias f4 [16]
0.022696475 -0.040886007 -0.011826569 0.008251327 0.0019292403 0.004288504 -0.008441287 -0.011498866
0.0152256815 0.028915318 0.0115227215 -0.00041211362 0.003577187 -0.017171528 -0.017478235 -0.03325997
00000000: f5ed b93c 1678 27bd 3ac4 41bc 9330 073c
00000010: 90de fc3a 9486 8c3b 534d 0abc bd65 3cbc
00000020: 2375 793c d1df ec3c ccc9 3c3c f410 d8b9
00000030: 3d6f 6a3b 4eab 8cbc 842e 8fbc 9b3b 08bd

norm_layers.2.running_mean f4 [16]
-4.2386087e-05 -4.4400418e-05 3.0038213e-05 -8.871444e-10 -6.243832e-05 -0.0037494856 -3.799714e-05 -7.068702e-05
-0.0002825637 0.00045932282 3.634753e-05 4.0992443e-05 0.00025123652 8.2865634e-05 -0.0018959574 -0.002368583
00000000: b7c7 31b8 963a 3ab8 92fa fb37 3ddb 73b0
00000010: 51f1 82b8 eeb9 75bb 1e5f 1fb8 ce3d 94b8
00000020: 0f25 94b9 44d1 f039 dd73 1838 4def 2b38
00000030: 65b8 8339 26c8 ad38 c681 f8ba 3b3a 1bbb

norm_layers.2.running_var f4 [16]
2.006767e-07 1.4458772e-06 4.667004e-09 9.057362e-12 2.528957e-07 1.357616e-05 5.702367e-07 2.615869e-08
2.153545e-07 4.5678775e-07 3.071538e-08 4.7497686e-08 1.578971e-07 1.5816671e-07 6.8188265e-06 2.290186e-05
00000000: 9779 5734 f60f c235 675b a031 bb56 1f2d
00000010: b8c5 8734 2ac5 6337 5e12 1935 91b3 e032
00000020: 323c 6734 6e3c f534 ebeb 0333 4200 4c33
00000030: 6d8a 2934 89d4 2934 46cd e436 5f1d c037

stages.0.0.gamma f4 [8]
0.0028205153 0.001674598 0.0012156349 -0.002829066 0.0028807514 0.0037574444 0.0031655026 0.01222746
00000000: 65d8 383b 2f7e db3a f055 9f3a da67 39bb
00000010: fdca 3c3b 753f 763b 5274 4f3b af55 483c

stages.0.0.norm.weight f4 [8]
0.82223594 0.8154773 0.82773787 0.81683785 0.8143925 0.81413305 0.832864 0.8201004
00000000: 0e7e 523f 1fc3 503f a1e6 533f 491c 513f
00000010: 077c 503f 066b 503f 9336 553f 1af2 513f

stages.0.0.norm.bias f4 [8]
0.0065562967 0.026809162 0.037639268 0.048601482 0.019451927 -0.011756797 0.02807181 -0.035125617
00000000: 34d6 d63b e39e db3c a22b 1a3d 5912 473d
00000010: a659 9f3c 959f 40bc daf6 e53c e1df 0fbd

stages.0.0.norm.running_mean f4 [8]
-0.0057128225 0.0013781637 0.016088525 0.0007799113 0.0054631284 -0.12327064 0.007166418 0.015417113
00000000: a132 bbbb 80a3 b43a 15cc 833c f672 4c3a
00000010: 0b04 b33b 5175 fcbd 45d4 ea3b 0f98 7c3c

stages.0.0.norm.running_var f4 [8]
0.7413059 0.73483783 0.24577758 0.3320948 0.12540773 1.2584289 0.27502763 1.1076213
00000000: 39c6 3d3f 551e 3c3f 1ead 7b3e 5408 aa3e
00000010: e26a 003e 3314 a13f 6cd0 8c3e 89c6 8d3f

stages.0.0.pwconv1.weight f4 [16, 8]
-0.19656435 -0.113488875 0.19371012 0.16208036 0.39021617 0.6525901 -0.09336364 0.33112666
-0.28244543 -0.08717005 -0.18709813 0.32040957 0.3650609 -0.47031707 -0.3902554 0.052840848
-0.10005158 -0.1616446 0.33912888 -0.04721963 0.38150445 0.23710756 0.08470553 0.15112883
-0.018952787 -0.022767521 -0.24223337 -0.14820035 0.1312383 -0.4157935 0.036597475 -0.4564073
-0.33565643 0.2423852 0.46367538 -0.14780834 0.6511788 -0.03881838 -0.81683105 1.0405084
0.089969836 0.21656713 0.13793227 -0.020395318 1.1281048 -0.06893418 0.44902697 -0.047770597
-0.050521307 0.47191235 0.8956842 0.22540902 -0.012864871 0.16992618 0.15102062 0.36850888
0.4020841 0.24625747 -0.10792882 0.8251984 -0.31715 0.09861885 0.49095955 -0.287473
0.24153459 0.47718966 -0.13234165 -0.41525906 -0.26906583 -0.15120663 0.11111236 -0.3167131
-0.021477843 -0.36536068 0.522546 0.18553312 -0.0031076577 -3.7572412e-05 -0.03412008 0.025665317
-0.68775964 -0.28696987 0.0083736405 0.18252903 -0.09022879 -0.040269054 0.12416864 -0.13670166
0.19859174 0.59822 0.20058598 0.009743083 0.6512052 -0.41996697 0.5953809 -0.16956505
0.08004657 -0.09965813 -0.0009088796 0.000380029 0.044869572 1.1264148 -0.011659276 -0.0052492004
-0.0098909335 -0.7326652 0.14402753 0.73738706 -0.2007793 -0.5397212 0.46902022 -0.5285886
-0.13502042 0.5806532 -0.16132426 -0.19580758 -0.07281993 -0.77048963 -0.6659991 -0.5273365
0.17911042 -0.23133162 -0.4108342 -0.23610114 -0.15689518 -0.12704577 -0.29306084 0.34372726
00000000: 2a48 49be db6c e8bd f25b 463e 65f8 253e
00000010: 6aca c73e 2510 273f 7035 bfbd 6f89 a93e
00000020: b09c 90be 3686 b2bd a796 3fbe b90c a43e
00000030: 43e9 ba3e 66cd f0be 8ecf c7be a56f 583d
00000040: d8e7 ccbd 2986 25be 4da2 ad3e 5f69 41bd
00000050: 8d54 c33e 53cc 723e 187a ad3d 84c1 1a3e
00000060: e042 9bbc f482 babc 060c 78be d5c1 17be
00000070: 5563 063e e3e2 d4be 3ce7 153d 38ae e9be
00000080: 29db abbe d333 783e dc66 ed3e 125b 17be
00000090: a7b3 263f 0600 1fbd d71b 51bf 612f 853f
000000a0: 1b42 b83d c6c3 5d3e 1e3e 0d3e 1514 a7bc
000000b0: bd65 903f 5d2d 8dbd dde6 e53e 1aab 43bd
000000c0: 6eef 4ebd 7f9e f13e 8f4b 653f 9fd1 663e
000000d0: 2ec7 52bc 2101 2e3e 26a5 1a3e 32ad bc3e
000000e0: f8dd cd3e eb2a 7c3e c909 ddbd 3440 533f
000000f0: 7c61 a2be aef8 c93d 0d5f fb3e a92f 93be
00000100: d854 773e 3452 f43e 9284 07be d69c d4be
00000110: ffc2 89be e9d5 1abe e18e e33d 3828 a2be
00000120: 4df2 afbc 8e10 bbbe 93c5 053f 65fc 3d3e
00000130: d8a9 4bbb 1297 1db8 7fc1 0bbd 1240 d23c
00000140: 0411 30bf b7ed 92be 9831 093c e4e8 3a3e
00000150: dfc9 b8bd 2af1 24bd 214c fe3d 85fb 0bbe
00000160: a25b 4b3e f224 193f 6966 4d3e 74a1 1f3c
00000170: 62b5 263f e905 d7be e26a 183f 76a2 2dbe
00000180: 75ef a33d 9019 ccbd e141 6eba a13e c739
00000190: 28c9 373d 5c2e 903f 8c06 3fbc 7c01 acbb
000001a0: 950d 22bc f28f 3bbf f47b 133e 66c5 3c3f
000001b0: 1799 4dbe 2b2b 0abf 6b23 f03e 9551 07bf
000001c0: cb42 0abe b0a5 143f 3032 25be c881 48be
000001d0: 9e22 95bd cf3e 45bf eb7e 2abf 86ff 06bf
000001e0: b968 373e 32e2 6cbe dc58 d2be 7fc4 71be
000001f0: 21a9 20be 4918 02be 120c 96be 05fd af3e

stages.0.0.pwconv1.bias f4 [16]
0.0290564 0.03017063 0.017385365 -0.033930793 -0.017363558 0.015827533 0.032563172 0.035895355
0.038089607 0.027056588 0.010615502 0.025482792 0.008944157 0.015557471 0.03164451 -0.0064707533
00000000: b007 ee3c 6628 f73c c16b 8e3c 04fb 0abd
00000010: 053e 8ebc bea8 813c f660 053d 0207 133d
00000020: d903 1c3d c7a5 dd3c a4ec 2d3c 4ac1 d03c
00000030: 838a 123c c3e4 7e3c ac9d 013d 9d08 d4bb

stages.0.0.pwconv2.weight f4 [8, 16]
0.03138341 -0.6873567 0.37169874 0.010485908 -0.06751635 -0.09489819 -0.6882882 0.15043353
0.4506033 -0.020376869 -0.13772638 0.039323512 0.11653905 -0.4833332 -0.61650914 0.06568592
-0.5665142 0.12380655 0.23086114 -0.25053614 -0.14036375 -0.012427882 -0.10834918 0.063633665
-0.47645226 -0.09939685 -0.119222105 -0.13011976 -0.12244971 0.32454565 0.2683087 0.18478052
-0.029892083 0.10896167 0.017147794 0.030878935 -0.17709593 -0.54963917 -0.12145893 0.020841694
0.1802999 0.008182778 0.2602652 0.32407457 0.037971485 0.027421888 0.1944693 0.007343178
0.1684376 0.066938594 0.5709227 -0.08209677 0.084112555 0.27183625 -0.39452982 0.008860745
-0.044248164 0.007098668 0.47753686 -0.46694452 0.25554597 0.0516096 -0.047354937 0.062163923
0.061688643 0.3091254 -0.090411246 0.33034447 -0.53336555 0.13030043 0.10439998 0.33057645
0.347046 -0.057492472 0.07375324 -0.2816271 -0.07871658 0.20926024 -0.31788415 -0.051991057
0.061548408 -0.10054819 -0.033733346 0.11390863 0.11750039 -0.13079025 -0.48521355 0.3985798
0.5020156 -0.2641411 -0.051645253 -0.08384158 -0.21944666 0.17974886 -0.048342433 -0.07923654
0.012054834 0.29825604 0.06365536 -0.21363917 0.21535876 0.18631859 0.15143633 -0.09853171
-0.09597424 -0.0076614944 0.022288028 0.11708656 -0.04688197 -0.12375057 -0.22149755 -0.048201416
-0.017581293 -0.10396269 0.60790944 0.034935858 0.2869905 0.013104377 0.15379843 0.34807688
0.17232096 0.16716842 0.16987969 -0.18545496 0.08735132 0.2761866 -0.40250567 -0.06162597
00000000: e48b 003d 9cf6 2fbf 4c4f be3e 16cd 2b3c
00000010: 0346 8abd fb59 c2bd a833 30bf 3f0b 1a3e
00000020: 7ab5 e63e 64ed a6bc 2508 0dbe b111 213d
00000030: 07ac ee3d 7377 f7be 8bd3 1dbf 5786 863d
00000040: 1307 11bf 4a8e fd3d dd66 6c3e 4646 80be
00000050: 84bb 0fbe 519e 4bbc 2de6 ddbd 5e52 823d
00000060: 8df1 f3be 9390 cbbd b82a f4bd 1d3e 05be
00000070: eac6 fabd d92a a63e c25f 893e 1b37 3d3e
00000080: 3ee0 f4bc 4c27 df3d 8879 8c3c d2f5 fc3c
00000090: a358 35be 27b5 0cbf 76bf f8bd 33bc aa3c
000000a0: 89a0 383e 0f11 063c 7b41 853e 1aed a53e
000000b0: fd87 1b3d dea3 e03c f622 473e 0b9f f03b
000000c0: e87a 2c3e 1a17 893d fd27 123f 5a22 a8bd
000000d0: 3443 ac3d 1f2e 8b3e d0ff c9be a82c 113c
000000e0: 903d 35bd f19b e83b b67f f43e 5a13 efbe
000000f0: ecd6 823e 9764 533d 40f7 41bd 999f 7e3d
00000100: 3bad 7c3d af45 9e3e 8829 b9bd e922 a93e
00000110: a58a 08bf 7a6d 053e a8cf d53d 5141 a93e
00000120: 03b0 b13e 3a7d 6bbd f00b 973d 6d31 90be
00000130: 2936 a1bd 5148 563e b6c1 a2be 93f4 54bd
00000140: 2f1a 7c3d 36ec cdbd fa2b 0abd ee48 e93d
00000150: 0ba4 f03d e1ed 05be e96d f8be a712 cc3e
00000160: 1884 003f 813d 87be f989 53bd 22b5 abbd
00000170: a0b6 60be 1610 383e b702 46bd c446 a2bd
00000180: a381 453c 04b5 983e be5d 823d 3ac4 5abe
00000190: 0287 5c3e 4dca 3e3e 2012 1b3e feca c9bd
000001a0: 248e c4bd 460d fbbb 6295 b63c 14cb ef3d
000001b0: 4f07 40bd f070 fdbd 41d0 62be d96e 45bd
000001c0: a506 90bc 64ea d4bd f49f 1b3f e718 0f3d
000001d0: 6bf0 923e beb3 563c 567d 1d3e 2237 b23e
000001e0: e874 303e 332e 2b3e f1f4 2d3e e8e7 3dbe
000001f0: 40e5 b23d 5468 8d3e 3915 cebe 836b 7cbd

stages.0.0.pwconv2.bias f4 [8]
1.0737983e-05 4.524764e-06 2.8176398e-06 -8.155067e-06 4.7588765e-06 4.5467864e-06 8.204613e-06 1.2480991e-05
00000000: 4927 3437 6dd3 9736 af16 3d36 bfd1 08b7
00000010: 70ae 9f36 9990 9836 8ba6 0937 7365 5137

stages.1.0.gamma f4 [16]
0.0012277171 -0.004570723 0.00028074137 1.3023128e-05 -0.0016761161 0.0147579415 0.0014491281 0.00023211504
0.0011766494 0.002234453 0.0008589763 0.00057457335 0.0012562474 -0.0009984045 0.0071121086 0.01208948
00000000: 5aeb a03a 01c6 95bb 7830 9339 e97d 5a37
00000010: 20b1 dbba 4bcb 713c acf0 bd3a e863 7339
00000020: cd39 9a3a e76f 123b ec2c 613a f79e 163a
00000030: aba8 a43a e5dc 82ba b10c e93b f412 463c

stages.1.0.norm.weight f4 [16]
0.81591374 0.8098786 0.8089662 0.81216997 0.8098322 0.8100896 0.80683595 0.8049749
0.812262 0.8325759 0.81020856 0.81247085 0.8107137 0.82909894 0.8223378 0.807065
00000000: b9df 503f 3454 4f3f 6918 4f3f 5fea 4f3f
00000010: 2a51 4f3f 0862 4f3f cd8c 4e3f d612 4e3f
00000020: 67f0 4f3f b223 553f d469 4f3f 17fe 4f3f
00000030: ef8a 4f3f d43f 543f bb84 523f d09b 4e3f

stages.1.0.norm.bias f4 [16]
-0.010510729 0.029301144 0.013398037 -0.008463709 0.0033770814 -0.0035233963 -0.019935837 0.073292926
-0.033249155 -0.005030107 0.02769247 -0.022186574 0.025490096 0.021717247 0.0311267 0.01231652
00000000: 3135 2cbc f408 f03c 7183 5b3c 5eab 0abc
00000010: 0652 5d3b c8e8 66bb 7b50 a3bc 9a1a 963d
00000020: 4430 08bd 99d3 a4bb 52db e23c 9ec0 b5bc
00000030: 9bd0 d03c 5ee8 b13c 6cfd fe3c 3bcb 493c

stages.1.0.norm.running_mean f4 [16]
-0.0035912711 -0.013341453 0.105260424 -0.028577093 -0.002086434 0.0014956803 0.017481036 0.054011676
0.13273609 0.03149377 0.024644537 0.0018752207 0.09173057 0.03091391 -0.008042775 0.11689149
00000000: 885b 6bbb 1c96 5abc c792 d73d 821a eabc
00000010: 8ebc 08bb b40a c43a 6434 8f3c 593b 5d3d
00000020: f8eb 073e 9dff 003d 57e3 c93c f7c9 f53a
00000030: 3ddd bb3d 2b3f fd3c d8c5 03bc ce64 ef3d

stages.1.0.norm.running_var f4 [16]
0.03118916 0.23775439 0.09616768 0.038481977 0.021516314 1.00044 0.113383956 1.0122145
0.044306394 0.016896538 0.16756023 0.24470103 0.14585394 0.027979711 0.36875314 0.21118401
00000000: 6980 ff3c e375 733e 90f3 c43d 479f 1d3d
00000010: fb42 b03c 6b0e 803f d935 e83d 3f90 813f
00000020: 9f7a 353d 9c6a 8a3c e994 2b3e e892 7a3e
00000030: bc5a 153e b535 e53c 36cd bc3e 9f40 583e

stages.1.0.pwconv1.weight f4 [32, 16]
0.0023645689 0.26547652 0.037471104 -0.070635125 -0.034708187 -0.15890391 -0.004060187 -0.0214668
0.0018775357 0.08903834 -0.005715856 0.034323655 0.026437277 -0.08260244 -0.096403494 0.009439897
0.14942251 -0.37257025 -0.009225006 -0.09139517 -0.0020541905 -0.22332679 -0.031382326 -0.03317169
-0.024315309 0.0001573796 0.0037244319 -0.16070886 0.515881 -0.025844853 0.0062481286 -0.023204846
0.17857046 0.26627246 0.08405569 0.09286105 -0.062481318 0.049386203 -0.09348555 -0.05557133
-0.30727193 0.44359753 0.021796595 -0.19227497 -0.13653685 -0.062103648 0.13660218 0.31885642
0.09745405 0.002138542 0.01599694 -0.2884874 0.014988904 0.05612671 0.011358346 -0.046525106
0.44672284 0.19039287 -0.13124193 0.023861354 -0.038482603 -0.080589 -0.0011619447 -0.47091195
0.039329834 0.023740508 0.57949644 0.07723576 -0.0067376955 0.30299956 0.08355091 -0.4153506
0.333278 0.13952307 -0.014047215 0.022594627 -0.25876635 0.006009958 -0.18281077 0.45130864
-0.11896281 -0.044380654 -0.36249873 0.011713164 -0.015980303 -0.02679585 -0.06445924 -0.01558589
-0.47384793 -0.33046684 -0.008883211 -0.09607236 -0.11543218 -0.29075778 -0.024547437 -0.49197447
0.041591156 -0.07788582 0.09560045 -0.056017786 0.5302981 0.09151437 -0.5433457 -0.13006048
-0.73191774 0.06603134 -0.09160838 0.18092035 -0.3485603 0.066984795 -0.39516863 -0.11008645
0.020403882 -0.3431732 -0.029988142 -0.03166652 -0.0063479957 -0.051654536 0.072054155 -0.72459036
0.019071275 -0.16347088 -0.2786532 -0.00027957142 0.17631543 0.0022334007 -0.26368934 -0.07356174
-0.17310208 0.018981803 0.5445484 -0.36823273 -0.052164365 0.17241904 0.055038355 -0.0086252885
0.15282825 -0.022446187 -0.32284108 0.16977419 0.081854604 0.07276759 0.049317654 0.030120058
0.89401126 -0.36559558 -0.016659232 0.01942191 0.30821633 0.03784226 -0.45496857 0.016285252
-0.5596782 -0.21156466 0.004240675 0.50155336 0.0031280043 -0.12102068 -0.00085463945 -0.014606394
0.58548117 0.020683058 0.21218725 0.047944732 -0.1882081 -0.17805073 -0.08598429 0.26175928
0.0291433 -0.03464931 -0.23881064 -0.12971482 -0.13816325 0.015201608 -0.034847397 0.110943794
0.18271683 -0.33335486 -0.014691401 -0.01003711 0.0010433218 -0.04236647 0.19695592 -0.6104911
0.10637749 0.0019884773 0.0066524604 0.2938666 0.0056118993 0.0047042132 -0.007004332 -0.2634583
-0.013540294 -0.070489615 0.1905817 0.010743129 -0.012003625 -0.12536652 -0.006010442 0.14626296
0.90025353 0.40799284 0.07782374 -0.25310585 -0.417452 0.03660118 0.012448689 -0.020117866
-0.44353375 -0.17187588 0.17603181 -0.150509 0.0022196374 0.08512483 -0.04784041 0.20498438
0.6308635 0.038066108 0.0828952 0.056734066 0.2851735 0.23973952 -0.047144473 -0.06316868
0.011764321 0.013593348 -0.03134608 -0.48550817 -0.32267323 0.00014318604 -0.06751954 0.49452212
0.20241226 -0.13173349 0.20649482 0.44359103 0.14018646 0.032319058 -0.021829816 0.20022121
-0.28096327 0.19626693 0.4666082 -0.014924375 0.5311187 -0.014197993 0.07960042 0.020148566
-0.54553473 -0.3272595 0.02037558 -0.0049105743 0.30830395 0.0083273025 -0.38388032 0.4758864
00000000: e2f6 1a3b 8aec 873e 4d7b 193d 26a9 90bd
00000010: 2c2a 0ebd b5b7 22be 510b 85bb 24db afbc
00000020: a517 f63a bc59 b63d 134c bbbb f696 0c3d
00000030: fd92 d83c 782b a9bd 326f c5bd cca9 1a3c
00000040: 3702 193e 87c1 bebe 7b24 17bc 642d bbbd
00000050: 999f 06bb c7af 64be c18a 00bd 0adf 07bd
00000060: e630 c7bc 4406 2539 9915 743b dd90 24be
00000070: c710 043f 96b8 d3bc 1abd cc3b 1718 bebc
00000080: 2ddb 363e dd54 883e 6425 ac3d ef2d be3d
00000090: 69ec 7fbd 3049 4a3d 5a75 bfbd c39e 63bd
000000a0: bf52 9dbe 371f e33e c68e b23c bbe3 44be
000000b0: 51d0 0bbe 6560 7ebd 71e1 0b3e 2641 a33e
000000c0: fd95 c73d c826 0c3b 040c 833c 9fb4 93be
000000d0: 0594 753c 1fe5 653d 5b18 3a3c 1c91 3ebd
000000e0: dbb8 e43e 59f6 423e 4964 06be e378 c33c
000000f0: ef9f 1dbd d80b a5bd 654c 98ba 5f1b f1be
00000100: 5218 213d 747b c23c e159 143f c82d 9e3d
00000110: e3c7 dcbb c222 9b3e bd1c ab3d d5a8 d4be
00000120: 6aa3 aa3e 23df 0e3e 4a26 66bc 5e18 b93c
00000130: 067d 84be 2fef c43b bf32 3bbe ed11 e73e
00000140: c6a2 f3bd 7dc8 35bd 6f99 b9be 92e8 3f3c
00000150: 20e9 82bc f882 dbbc 3503 84bd f65b 7fbc
00000160: 329c f2be f332 a9be e38a 11bc 96c1 c4bd
00000170: b567 ecbd 34de 94be b517 c9bc 14e4 fbbe
00000180: 7d5b 2a3d 9a82 9fbd 2bca c33d e872 65bd
00000190: 9ec1 073f e36b bb3d b418 0bbf 932e 05be
000001a0: f65e 3bbf 703b 873d 2d9d bbbd 2f43 393e
000001b0: 7f76 b2be 532f 893d 8b53 cabe 0175 e1bd
000001c0: 0b26 a73c 66b4 afbe b1a9 f5bc c1b4 01bd
000001d0: d902 d0bb b593 53bd 2191 933d c17e 39bf
000001e0: 5d3b 9c3c e964 27be a2ab 8ebe 7193 92b9
000001f0: 088c 343e 3f5e 123b 4a02 87be 8aa7 96bd
00000200: ac41 31be ba7f 9b3c 8667 0b3f 0089 bcbe
00000210: 4daa 55bd 9e8e 303e e66f 613d 1551 0dbc
00000220: 027f 1c3e 11e1 b7bc 6d4b a5be 49d9 2d3e
00000230: 63a3 a73d 2d07 953d 4f01 4a3d 57be f63c
00000240: ecdd 643f 582f bbbe f178 88bc b31a 9f3c
00000250: 88ce 9d3e 7c00 1b3d a4f1 e8be a668 853c
00000260: 1247 0fbf 68a4 58be 5cf5 8a3b cd65 003f
00000270: 34ff 4c3b b1d9 f7bd e209 60ba a84f 6fbc
00000280: 18e2 153f 846f a93c 9d47 593e b261 443d
00000290: a0b9 40be ee52 36be 8818 b0bd 5005 863e
000002a0: eebd ee3c 6fec 0dbd c78a 74be f6d3 04be
000002b0: ab7a 0dbe 2a10 793c 25bc 0ebd 8036 e33d
000002c0: 1f1a 3b3e 7dad aabe 34b4 70bc b172 24bc
000002d0: 12c0 883a 7788 2dbd d0ae 493e 2549 1cbf
000002e0: 71dc d93d 1d51 023b e2fc d93b af75 963e
000002f0: 06e4 b73b cd25 9a3b 9884 e5bb 02e4 86be
00000300: 1cd8 5dbc dc5c 90bd d927 433e f303 303c
00000310: daaa 44bc 1560 00be 3ef3 c4bb f5c5 153e
00000320: 0477 663f 70e4 d03e 0e62 9f3d 1797 81be
00000330: 45bc d5be 1eeb 153d 96f5 4b3c 39ce a4bc
00000340: db16 e3be 3b00 30be af41 343e 081f 1abe
00000350: 5677 113b ed55 ae3d 4ef4 43bd 6de7 513e
00000360: 4580 213f 35eb 1b3d f5c4 a93d fb61 683d
00000370: 4302 923e 477e 753e 901a 41bd 955e 81bd
00000380: 23bf 403c a2b6 5e3c bf64 00bd 8794 f8be
00000390: 6d35 a5be 3624 1639 af47 8abd 0132 fd3e
000003a0: 2945 4f3e 25e5 06be 6173 533e 5d1e e33e
000003b0: 0a8d 0f3e fd60 043d 71d4 b2bc ca06 4d3e
000003c0: 6bda 8fbe 33fa 483e 45e7 ee3e 5e85 74bc
000003d0: 65f7 073f b39e 68bc 8c05 a33d 9b0e a53c
000003e0: 2aa8 0bbf 8f8e a7be b0ea a63c e2e8 a0bb
000003f0: 04da 9d3e 3d6f 083c f68b c4be 62a7 f33e

stages.1.0.pwconv1.bias f4 [32]
0.011513673 -0.0061245733 0.030048152 0.02790017 -0.023366071 0.011499293 -0.023752736 -0.00019319309
-0.02998842 -0.008198008 0.013229138 -0.007746007 -0.058910396 0.02068766 0.005973536 0.0015410096
-0.0020732582 0.038712528 0.013425125 -0.02017748 0.017486108 0.060467083 0.049017962 0.0028958593
0.0066243876 0.019351868 0.011315537 0.017623637 0.026467418 -0.0054558446 0.009272905 0.028167397
00000000: d8a3 3c3c a5b0 c8bb 8b27 f63c e68e e43c
00000010: 346a bfbc 8867 3c3c 1995 c2bc e093 4ab9
00000020: 46aa f5bc f050 06bc 07bf 583c 37d2 fdbb
00000030: 074c 71bd 2b79 a93c a7bd c33b b4fb c93a
00000040: 80df 07bb 0791 1e3d 0ef5 5b3c 3e4b a5bc
00000050: 073f 8f3c 55ac 773d 0fc7 483d 75c8 3d3b
00000060: 6411 d93b cf87 9e3c cd64 393c 725f 903c
00000070: 33d2 d83c f1c6 b2bb 62ed 173c 50bf e63c

stages.1.0.pwconv2.weight f4 [16, 32]
-0.09194642 0.022214161 0.03454523 -0.080914326 0.014211785 -0.34794664 0.06686518 -0.15288886
-0.2711023 -0.11837795 -0.032479666 0.047607444 0.27299964 0.0062365984 0.11361589 0.031300686
0.013654308 0.30321229 0.12849817 -0.4138163 0.13259189 0.1307642 -0.14488345 -0.17753899
-0.016255014 -0.0026485594 0.35115457 -0.030712241 0.046252 0.062253535 -0.050086074 0.04393788
0.08456092 0.031079661 -0.06436591 0.1367417 0.097973205 -0.1856149 -0.041943863 -0.04630492
-0.13200146 -0.01628248 0.03884813 -0.054829717 -0.073888764 -0.051858168 -0.20342344 0.026237443
-0.13238941 -0.09108415 0.047352195 -0.0035755557 0.010164622 0.29214618 -0.020987732 -0.31538564
0.22045158 -0.078172654 0.0012661983 0.15163349 0.25331068 0.057926565 0.11222376 -0.10574886
-0.00039537644 0.023688743 -0.37978214 -0.00039395122 -0.0070865396 0.0025450021 0.0102902055 0.067981124
-0.06451295 0.0008138363 0.0008794975 -0.0017090826 0.09603171 -9.5374184e-05 0.11898316 0.003692309
-0.00023533206 0.38818264 0.0021964496 -0.055558894 0.0009960026 0.0013587851 0.0026618342 0.003319127
-0.0014370775 -0.02705024 -0.0030628417 0.2050489 -0.16868117 -0.014613688 0.19467993 0.0042624497
-0.09581293 -5.160087e-05 -5.1552222e-05 6.4231426e-05 -0.2728595 0.14060578 -3.511112e-05 0.058149606
0.0858042 0.19565117 -0.00017844609 -0.123340264 0.00015603086 8.633898e-05 0.006878525 -0.07721497
0.00016692435 -0.09564749 0.15085953 3.077883e-05 0.0012026933 6.1824714e-05 0.19677348 -7.522599e-05
0.0007661938 0.049634058 -0.0003238501 -0.27122447 -0.29210433 0.029731099 0.09454734 -0.18358053
-0.0029059483 0.007842304 -0.10769905 0.13793679 0.0010420652 0.02155077 -0.0061999834 0.13808493
0.2754413 0.01057875 -0.03142404 0.020594487 0.08544089 0.058189426 -0.06949763 0.018587377
0.0064263 -0.16954516 -0.0061841765 0.0040596114 0.043795638 -0.02625435 0.008840169 0.0063593932
-0.22372048 0.0056126323 -0.0031063056 0.361382 0.08925081 -0.16931777 0.002700315 -0.11411519
-0.03589924 -0.0065350803 -0.06453152 0.07531194 -0.14859162 -0.0062245647 -0.23205209 -0.13175666
-0.11858651 0.059418865 -0.28650412 -0.015148481 -0.15357581 0.1234591 -0.018303944 -0.052273452
0.02745827 -0.020093158 -0.0022712995 -0.31310752 -0.10251285 0.16167288 0.101397194 0.14986567
-0.14220421 0.0003732736 -0.020714637 0.07399761 0.02284848 -0.13235399 -0.0010663965 -0.07533418
-0.084609464 -0.10240048 -0.006703849 -0.23203632 -0.21819761 0.12793337 0.116343915 0.0006449316
0.2620491 0.12443823 0.15744136 -0.042408247 -0.44450665 0.037951246 0.07487709 0.25096998
0.0013893814 0.07613473 0.0251054 -0.14737034 -0.020348 0.09963324 0.17138793 -0.18463819
-0.07923188 -0.011234468 -0.43333778 0.016410664 -0.010118587 0.0060720756 -0.070184804 0.12054124
0.0024164713 -0.117684744 -0.042163108 -0.005830948 0.0011853807 0.0039272695 -0.009628102 -0.001832381
0.004838031 -0.0021744529 0.00757656 -0.32025886 0.27076644 0.1547755 -0.17286184 -0.0055592163
-0.02545028 -0.054102957 0.176191 0.0022904833 -0.08066884 -0.024030885 -0.748479 0.008348366
0.0025420194 0.00027698567 0.0050556147 -0.036555246 0.017579181 0.012816037 -0.1899625 0.15379547
00000000: 684e bcbd 79fa b53c 4d7f 0d3d 69b6 a5bd
00000010: 8cd8 683c 1026 b2be 9df0 883d e68e 1cbe
00000020: eccd 8abe 2370 f2bd 6609 05bd 0600 433d
00000030: 9cc6 8b3e 615c cc3b 73af e83d 2635 003d
00000040: 52b6 5f3c a43e 9b3e 0695 033e bbdf d3be
00000050: 2bc6 073e 0de7 053e 545c 14be c8cc 35be
00000060: 3c29 85bc 7493 2dbb 88ca b33e 3d98 fbbc
00000070: bd72 3d3d 90fd 7e3d 0e27 4dbd 35f8 333d
00000080: 472e ad3d c69a fe3c 46d2 83bd 0406 0c3e
00000090: 2da6 c83d d511 3ebe 54cd 2bbd 3aaa 3dbd
000000a0: 642b 07be d662 85bc 371f 1f3d 2095 60bd
000000b0: fe52 97bd 3b69 54bd 3c4e 50be e8ef d63c
000000c0: 1791 07be 548a babd 60f4 413d df53 6abb
000000d0: 8489 263c 2f94 953e 77ee abbc 3a7a a1be
000000e0: 0fbe 613e fc18 a0bd 91f6 a53a cf45 1b3e
000000f0: f0b1 813e 6844 6d3d 92d5 e53d dc92 d8bd
00000100: 874a cfb9 e50e c23c ce72 c2be 3d8b ceb9
00000110: 3436 e8bb 0dca 263b 4098 283c b039 8b3d
00000120: 5e1f 84bd a157 553a 148e 663a 4c03 e0ba
00000130: 46ac c43d a003 c8b8 71ad f33d aafa 713b
00000140: 78c3 76b9 e0bf c63e 4ff2 0f3b b991 63bd
00000150: 4d8c 823a 4319 b23a 2b72 2e3b b685 593b
00000160: 525c bcba 7798 ddbc f5b9 48bb 57f8 513e
00000170: c2ba 2cbe 406e 6fbc 2d5a 473e 05ac 8b3b
00000180: 9239 c4bd 036e 58b8 c739 58b8 fcb3 8638
00000190: 3eb4 8bbe f6fa 0f3e 4744 13b8 482e 6e3d
000001a0: 1dba af3d c858 483e 421d 3bb9 d299 fcbd
000001b0: 379c 2339 e310 b538 4065 e13b e222 9ebd
000001c0: 6a08 2f39 d5e2 c3bd ec7a 1a3e 8418 0138
000001d0: b1a3 9d3a e4a7 8138 fd7e 493e a5c2 9db8
000001e0: 65da 483a 154d 4b3d 6dca a9b9 efdd 8abe
000001f0: b38e 95be a28e f33c 09a2 c13d 89fc 3bbe
00000200: b971 3ebb 027d 003c 5291 dcbd 4d3f 0d3e
00000210: e895 883a 3e8b b03c 3b29 cbbb 2366 0d3e
00000220: a406 8d3e 7e52 2d3c 7fb6 00bd c5b5 a83c
00000230: a2fb ae3d 0958 6e3d c654 8ebd 8e44 983c
00000240: b693 d23b 3f9d 2dbe a2a4 cabb 7d06 853b
00000250: 0e63 333d 5d13 d7bc 5bd6 103c 7562 d03b
00000260: fb16 65be 2cea b73b 2993 4bbb 1007 b93e
00000270: 21c9 b63d a361 2dbe c5f7 303b 3ab5 e9bd
00000280: 150b 13bd 3a24 d6bb 1a29 84bd 253d 9a3d
00000290: 6728 18be 6ff7 cbbb 109f 6dbe 38eb 06be
000002a0: 7cdd f2bd 3261 733d abb0 92be 5631 78bc
000002b0: fa42 1dbe 20d8 fc3d 27f2 95bc b01c 56bd
000002c0: 2af0 e03c 689a a4bc 15da 14bb a14f a0be
000002d0: 42f2 d1bd 938d 253e 55a9 cf3d 6376 193e
000002e0: fb9d 11be efb3 c339 beb1 a9bc 0f8c 973d
000002f0: bc2c bb3c ce87 07be 54c6 8bba ce48 9abd
00000300: ba47 adbd 58b7 d1bd f6ab dbbb ee9a 6dbe
00000310: 326f 5fbe f700 033e b845 ee3d a110 293a
00000320: 4d2b 863e 79d9 fe3d 4f38 213e 45b4 2dbd
00000330: 6096 e3be c472 1b3d 2959 993d 237f 803e
00000340: e71b b63a 86ec 9b3d d7a9 cd3c 40e8 16be
00000350: d9b0 a6bc 830c cc3d 5180 2f3e cb11 3dbe
00000360: 5344 a2bd c610 38bc 73de ddbe a86f 863c
00000370: 6ec8 25bc 43f8 c63b 0dbd 8fbd 53de f63d
00000380: a95d 1e3b b304 f1bd 39b3 2cbd 8911 bfbb
00000390: c75e 9b3a 53b0 803b 30bf 1dbc 812c f0ba
000003a0: 5888 9e3b 4481 0ebb cb44 f83b f8f8 a3be
000003b0: e6a1 8a3e 787d 1e3e b202 31be 162a b6bb
000003c0: 1b7d d0bc 109b 5dbd 6a6b 343e ef1b 163b
000003d0: b435 a5bd 6bdc c4bc 529c 3fbf 96c7 083c
000003e0: 0298 263b 6338 9139 92a9 a53b f4ba 15bd
000003f0: 3702 903c 5bfa 513c 8885 42be 8f7c 1d3e

stages.1.0.pwconv2.bias f4 [16]
2.296448e-06 -5.068503e-06 9.3244654e-07 -2.1090065e-08 -2.8440782e-06 2.6696056e-05 3.7509412e-06 1.0270401e-06
1.8103366e-06 5.9678837e-06 1.3746471e-06 6.94568e-07 3.7565385e-06 -3.2377025e-06 1.5165696e-05 1.948461e-05
00000000: ad1c 1a36 1c12 aab6 3d4d 7a35 8b29 b5b2
00000010: e4dc 3eb6 58f1 df37 aeb8 7b36 d4d8 8935
00000020: b1fa f235 bb3f c836 8480 b835 5972 3a35
00000030: d718 7c36 4e47 59b6 2b70 7e37 e272 a337

stages.2.0.gamma f4 [32]
0.010278072 0.14644709 0.14788885 0.1466724 0.046725694 -0.12791462 -0.08149938 0.092506945
0.10402422 0.14007881 0.105535865 0.13449056 -0.123199515 0.15255505 -0.119743794 0.15441376
0.13409714 0.06027267 0.09876243 0.15276836 -0.061054196 0.08391743 -0.12134296 -0.10532376
0.13846385 0.044396285 0.15401568 -0.08704301 -0.03299207 0.069541864 -0.04847928 0.121876046
00000000: 5c65 283c 3af6 153e 2d70 173e 4a31 163e
00000010: 7163 3f3d 0dfc 02be 26e9 a6bd 4874 bd3d
00000020: a60a d53d d270 0f3e 3023 d83d e5b7 093e
00000030: 0750 fcbd 6437 1c3e 3c3c f5bd a41e 1e3e
00000040: c350 093e 7ae0 763d f543 ca3d 4f6f 1c3e
00000050: f713 7abd e7dc ab3d a882 f8bd fcb3 d7bd
00000060: 78c9 0d3e e1d8 353d 49b6 1d3e 9b43 b2bd
00000070: b122 07bd f76b 8e3d 3692 46bd 269a f93d

stages.2.0.norm.weight f4 [32]
0.806547 0.80718964 0.8019782 0.80929375 0.81282145 0.807752 0.8077737 0.80641466
0.80723774 0.8090606 0.8133951 0.8095798 0.8075605 0.80756813 0.80638456 0.81054837
0.80976516 0.80993164 0.8081894 0.8061974 0.8101363 0.8069114 0.8058711 0.8064754
0.8087484 0.80758846 0.80743825 0.8066128 0.8060156 0.8061375 0.80612206 0.81244266
00000000: dd79 4e3f fba3 4e3f 714e 4d3f e02d 4f3f
00000010: 1115 503f d6c8 4e3f 42ca 4e3f 3171 4e3f
00000020: 22a7 4e3f 981e 4f3f a93a 503f 9f40 4f3f
00000030: 49bc 4e3f c9bc 4e3f 386f 4e3f 1980 4f3f
00000040: c54c 4f3f ae57 4f3f 80e5 4e3f f462 4e3f
00000050: 1865 4f3f bf91 4e3f 924d 4e3f 2c75 4e3f
00000060: 230a 4f3f 1ebe 4e3f 46b4 4e3f 2d7e 4e3f
00000070: 0a57 4e3f 075f 4e3f 045e 4e3f 3efc 4f3f

stages.2.0.norm.bias f4 [32]
0.037246704 -0.016285606 0.04399673 -0.040524777 -0.025370589 0.029346261 -0.030015977 -0.028719889
-0.027364187 -0.02935039 -0.073519945 0.003918775 0.028971959 -0.081663586 -0.005648426 0.069930054
0.02049294 -0.08255357 -0.008209574 0.016865222 -0.03096215 -0.058022574 -0.038685843 -0.018547032
-0.024036711 0.0214701 0.004360544 0.061635256 0.008812807 -0.025975723 0.054662984 0.013505684
00000000: 0090 183d 6469 85bc ea35 343d 4ffd 25bd
00000010: fbd5 cfbc 9267 f03c 11e4 f5bc f945 ebbc
00000020: dc2a e0bc 3b70 f0bc a091 96bd 1169 803b
00000030: 9a56 ed3c 3d3f a7bd 6e16 b9bb 7d37 8f3d
00000040: cfe0 a73c d911 a9bd 7381 06bc ef28 8a3c
00000050: 56a4 fdbc 14a9 6dbd 0c75 1ebd f2ef 97bc
00000060: a3e8 c4bc 10e2 af3c e5e2 8e3b 4075 7c3d
00000070: 9763 103c 0acb d4bc 4be6 5f3d f246 5d3c

stages.2.0.norm.running_mean f4 [32]
0.006067554 -0.0107722655 0.04603494 0.0032198338 -0.043532163 0.013719637 -0.0016635082 0.049329083
-0.012654919 -0.011478811 0.05236955 0.004861983 0.0005504691 0.008825114 0.011891709 -0.000105756575
0.022012452 -0.027904198 -0.0010126621 0.01848246 0.09211386 0.003103851 -0.05082333 0.006897693
0.011938388 0.0057842536 -0.038515154 0.043930747 -0.0010613349 0.036733393 -0.003655969 0.010719762
00000000: 55d2 c63b 287e 30bc 228f 3c3d d903 533b
00000010: c84e 32bd 54c8 603c 130a daba 4b0d 4a3d
00000020: 9456 4fbc 9f11 3cbc 7481 563d 4551 9f3b
00000030: 5b4d 103a 3697 103c 71d5 423c a1c9 ddb8
00000040: 7553 b43c 5897 e4bc 4dbb 84ba 8768 973c
00000050: 31a6 bc3d fb69 4b3b 202c 50bd 0b06 e23b
00000060: 3b99 433c d689 bd3b 11c2 1dbd baf0 333d
00000070: 7d1c 8bba c175 163d fb98 6fbb f1a1 2f3c

stages.2.0.norm.running_var f4 [32]
0.054285537 0.012280836 0.8707302 0.018823957 0.03608626 0.0059508253 0.00058343465 0.20138003
0.097200535 0.011078786 0.018727811 0.063519605 0.07742713 0.010015891 0.0025768473 0.023229554
0.057291303 0.027184479 0.014532547 0.011652301 0.2592492 0.20059177 0.070019014 0.008366518
0.006275545 0.010197033 0.010939414 0.12319161 0.023518335 0.07026781 0.0012235608 0.038538728
00000000: 835a 5e3d 8f35 493c 2de8 5e3f b334 9a3c
00000010: 30cf 133d 24ff c23b a3f1 183a 9136 4e3e
00000020: 1311 c73d cc83 353c 116b 993c 9116 823d
00000030: 1d92 9e3d b119 243c 53e0 283b e84b be3c
00000040: 49aa 6a3d fcb1 de3c ec19 6e3c 4be9 3e3c
00000050: 50bc 843e ee67 4d3e 2166 8f3d b813 093c
00000060: 16a3 cd3b 7511 273c 3a3b 333c e24b fc3d
00000070: 86a9 c03c 92e8 8f3d e35f a03a c9da 1d3d

stages.2.0.pwconv1.weight f4 [64, 32]
-0.040692616 -0.0068261116 -0.03393763 0.020129187 -0.15343979 0.012699778 0.010077093 -0.008096293
0.28443223 0.027287753 0.062786154 0.06491498 -0.060355257 -0.10798737 0.00089674635 0.009538604
-0.05872115 -0.17983231 0.009960365 -0.34474283 0.045448184 -0.011557334 0.0011176514 -0.34162405
-0.05191869 -0.0032073467 -0.013193867 -0.021254214 0.12691242 -0.045084786 -0.011525077 -0.00041020295
0.0046878164 0.0028561254 0.015791446 -0.0037612158 -0.2806622 -0.12090781 0.004782134 -0.0047384524
-0.013890893 0.2619577 -0.030691154 -0.006663262 -0.27203628 -0.0041204253 0.008680366 0.17101227
0.10974337 -0.21955287 -0.12878513 0.020594086 -0.33474928 -0.0099483235 0.03166058 -0.009954056
-0.0023222507 0.009373727 0.0069865915 0.07740618 -0.022553777 -0.25101906 -0.0024166727 0.033166558
-0.26113588 -0.029675808 -0.0053429254 0.10825886 -0.016983967 0.061074276 -0.0205461 0.20830002
0.03687162 0.026791288 0.04797439 -0.3442778 0.19026557 -0.12504275 -0.1905281 0.44654518
-0.051767215 -0.12757735 -0.070229895 0.006320369 0.113251016 0.032534443 0.058925536 -0.039933633
0.056559186 0.37609905 -0.11564252 0.041338857 -0.018535087 -0.03915868 0.017757585 -0.1377102
0.060637854 0.4252017 0.17092484 -0.02010085 -0.24236023 -0.0023280212 -0.0119959 0.00015457271
0.021477882 -0.16702004 -0.14342903 -0.004903079 -0.01751502 -0.018059159 -0.1185934 0.0953663
0.0007382779 -0.022346934 -0.013873153 -0.04575263 -0.0316315 -0.016471893 0.012021952 -0.007851806
0.4128387 0.03152809 0.0018537594 -0.07842267 0.084610686 0.012782128 0.1574863 -0.0062851757
0.011341813 -0.009580557 0.25912744 0.0046099527 0.006259287 0.24587283 -0.029055607 0.017825812
-0.017216757 -0.0042330665 0.049529776 0.0073602516 -0.0073931543 -0.09875174 0.26357523 0.030943062
0.065473735 0.0055529 -0.005908986 0.0056383577 -0.023907045 -0.001755153 0.0065031755 0.026212731
0.015721 -0.0012164271 -0.12437649 0.0054245587 -0.0069393623 0.095921285 0.0008191452 0.005937162
0.038283702 0.027547572 -0.18262395 -0.09285941 -0.025850514 0.0120638 -0.00013804178 0.09027946
-0.011264352 -0.03419687 -0.04510943 -0.0073249484 -0.012300332 -0.018878665 -0.02094297 -0.043420527
-0.017685074 -0.2955489 -0.26270878 -0.003487071 -0.054081615 -0.0026967693 -0.013639316 -0.004478297
-0.025052566 0.014385024 0.010036655 -0.0044003804 -0.039449472 0.10170656 0.008902259 0.012425899
0.017232647 -0.015505393 0.13599207 -0.04543986 0.32359654 -0.33815783 -0.056442756 0.01736874
-0.0021239882 -0.46118438 -0.13032539 -0.26490355 0.027131045 -0.11024707 0.011458683 0.001213966
-0.0015204084 -0.03992657 0.020832019 -0.07640357 -0.32401726 -0.2584391 0.04098888 -0.12443077
-0.03617079 0.009634479 0.010408511 0.24881707 -0.02841005 0.081147105 -0.15511233 0.0048367297
0.08354008 0.020328572 0.32047856 -0.18346876 0.05504011 0.006250477 -0.06368962 0.07809496
-0.06258682 0.17008291 -0.018766109 0.02252042 -0.025542956 -0.24092689 -0.07287394 0.04985833
-0.04168947 -0.47315496 0.0020873128 0.08976858 -0.008279734 0.0059498874 -0.071123056 0.29770494
0.34387973 -0.009041043 -0.035028387 -0.06973634 0.40055805 -0.22174045 0.32056445 0.06365657
00000000: 4dad 26bd 93ad dfbb 2f02 0bbd f7e5 a43c
00000010: 521f 1dbe bb12 503c 641a 253c 50a6 04bc
00000020: 1aa1 913e 918a df3c 0796 803d 25f2 843d
00000030: 1337 77bd 7b28 ddbd a113 6b3a ce47 1c3c
00000040: 9785 70bd f625 38be cc30 233c 2282 b0be
00000050: e027 3a3d f95a 3dbc 287e 923a 59e9 aebe
00000060: b1a8 54bd 5932 52bb 172b 58bc 511d aebc
00000070: 54f5 013e d3aa 38bd add3 3cbc 8210 d7b9
00000080: 419c 993b d52d 3b3b 105d 813c bb7e 76bb
00000090: f5b2 8fbe 849e f7bd 73b3 9c3b 0545 9bbb
000000a0: a196 63bc 521f 863e 046c fbbc 7e57 dabb
000000b0: 5748 8bbe a204 87bb 1838 0e3c d71d 2f3e
000000c0: 22c1 e03d 78d2 60be 40e0 03be eeb4 a83c
000000d0: 4264 abbe 4bfe 22bc 86ae 013d 5616 23bc
000000e0: e730 18bb 4394 193c c7ef e43b 2287 9e3d
000000f0: b3c2 b8bc 9285 80be 0a61 1ebb a8d9 073d
00000100: 9ab3 85be ae1a f3bc b513 afbb d2b6 dd3d
00000110: f621 8bbc 0529 7a3d 4b50 a8bc 9a4c 553e
00000120: b206 173d 6779 db3c cb80 443d 2e45 b0be
00000130: fad4 423e 350b 00be cc19 43be 92a1 e43e
00000140: dc09 54bd a3a3 02be b1d4 8fbd 191b cf3b
00000150: 26f0 e73d d642 053d e75b 713d 7391 23bd
00000160: 9baa 673d 0e90 c03e fcd5 ecbd ef52 293d
00000170: e5d6 97bc da64 20bd 5b78 913c e703 0dbe
00000180: 665f 783d 0ab4 d93e ec06 2f3e 8aaa a4bc
00000190: 482d 78be b791 18bb 748a 44bc cc14 2239
000001a0: 62f2 af3c 4d07 2bbe 0fdf 12be 02aa a0bb
000001b0: a97b 8fbc cdf0 93bc 19e1 f2bd 684f c33d
000001c0: fe88 413a eb10 b7bc 394c 63bc 1c67 3bbd
000001d0: 0890 01bd 10f0 86bc b9f7 443c dca4 00bc
000001e0: 985f d33e 9923 013d d8f9 f23a 119c a0bd
000001f0: 5e48 ad3d 216c 513c 1744 213e e0f3 cdbb
00000200: 03d3 393c c5f7 1cbc 5aac 843e 160f 973b
00000210: b41a cd3b 16c6 7b3e 0606 eebc 7007 923c
00000220: 280a 8dbc 89b5 8abb bcdf 4a3d 442e f13b
00000230: 4642 f2bb 5a3e cabd 55f3 863e 4e7c fd3c
00000240: 1817 863d 1af5 b53b 2ba0 c1bb f9c1 b83b
00000250: b5d8 c3bc 290d e6ba 9718 d53b 15bc d63c
00000260: 54c9 803c 8570 9fba 1ab9 febd 7fc0 b13b
00000270: 9763 e3bb 6172 c43d e7bb 563a 868c c23b
00000280: 5fcf 1c3d 72ab e13c c601 3bbe 132d bebd
00000290: 75c4 d3bc 3fa7 453c 4fbf 10b9 70e4 b83d
000002a0: 1e8e 38bc 0412 0cbd aac4 38bd 1f06 f0bb
000002b0: 5587 49bc 6ea7 9abc 9790 abbc b9d9 31bd
000002c0: 4ae0 90bc 2f52 97be c481 86be 5887 64bb
000002d0: af84 5dbd 48bc 30bb 7077 5fbc aebe 92bb
000002e0: 0a3b cdbc 2aaf 6b3c c870 243c 1131 90bb
000002f0: c595 21bd 874b d03d c8da 113c ff95 4b3c
00000300: 7b2b 8d3c 550a 7ebc 8141 0b3e 261f 3abd
00000310: 72ae a53e 0623 adbe 8530 67bd e348 8e3c
00000320: 9c32 0bbb 5c20 ecbe 0574 05be 70a1 87be
00000330: ed41 de3c 37c9 e1bd 33bd 3b3c f11d 9f3a
00000340: 7148 c7ba 0b8a 23bd e9a7 aa3c 7a79 9cbd
00000350: 97e5 a5be 2152 84be f5e3 273d 8fd5 febd
00000360: d327 14bd efd9 1d3c 7688 2a3c e7c9 7e3e
00000370: 31bc e8bc 7430 a63d c4d5 1ebe 6e7d 9e3b
00000380: 1017 ab3d 1b88 a63c c415 a43e 3cdf 3bbe
00000390: bd71 613d cdd0 cc3b b46f 82bd 40f0 9f3d
000003a0: 852d 80bd 372a 2e3e 62bb 99bc be7c b83c
000003b0: 763f d1bc 8ab5 76be ef3e 95bd 4038 4c3d
000003c0: 94c2 2abd 5e41 f2be 4ccb 083b 97d8 b73d
000003d0: b9a7 07bc 46f7 c23b f7a8 91bd c86c 983e
000003e0: 0111 b03e e220 14bc ed79 0fbd edd1 8ebd
000003f0: f215 cd3e ee0f 63be 0621 a43e 605e 823d

stages.2.0.pwconv1.bias f4 [64]
0.025525933 0.026682887 0.04176099 0.009452951 0.023509111 0.016568214 0.013815272 0.0992273
0.051946286 0.04418102 0.04758832 0.011989717 0.036644835 -0.005816931 0.027197637 0.009767713
0.015465113 -0.038960345 0.015568534 -0.017357614 0.0025921338 0.056384467 0.018492922 0.04258891
0.0011160267 -0.007404363 0.010061298 0.005981671 0.0319852 -0.0074850586 -0.0073845913 0.021861235
0.0063194474 0.024859246 0.005521984 0.03336421 0.036855575 0.01660044 0.018124666 0.013128479
0.028790498 0.03663591 0.006949813 0.017484805 0.00080982 0.021783387 0.04716216 0.040240113
0.014359065 0.07206539 -0.027200818 0.041200288 0.013920821 0.043173343 0.037843406 0.03219235
0.003838004 0.0063983602 -0.0075997403 -0.0028903517 0.021082154 -0.008425802 0.055868153 -0.0033428394
00000000: c31b d13c 1296 da3c 920d 2b3d 8de0 1a3c
00000010: 2e96 c03c 10ba 873c 7359 623c af37 cb3d
00000020: a1c5 543d 28f7 343d f8eb 423d 8570 443c
00000030: e518 163d f49b bebb 94cd de3c c208 203c
00000040: 6361 7d3c e294 1fbd 2a13 7f3c 8e31 8ebc
00000050: cae0 293b 66f3 663d 787e 973c b571 2e3d
00000060: a447 923a 4ca0 f2bb 24d8 243c e501 c43b
00000070: ea02 033d 3945 f5bb 71fa f1bb 5516 b33c
00000080: 5e13 cf3b 9ea5 cb3c c2f1 b43b e9a8 083d
00000090: dff5 163d a5fd 873c 2e7a 943c d518 573c
000000a0: 0dda eb3c 890f 163d 42bb e33b 4b3c 8f3c
000000b0: 1a4a 543a 1373 b23c 1c2d 413d d1d2 243d
000000c0: 4942 6b3c 0597 933d 40d4 debc a2c1 283d
000000d0: 2814 643c 88d6 303d b001 1b3d 20dc 033d
000000e0: 0687 7b3b 56a9 d13b 3e07 f9bb 0e6c 3dbb
000000f0: 7bb4 ac3c 600c 0abc 01d6 643d 8a13 5bbb
